SnakeV3/snake_model_episode_500.pth (torch, 23336 bytes, 6 tensors)

fc1.weight f4 [64, 11]
0	0x3f41500a	0.75512755
1	0x3f054164	0.52052903
2	0x3e8562d0	0.2605195
3	0x3ebd5577	0.36979267
4	0xbec72570	-0.3889575
5	0x3ed0a80d	0.40753213
6	0x3e053fca	0.13012615
7	0xbed5d973	-0.41767463
8	0xbe96bdfc	-0.29441822
9	0xbf4c4132	-0.7978698
10	0xbe971e5a	-0.29515344
11	0x3eddd168	0.43323827
12	0x3f70aeeb	0.94016904
13	0x3f1bd9ba	0.608791
14	0xbf3d2fe1	-0.7390118
15	0xbfe9d7e0	-1.8269005
16	0xbeefe0ca	-0.46851188
17	0xbf95af5a	-1.1694138
18	0x3e458838	0.19290245
19	0x3d9464f7	0.0724582
20	0x3eb21718	0.34783244
21	0xbeac1aa0	-0.33614063
22	0xbf31138d	-0.6917046
23	0x3ee12db6	0.43980187
24	0xbee51a57	-0.44746658
25	0xbf4f9c9f	-0.8109836
26	0x3f0ff272	0.5622932
27	0x3f3bd450	0.7337084
28	0x3db664e3	0.08905961
29	0xbf7307d5	-0.94933826
30	0x3f17449e	0.59089077
31	0x3ec0427d	0.37550727
32	0xbf536099	-0.8256927
33	0xbf096776	-0.53673494
34	0x3f0f5b36	0.5599855
35	0x3f2bee79	0.67160755
36	0x3f10e303	0.5659639
37	0xbe7312af	-0.23737596
38	0xbe0a17a1	-0.13485576
39	0xbe16da76	-0.14731774
40	0xbe62af3f	-0.22137164
41	0x3f334f15	0.70042545
42	0xbf1d8b75	-0.6154092
43	0xbf306d73	-0.68917006
44	0xbe6a300c	-0.22869891
45	0x3eb14df4	0.34629786
46	0x3eb20f78	0.34777427
47	0x3f0bf533	0.5467102
48	0xbf9f597e	-1.2449186
49	0x3e587b4b	0.21140783
50	0xbf9f6231	-1.2451841
51	0x3f093568	0.53597116
52	0xbf486ae7	-0.7828812
53	0xbf9f9e2e	-1.2470148
54	0xbff278a2	-1.8943064
55	0xbe7bb9f9	-0.24582662
56	0xbf47b42a	-0.78009284
57	0x3ff11c77	1.8836812
58	0xbdae5484	-0.08512214
59	0xbf5fd915	-0.87440616
60	0x3e28782c	0.16452092
61	0xbec7cc1c	-0.3902291
62	0x3dacf37f	0.08444881
63	0x3cc1853c	0.023623101
64	0x3f0ba8e0	0.5455456
65	0xbe73744f	-0.23774837
66	0x3f441a69	0.766028
67	0x3e9896bb	0.29802498
68	0x3e80e02a	0.25171024
69	0xbf274f43	-0.6535532
70	0x3d6ad66b	0.05733339
71	0xbf24fbe7	-0.6444687
72	0xbf8656cd	-1.049524
73	0xbee38372	-0.44436222
74	0x3d52bf39	0.051451895
75	0x3eab5b29	0.33467987
76	0x3e893559	0.26798514
77	0xbee1b36e	-0.44082206
78	0xbf4d671d	-0.80235463
79	0x3c99ab4e	0.018758442
80	0xbe94a328	-0.29030728
81	0x3e8e1d93	0.27756938
82	0xbecfb3a3	-0.4056674
83	0x3f5f4456	0.8721365
84	0x3ede68a2	0.43439204
85	0xbcd4d61f	-0.025981007
86	0xbefe0423	-0.4961253
87	0x3e896a5c	0.26838958
88	0xbe4bbd30	-0.19896388
89	0xbf8e9ff8	-1.1142569
90	0x3f1a82a8	0.60355616
91	0xbd7ebebe	-0.062193625
92	0xbeac1fa1	-0.3361788
93	0x3f26163a	0.64877665
94	0x3ef88bd6	0.48544186
95	0x3edc509f	0.4303026
96	0x3e5d00d8	0.21582353
97	0xbed8d144	-0.42347157
98	0xbeb39cf4	-0.35080683
99	0xbf4ccf1b	-0.8000352
100	0x3e2396ee	0.15975544
101	0xbed75762	-0.42058855
102	0xbf8402ed	-1.0313393
103	0xbef8bc9b	-0.48581395
104	0xbf71fd6b	-0.9452731
105	0x3f33fb91	0.70305735
106	0xbfded0fe	-1.7407529
107	0xbf375add	-0.7162302
108	0xbf42ea83	-0.76139086
109	0x3f578c31	0.8419829
110	0x3f6f97a2	0.9359075
111	0x3eb47b1f	0.35250184
112	0x3ea535ca	0.322676
113	0x3df2021b	0.11816808
114	0x3e814fe9	0.2525628
115	0xbf444e02	-0.7668153
116	0xbedc2b74	-0.43001902
117	0xbdcad035	-0.099029936
118	0xbefa8517	-0.48929664
119	0xbee6ddd6	-0.45091122
120	0xbe3d8880	-0.18509102
121	0x3f00565f	0.5013179
122	0x3f4da9f9	0.8033748
123	0x3e45f004	0.1932984
124	0xbeb80677	-0.35942432
125	0x3ed5dc4f	0.41769645
126	0xbf828518	-1.0196867
127	0xbd825cdc	-0.06365368
128	0xbe49ab9f	-0.19694375
129	0xbfcda770	-1.6066723
130	0xbe953f18	-0.291497
131	0xbf56b01e	-0.83862484
132	0xbeeec24e	-0.46632618
133	0x3f355120	0.7082691
134	0x3f4cf340	0.8005867
135	0xbe11ceec	-0.1423909
136	0xbfc27b96	-1.5193965
137	0x3db0c53a	0.08631368
138	0xbe8ff2ee	-0.28115028
139	0xbefef3ae	-0.49795288
140	0xbeb75a6e	-0.3581118
141	0xbf5ce98c	-0.86293864
142	0x3e83d62a	0.25749332
143	0xbe583fac	-0.21118039
144	0x3f19a83a	0.6002232
145	0xbf942378	-1.1573324
146	0x3d64fd53	0.05590565
147	0x3ec75d1f	0.38938233
148	0x3f137a88	0.5760884
149	0x3f075cc5	0.5287593
150	0xbe09d564	-0.13460308
151	0xbf162e01	-0.58663946
152	0xbef75d2c	-0.48313272
153	0xbdeea705	-0.1165295
154	0x3f90a1bb	1.1299356
155	0xbd75ee70	-0.060041845
156	0xbe7ffea2	-0.24999478
157	0xbe7c18da	-0.24618855
158	0x3c815528	0.015787676
159	0xbf71a284	-0.94388604
160	0xbf1a3593	-0.60238
161	0xbe362caa	-0.17790475
162	0x3d2ff79f	0.04296076
163	0x3ea48d9c	0.3213929
164	0x3ea85177	0.32874653
165	0x3ec92adf	0.3929052
166	0x3f8315bd	1.0241009
167	0x3ebbd520	0.3668604
168	0xbf4051b1	-0.7512465
169	0xbf10300f	-0.5632333
170	0xbe693498	-0.22773969
171	0xbfea1df0	-1.8290386
172	0xbf312de1	-0.6921063
173	0xbf947f27	-1.1601304
174	0xbf244032	-0.64160454
175	0x3f2615cf	0.6487703
176	0x3dc91a65	0.098194875
177	0xbdb3dad5	-0.08781973
178	0x3f2e9730	0.68199444
179	0xbec5cd65	-0.38633266
180	0x3ddf69c8	0.10908848
181	0xbe4650f1	-0.19366814
182	0xbe5f8c67	-0.21830903
183	0xbde6e4a4	-0.112740785
184	0xbec068ba	-0.375799
185	0xbc1e7009	-0.009670266
186	0x3eab66e3	0.33476934
187	0x3f8e2512	1.1105063
188	0xbe7efc0a	-0.24900833
189	0x3ef431b7	0.4769418
190	0xbee66b0b	-0.45003542
191	0x3d4781ea	0.04870788
192	0x3ed57502	0.41690832
193	0x3f0f0451	0.5586596
194	0x3efb049f	0.49026963
195	0x3e67fe6d	0.2265565
196	0xbe949e3c	-0.29026973
197	0xbf9757f2	-1.1823714
198	0xbf684d3d	-0.90742856
199	0x3f14a626	0.5806602
200	0xbfef501a	-1.869632
201	0x3ea99251	0.33119443
202	0xbca4ebe6	-0.020132016
203	0x3e4e4277	0.20142542
204	0x3e9b4f92	0.30334145
205	0x3da1c2b2	0.07898463
206	0x3e7d40d0	0.24731755
207	0x3e50d4f8	0.20393741
208	0x3e5814f2	0.2110174
209	0x3e9432d7	0.28945038
210	0x3e8810f4	0.26575434
211	0x3f23e27a	0.6401745
212	0xbf0cd750	-0.5501604
213	0xbd6780c1	-0.056519274
214	0x3dbda910	0.09260762
215	0x3f221662	0.63315403
216	0xbebbee84	-0.3670541
217	0x3e964e1e	0.29356474
218	0xbf452043	-0.7700235
219	0xbf3062b4	-0.6890061
220	0x3f6f7cbc	0.93549705
221	0x3ed4c390	0.41555452
222	0xbfba30f5	-1.454619
223	0xbfdc8024	-1.7226605
224	0xbcdbb18e	-0.026818063
225	0xbeff6c08	-0.4988711
226	0xbe865bed	-0.2624201
227	0xbf29f6dd	-0.6639231
228	0x3e841672	0.25798374
229	0x3f0b7b7b	0.5448529
230	0x3e4ee480	0.20204353
231	0xbd5263b1	-0.051364604
232	0xbf14f1d3	-0.58181494
233	0xbf5c2d4b	-0.8600661
234	0x3ecf9ca5	0.40549198
235	0x3ecf10de	0.40442556
236	0x3ec79b48	0.38985658
237	0x3e610cc5	0.21977527
238	0x3e45db68	0.19321978
239	0x3d73d30a	0.059527434
240	0x3ed88a56	0.42293042
241	0x3e65f559	0.22456874
242	0xbef2794a	-0.4735816
243	0xbeba37cf	-0.36370704
244	0xbee2f3f8	-0.44326758
245	0xbf414c97	-0.7550749
246	0x3f606594	0.87654996
247	0xbe2f3437	-0.17109762
248	0x3f12e260	0.5737667
249	0xba30e264	-0.0006747602
250	0xbd7071ac	-0.058702156
251	0x3e81a7bf	0.25323293
252	0xbf006ea9	-0.50168854
253	0x3f6e59b4	0.93105626
254	0xbf1299a5	-0.5726569
255	0x3f623c16	0.88372934

fc1.bias f4 [64]
0	0xbe648f67	-0.22320329
1	0xbed3e97b	-0.4138907
2	0x3ee154fc	0.4401015
3	0x3d915b20	0.07097459
4	0xbe269968	-0.16269457
5	0xbd9086dc	-0.070569724
6	0xbf31139c	-0.69170547
7	0x3df2c9c3	0.11854889
8	0xbda1e789	-0.0790549
9	0xbdda9b6e	-0.10674177
10	0xbe5722ac	-0.2100932
11	0x3d8ac90d	0.06776629
12	0xbe322a7b	-0.17399018
13	0x3f067d59	0.52535015
14	0xbf1908d5	-0.597791
15	0xbecbcb9f	-0.39803788
16	0xbdb1acb0	-0.08675516
17	0xbe68efcf	-0.2274773
18	0x3ecc45f4	0.3989712
19	0x3df21e33	0.11822166
20	0xbf1b1fe7	-0.60595554
21	0x3f402676	0.75058687
22	0x3ed3f48e	0.41397518
23	0xbebad544	-0.36490834
24	0xbee4a81c	-0.44659507
25	0x3f26491b	0.649553
26	0xbeb3cac0	-0.35115623
27	0xbeaa38aa	-0.33246356
28	0x3ee94e46	0.4556753
29	0xbe960f34	-0.29308474
30	0x3f4e6895	0.8062833
31	0xbf590971	-0.8478003
32	0x3f1dd8f3	0.61659163
33	0xbdfe5d7c	-0.124201745
34	0xbe5541dd	-0.20825906
35	0xbe93e323	-0.2888423
36	0x3ec49173	0.3839222
37	0x3def6153	0.11688485
38	0xbc8001f0	-0.015625924
39	0x3e41f4cd	0.1894104
40	0xbdccd74f	-0.10002004
41	0xbf5d8b46	-0.8654064
42	0x3e6a1063	0.22857814
43	0xbecd7f61	-0.40136245
44	0xbf09a056	-0.5376028
45	0x3e088c25	0.13334711
46	0xbdf663ad	-0.120307304
47	0xbf086bdd	-0.53289586
48	0x3f50a01c	0.8149431
49	0x3e898950	0.26862574
50	0x3f23233f	0.63725656
51	0x3da0a0e1	0.07843185
52	0xbe8dae0b	-0.27671847
53	0xbe715353	-0.23566942
54	0x3e26387f	0.16232489
55	0xbdbc6bad	-0.09200225
56	0x3eb9eb19	0.36312178
57	0xbe1c248e	-0.1524832
58	0xbee5f7a0	-0.44915485
59	0x3c3b1ed0	0.0114209205
60	0x3d3cb21d	0.0460683
61	0xbede142c	-0.43374765
62	0x3e7764ae	0.241595
63	0x3ce9f95a	0.028561283

fc2.weight f4 [64, 64]
0	0xbebe98b5	-0.3722588
1	0x3df746da	0.12074061
2	0x3eb8e31b	0.36110768
3	0x3e9142ef	0.2837138
4	0x3f73036e	0.9492711
5	0x3f228b65	0.6349395
6	0x3f4c707e	0.7985915
7	0x3ed62bfc	0.41830432
8	0xbeea9c06	-0.4582216
9	0x3f7b5e1d	0.9819048
10	0x3eac78d6	0.3368594
11	0x3ecae040	0.39624214
12	0x3f010416	0.5039686
13	0x3e115027	0.14190732
14	0x3e176e48	0.14788163
15	0xbe72f286	-0.23725328
16	0xbd28ac97	-0.04118022
17	0xbf9921c8	-1.1963434
18	0xbd368b94	-0.044566706
19	0x3e20b587	0.15694247
20	0x3f9f794b	1.2458891
21	0xbd1c2779	-0.03812358
22	0xbdf0bda8	-0.11754924
23	0x3f04bc20	0.51849556
24	0xbf7dcf54	-0.9914448
25	0x3def0ce6	0.11672382
26	0x3e924981	0.28571704
27	0x3e98774a	0.2977851
28	0xbe21b937	-0.1579331
29	0x3ed63d2b	0.41843542
30	0x3f02ad7f	0.51045984
31	0x3f58eb26	0.8473381
32	0x3e9f1d74	0.31077158
33	0x3e0641b2	0.13110998
34	0x3ce446b6	0.027865749
35	0x3e8972e8	0.2684548
36	0x3f18b42b	0.59649915
37	0xbf2c8cb8	-0.6740222
38	0x3eb764ec	0.35819185
39	0xbe8a1407	-0.26968405
40	0x3eb59b30	0.3546996
41	0xbf034dea	-0.5129076
42	0x3eb4fedb	0.3535069
43	0xbf32a434	-0.69781804
44	0xbc6402a9	-0.01391665
45	0xbe34e75e	-0.17666385
46	0x3e1c4d9d	0.15263982
47	0x3eb15752	0.34636933
48	0x3e98a292	0.2981153
49	0x3e27c12d	0.16382284
50	0xbe527882	-0.20553783
51	0x3f0df60e	0.55453575
52	0xbf0146b0	-0.50498486
53	0x3f1d1fd1	0.61376673
54	0x3d9d7550	0.07688391
55	0x3f111441	0.5667153
56	0x3d9b9ecf	0.0759865
57	0x3ade3200	0.0016952157
58	0xbeb7d4ca	-0.35904533
59	0x3f1df2d8	0.61698675
60	0xbea35a5b	-0.31904873
61	0xbfdc22cb	-1.7198118
62	0xbf291159	-0.66042095
63	0xbf8d8c98	-1.1058531
64	0x3eaa464b	0.33256754
65	0x3e6b86d5	0.23000653
66	0x3f18c66c	0.5967777
67	0x3ef10f70	0.4708209
68	0x3f5b1e16	0.8559278
69	0x3e89fe89	0.26952007
70	0x3ecf92c4	0.4054166
71	0x3e1183f0	0.14210486
72	0xbe219312	-0.15778759
73	0x3f306fb8	0.6892047
74	0x3e6a69e6	0.2289196
75	0x3f1819a2	0.5941411
76	0x3f104818	0.56360006
77	0x3e54b036	0.20770344
78	0xbed4cab3	-0.41560897
79	0x3e8194a4	0.25308716
80	0xbe5091ad	-0.20368071
81	0xbf66f80a	-0.9022223
82	0x3dc35ee2	0.09539582
83	0x3ee9e6df	0.45683953
84	0x3f0bcdd0	0.5461092
85	0xbba7a47b	-0.005116043
86	0xbe348e0f	-0.17632316
87	0x3e53f20e	0.20697805
88	0xbf61c176	-0.8818582
89	0x3de4675d	0.111525275
90	0x3f000a5e	0.5001582
91	0x3e6b5dfc	0.22985071
92	0xbe85c70a	-0.26128417
93	0x3eddc198	0.43311763
94	0x3e60e999	0.2196411
95	0x3e7e7a49	0.24851336
96	0x3f0e0f62	0.5549222
97	0x3e5ce1f4	0.2157057
98	0x3e8783d4	0.26467764
99	0x3f15e18a	0.5854727
100	0x3e845a9c	0.2585038
101	0xbf2735b6	-0.6531633
102	0xbdc652c2	-0.096837536
103	0xbe3e86b3	-0.18606071
104	0x3ecfd3bc	0.40591228
105	0xbf229f5b	-0.6352441
106	0x3ef5987d	0.47967902
107	0x3e269f91	0.16271807
108	0x3e099e18	0.13439214
109	0x3d81f28c	0.0634509
110	0x3ee52edc	0.44762313
111	0x3e1b7512	0.15181378
112	0x3eb0dbff	0.34542844
113	0xbdc21877	-0.094773225
114	0xbe7e3776	-0.24825844
115	0x3f13617b	0.5757062
116	0xbee32be0	-0.4436941
117	0x3ef102c0	0.4707241
118	0x3e1b7195	0.15180047
119	0x3ecfa482	0.40555197
120	0x3b49edc0	0.0030811876
121	0xbb8738a0	-0.0041266233
122	0xbd840e60	-0.06448054
123	0x3f45f5c5	0.7732814
124	0x3e7a59fb	0.24448387
125	0xbf3545bb	-0.70809525
126	0x3b6f1fda	0.003648749
127	0xbea3ddc4	-0.3200513
128	0xbc3940c9	-0.01130695
129	0x3f418f12	0.7560893
130	0xbe038d09	-0.1284677
131	0x3f4eb2e2	0.80741704
132	0xbef51889	-0.4787028
133	0x3faffee8	1.3749666
134	0x3f354dab	0.70821637
135	0x3f71a467	0.94391483
136	0x3e164897	0.14676128
137	0xbe5a78bd	-0.2133512
138	0xbe25a642	-0.16176704
139	0xbe475e9e	-0.19469687
140	0x3f00b5e8	0.50277567
141	0x3e3b3ab9	0.1828412
142	0x3e36a731	0.17837216
143	0xbef3155e	-0.4747724
144	0x3f356fcc	0.70873713
145	0xbdb3bc9a	-0.08776207
146	0xbfda328a	-1.7046673
147	0x3f3ed3a9	0.7454172
148	0x3ed01bd3	0.40646228
149	0xbe276117	-0.1634563
150	0xbeb29b5c	-0.34884155
151	0x3ecb40a4	0.39697754
152	0xbf1aa43a	-0.6040684
153	0x3eb0b227	0.3451092
154	0xbe95fea0	-0.29295826
155	0x3f87f39e	1.0621221
156	0x3e17376d	0.14767237
157	0x3f10bca4	0.5653784
158	0x3f184679	0.5948253
159	0x3ef851b1	0.48499826
160	0xbebdd649	-0.3707755
161	0xbf56376a	-0.83678305
162	0x3eb67763	0.3563796
163	0xbef213c5	-0.47280708
164	0x3ebf23b9	0.37331942
165	0xbf3198d3	-0.69373816
166	0xbecb5405	-0.3971254
167	0xbe232e43	-0.15935616
168	0xbf0ae8a6	-0.54261243
169	0xbe59aef2	-0.21258143
170	0x3e17dc94	0.14830238
171	0xbfb56cfe	-1.4173887
172	0xbf64a31a	-0.89311373
173	0xbf1b8a64	-0.6075804
174	0xbeebd944	-0.46064198
175	0x3ed897bd	0.42303267
176	0xbd13d4f3	-0.036091756
177	0x3f365bf5	0.71234065
178	0x3e8e2a53	0.27766666
179	0xbc3d1580	-0.0115407705
180	0xbec8b481	-0.39200214
181	0xbc0370b4	-0.008022476
182	0xbf3edc86	-0.7455524
183	0xbde43b33	-0.11144104
184	0x3d81b65f	0.06333613
185	0xbdfb9dd6	-0.12285964
186	0xbd6769a7	-0.056497242
187	0x3fd3a126	1.6533554
188	0xc001273a	-2.0180192
189	0x3ebca0b7	0.36841366
190	0xbef74ab8	-0.48299193
191	0xbfdba598	-1.715991
192	0xbd74beba	-0.059752204
193	0xbbbf5c46	-0.0058398573
194	0xbdb0a014	-0.086242825
195	0xbddaf01d	-0.10690329
196	0x3da2b286	0.07944207
197	0xbd80dff2	-0.06292714
198	0xbd59d911	-0.053185526
199	0xbc5f2d9f	-0.013621717
200	0xbccbfb80	-0.024900198
201	0xbdd5d5e2	-0.104411855
202	0x3ca809e5	0.02051253
203	0x3d016604	0.03159143
204	0xbc1961f2	-0.009361731
205	0xbd153e2f	-0.036436256
206	0x3d97c02f	0.07409703
207	0xbe0cf413	-0.13764982
208	0xbdcd449a	-0.1002285
209	0x3d86e368	0.06586343
210	0xbdbde997	-0.09273069
211	0x3d0b2c8e	0.033978038
212	0x3dc2b783	0.09507658
213	0xbd1defba	-0.0385587
214	0x3d7e1cec	0.0620393
215	0xbdbf3cb4	-0.0933775
216	0x3d1df83c	0.038566813
217	0x3cf95836	0.03043757
218	0xbda423fd	-0.08014677
219	0xbd8ea8f4	-0.06965819
220	0xbdff50da	-0.12466593
221	0xbc914fac	-0.017738186
222	0xbc57a30f	-0.013161435
223	0xbc978c3d	-0.018499488
224	0x3da11c12	0.07866682
225	0xbdf5de12	-0.12005247
226	0x3db1db1d	0.08684371
227	0xbd04102a	-0.032241978
228	0xbdf07a2b	-0.11742052
229	0xbde6aceb	-0.1126345
230	0x3c4988f0	0.012300715
231	0xbdd32fe5	-0.103118695
232	0xbd45afc2	-0.04826332
233	0x3d1622b9	0.036654208
234	0xbd268e97	-0.040663328
235	0x3dae4cfd	0.08510778
236	0xbd06fa29	-0.032953415
237	0x3d8377a2	0.064193025
238	0xbe01d5e9	-0.12679256
239	0xbd2d4213	-0.04229934
240	0xbc9c9117	-0.019112153
241	0x3d1cb450	0.038257897
242	0xbdaac1ec	-0.08337769
243	0xbc2e0325	-0.010620867
244	0xbe0e6ace	-0.1390793
245	0x3d763e64	0.060118094
246	0xbdf03709	-0.11729247
247	0xbe05ef13	-0.13079481
248	0xbb92b5e0	-0.0044772476
249	0xbd990210	-0.074710965
250	0x3cea117a	0.028572787
251	0x3dddcef2	0.10830487
252	0xbd3e13e4	-0.046405688
253	0x3d4d28ce	0.050087743
254	0x3dca1b09	0.09868438
255	0xbd42af28	-0.047530323

fc2.bias f4 [64]
0	0x3f2a3176	0.6648172
1	0x3f1b8680	0.60752106
2	0x3f0e468a	0.55576384
3	0xbde3e3cf	-0.111274354
4	0xbdfa7c45	-0.12230734
5	0x3dd3b716	0.10337655
6	0xbcfc6b66	-0.03081293
7	0x3e5295ac	0.20564908
8	0x3eb50b20	0.3536005
9	0xbdea75f4	-0.11448279
10	0x3eb4a27b	0.35280213
11	0x3f989321	1.19199
12	0x3f77fe1a	0.96872103
13	0xbe019773	-0.1265543
14	0x3ddd5513	0.10807242
15	0xbd851e1d	-0.06499884
16	0xbe005e9a	-0.12536088
17	0x3d70087c	0.05860184
18	0x3cea2a0f	0.028584508
19	0x3ec5f011	0.3865972
20	0x3fa6d377	1.3033284
21	0x3f6988dd	0.9122446
22	0x3f728132	0.94728386
23	0xbe926819	-0.28595045
24	0x3f8a1acd	1.0789429
25	0xbe825430	-0.25454855
26	0x3f473558	0.7781577
27	0x3f33420a	0.7002264
28	0x3f5860e1	0.84522825
29	0x3ce537bd	0.02798068
30	0x3f618811	0.88098246
31	0xbdae6943	-0.08516171
32	0x3f8bd4cd	1.0924317
33	0xbdf0e0ff	-0.117616646
34	0x3f1c215b	0.60988396
35	0xba451f9b	-0.0007519663
36	0x3f676ffe	0.9040526
37	0x3e8efb86	0.27926272
38	0x3d63de38	0.055631846
39	0x3e123f2e	0.14281914
40	0x3f2dbde3	0.6786787
41	0xbca37a5f	-0.019955812
42	0x3e6f6e90	0.2338202
43	0xbe744fae	-0.2385852
44	0xbe85de20	-0.2614603
45	0x3edf32db	0.43593487
46	0x3f585bc7	0.8451504
47	0xbd860cfa	-0.06545444
48	0xbe32569d	-0.17415853
49	0x3f931688	1.1491251
50	0x3ebbd758	0.36687732
51	0xbe4c839c	-0.1997208
52	0x3e3c4018	0.18383825
53	0x3eaa9e24	0.33323777
54	0xbe24b6bb	-0.16085331
55	0xbda25c36	-0.07927744
56	0xbe874dcb	-0.2642654
57	0x3eccff10	0.40038347
58	0x3eea5a1f	0.45771882
59	0x3ed16c2e	0.40902847
60	0xbdf55afb	-0.11980244
61	0x3fa339d3	1.2752022
62	0xbe6e1b9c	-0.2325272
63	0x3f9a5862	1.2058222

fc3.weight f4 [3, 64]
0	0x3e9ea120	0.30982304
1	0x3ea84702	0.32866675
2	0x3ea08e16	0.31358403
3	0xbdfe7dce	-0.12426339
4	0xbd5eb734	-0.054373935
5	0xbfba3ab8	-1.454917
6	0xc04625fb	-3.0960681
7	0xbfc31666	-1.524121
8	0x3e8f7307	0.28017446
9	0xbdabf0fa	-0.08395572
10	0x3ecb9a9e	0.397664
11	0x3ed9c52b	0.4253324
12	0x3eb1abf8	0.34701514
13	0x3e3bb37a	0.18330184
14	0xc054238e	-3.31467
15	0x3f1b5d88	0.6068959
16	0xbd86aed1	-0.06576312
17	0xbe0f332a	-0.13984361
18	0xbf27532f	-0.65361303
19	0x3dbe65d3	0.09296765
20	0x3f0b7cab	0.54487103
21	0x3eade617	0.33964607
22	0x3eec33ec	0.46133363
23	0xbf6b64d5	-0.9195073
24	0x3eebe565	0.46073452
25	0xbf8010d3	-1.0005134
26	0x3eba9853	0.3644434
27	0x3e39f821	0.1816106
28	0x3e7fb935	0.24972995
29	0x3cfea5e3	0.03108496
30	0x3edd00e3	0.4316474
31	0xbcd758d2	-0.02628747
32	0x3edf1d19	0.43576887
33	0xbd4339ee	-0.047662668
34	0x3f141bef	0.57855123
35	0xbcbfebc8	-0.023427859
36	0x3eb4dd3d	0.3532504
37	0x3e15e399	0.14637603
38	0x3e3a1596	0.18172297
39	0x3d883938	0.066515386
40	0x3e98fa29	0.29878357
41	0x3dc05f4d	0.09393177
42	0x3eb7cde2	0.35899264
43	0x3ca40ec7	0.020026578
44	0xbebc9154	-0.36829627
45	0x3e6b861e	0.2300038
46	0x3e76fefe	0.2412071
47	0x3de61eea	0.11236365
48	0x3cc74de8	0.02432914
49	0x3f04d6ab	0.5189006
50	0xbd226f24	-0.039656773
51	0x3d096e9a	0.033552743
52	0xbee52dfe	-0.44761652
53	0xc000f11f	-2.0147169
54	0xbc344e12	-0.011004942
55	0x3defe162	0.1171291
56	0x3f0ac9af	0.54213995
57	0x3dc9a712	0.09846319
58	0x3e7bc73d	0.24587722
59	0x3ea2c0fb	0.31787857
60	0xbb4f99c0	-0.0031677336
61	0x3ef8311f	0.48474976
62	0xbe2f5c01	-0.1712494
63	0x3f0faa33	0.5611908
64	0xbe22c743	-0.15896325
65	0x3db2793b	0.08714529
66	0xbff2f05a	-1.89796
67	0x3d083030	0.03324908
68	0xbde945ee	-0.11390291
69	0x3f0771ac	0.52907825
70	0x3d87ba9e	0.06627391
71	0xbf37ade9	-0.7174974
72	0xbfc1dda6	-1.5145767
73	0xbd185645	-0.037191648
74	0x3e884152	0.26612335
75	0x3f02c0e9	0.5107561
76	0x3f118d23	0.5685598
77	0x3d5ba8f3	0.05362792
78	0x3ee0cac0	0.43904686
79	0x3f58e418	0.84723043
80	0xbbcdd24d	-0.0062811733
81	0xbf9bb667	-1.216504
82	0x3dd2d617	0.10294741
83	0x3d55b30e	0.052172713
84	0x3f096913	0.53675956
85	0x3e6ba0f2	0.23010615
86	0x3f26a10d	0.65089494
87	0xbec45a5b	-0.38350186
88	0x3f0bd197	0.54616684
89	0x3d63654f	0.055516537
90	0x3db669b2	0.089068785
91	0xbab9416b	-0.0014133876
92	0x3d2c1bde	0.042018764
93	0xbe3a32c3	-0.18183427
94	0x3e71896c	0.23587579
95	0xbd867a91	-0.065663464
96	0x3f1d6a3f	0.61490244
97	0x3db0b5e2	0.086284414
98	0x3ea10512	0.3144918
99	0x3cbe59b8	0.02323614
100	0x3e93b482	0.28848654
101	0x3eb21f3f	0.34789464
102	0xbf16fd54	-0.589803
103	0x3dfafeea	0.12255652
104	0x3e308095	0.1723655
105	0x3d50ab57	0.050944652
106	0x3f0ca24b	0.5493514
107	0x3cca80f5	0.024719695
108	0x3f252b05	0.6451877
109	0x3e0082ff	0.12549971
110	0x3eacd4c4	0.33756077
111	0xbd3b9a54	-0.045801476
112	0xbcd20aa0	-0.025639832
113	0x3f1993ad	0.5999096
114	0x3e8e6497	0.2781112
115	0xbe487f10	-0.1957972
116	0x3fe4c8f6	1.7873828
117	0x3e2262f9	0.15858068
118	0xbcda4581	-0.02664447
119	0xbca12d09	-0.019674795
120	0x3f188420	0.59576607
121	0xbe5a2a96	-0.21305308
122	0xc044d5bb	-3.075545
123	0x3e2a7cbe	0.16649148
124	0x3daa1478	0.08304685
125	0x3f133938	0.57509184
126	0x3f21c60c	0.6319282
127	0x3ede96b0	0.4347434
128	0x3f02edea	0.5114428
129	0x3cc5bbd8	0.024137422
130	0x3e8616b4	0.26189196
131	0xbd7fa611	-0.062414233
132	0x3db0c2ef	0.08630931
133	0x3e8b5bb0	0.2721839
134	0x3e5c43b5	0.21510203
135	0xbe59343f	-0.21211337
136	0x3dcbcf80	0.09951687
137	0xbddc1ea8	-0.10748035
138	0xbfacf745	-1.3512961
139	0x3ee5383f	0.44769475
140	0x3e8eb648	0.27873445
141	0xbf07a2e9	-0.52982956
142	0x3da9ae0f	0.08285152
143	0x3f00f053	0.50366706
144	0x3d0005a8	0.031255394
145	0x3f60c231	0.8779631
146	0xbf190aeb	-0.59782284
147	0x3d702f41	0.058638815
148	0x3f131163	0.57448405
149	0x3f0645db	0.5245034
150	0x3ede67cf	0.43438575
151	0xbf29afad	-0.66283685
152	0x3ee7ed80	0.45298386
153	0x3dad63bf	0.08466291
154	0x3efe41f5	0.49659696
155	0x3e79c149	0.24390139
156	0x3e0b31ab	0.13593166
157	0x3d1adaa5	0.037806172
158	0x3ead38c0	0.3383236
159	0x3bac00f4	0.005249137
160	0x3f3ad983	0.72988147
161	0x3d2b0d50	0.041760743
162	0xbdbfd98e	-0.09367667
163	0xbcd0d3d4	-0.025491633
164	0x3f1d5153	0.61452216
165	0xbf0ce5b5	-0.55038005
166	0xbf40fd8f	-0.753869
167	0xbff2fc47	-1.8983239
168	0x3e8648d4	0.26227438
169	0xbccbd07e	-0.02487969
170	0xc0382055	-2.8769734
171	0x3bc06f5a	0.005872649
172	0xbf5438a9	-0.82898957
173	0xbe7743fc	-0.24147028
174	0x3e063399	0.1310562
175	0xbd949e6e	-0.072567806
176	0x3d4f4ebe	0.050612204
177	0x3ee52e1a	0.44761735
178	0x3d78fc7c	0.060787663
179	0x3ea4c390	0.32180452
180	0x4011be9c	2.2772589
181	0xbd92edb4	-0.071742445
182	0xbb8b2b14	-0.0042470787
183	0xbcb29588	-0.021799818
184	0xc0239bcd	-2.5563843
185	0x3da4b5eb	0.080425106
186	0x3dd850aa	0.105622604
187	0x3f12c20a	0.5732733
188	0xbdbb9543	-0.09159329
189	0x3eb55214	0.35414183
190	0x3f3dd1f2	0.74148476
191	0x3f187840	0.59558487

fc3.bias f4 [3]
0	0x3f87be13	1.0604881
1	0x3f4bf638	0.79672575
2	0x3f39d2ee	0.7258748
