SnakeV3/snake_model_episode_700.pth (torch, 23336 bytes, 6 tensors)

fc1.weight f4 [64, 11]
000000 a8 c5 35 3f 39 9a 2e 3f 7c a1 28 3f 78 f9 0a 3f
       0.71004725 0.68204075 0.65871406 0.5428691
000010 65 ef 1e 3e c3 1c 0d 3f 1e 68 bd bd 22 dc 87 3d
       0.1552101 0.5512201 -0.092483744 0.06633784
000020 5f 65 b7 bf 10 e2 6f bf 16 14 89 be dd 7f 3f 3f
       -1.4327811 -0.9370432 -0.26773137 0.7480448
000030 77 7a 5d 3f a9 c6 68 3e 8d a4 af bf 01 ad d2 bf
       0.8651499 0.22732033 -1.3722092 -1.6459047
000040 71 96 1f bf e3 a6 86 bf b6 18 5b 3e ea ba 54 3e
       -0.6233893 -1.051968 0.21396145 0.20774427
000050 76 c5 c3 3e 68 83 08 3d fd 89 04 bf 99 55 c2 3e
       0.38236588 0.033328444 -0.51773053 0.3795593
000060 1f a4 dd be cd 01 5c bf 05 e1 9f 3e 77 f3 5d 3f
       -0.43289277 -0.8594025 0.31226364 0.8669962
000070 02 b4 53 3e 38 6f 8e bf 8b 63 20 3f cf de 00 3f
       0.20674136 -1.1127691 0.6265189 0.5033998
000080 b8 87 b2 bf 0f 40 19 bf 42 3a 4d 3f 10 e4 51 3f
       -1.3947668 -0.5986337 0.8016702 0.8198862
000090 ce 8c 14 3f c7 5a 02 bf aa 08 af be 91 3d 20 3e
       0.5802735 -0.50919765 -0.34186298 0.15648486
0000a0 4a 59 b3 be 96 ff 10 3f 52 b8 11 bf c0 76 9f bf
       -0.3502906 0.56639993 -0.56921875 -1.2458115
0000b0 63 dd 74 be 15 7d c3 3c 9d fc 04 3f b9 c2 10 3f
       -0.23912577 0.023863355 0.5194796 0.56547123
0000c0 7e 59 9f bf 61 bf ed 3e 31 62 9f bf 96 ae ef 3e
       -1.2449186 0.46435073 -1.2451841 0.46812886
0000d0 b7 99 26 bf 64 8a c2 bf a2 78 f2 bf b5 2b 2b be
       -0.650783 -1.5198483 -1.8943064 -0.16715892
0000e0 54 23 64 bf 9e cc 05 40 9c fb 80 3d 34 1e 3f bf
       -0.89116406 2.0906138 0.06297991 -0.7465546
0000f0 7e 06 d9 3d 0b f3 1c bf 19 9f aa 3d 2e 83 82 3e
       0.105969414 -0.61308354 0.08331127 0.25490707
000100 e7 f3 25 3f 04 1c 00 be 1f 36 8a 3f bd fa bd 3e
       0.6482529 -0.12510687 1.0797766 0.3710536
000110 92 70 a3 3e 7c 2a d1 bf d3 62 93 3d 1e 60 b9 be
       0.31921822 -1.634109 0.071965836 -0.36206144
000120 5d d9 98 bf 58 b8 3e bf 7a 86 9c 3e 1e 2a af bd
       -1.1941334 -0.74500036 0.30571347 -0.08552955
000130 0e d5 df 3e bd e4 c9 be 04 dc 52 bf 70 0c 01 bc
       0.43717235 -0.39432326 -0.8236697 -0.0078765005
000140 4c 4e d6 be dc b8 fd 3e 6a b0 81 bf 72 28 51 3f
       -0.4185661 0.495551 -1.0131962 0.8170234
000150 1e 70 fd 3e 15 8b 55 3d 68 26 25 bf 8d ad 95 3e
       0.494996 0.052134592 -0.6451173 0.2923397
000160 3e 24 e7 be 04 78 86 bf e8 49 69 3f 92 73 78 3e
       -0.45144838 -1.0505376 0.91128397 0.24262837
000170 db 27 07 bf 0a ec 82 3f 1e 09 ab 3e 75 6d 0d 3f
       -0.5279519 1.0228283 0.33405393 0.55245143
000180 9e bd 26 3d 5a ab 22 bf c7 28 82 be 5a 7d 16 bf
       0.040708177 -0.6354271 -0.25421736 -0.5878502
000190 7e c7 be 3e 94 2b 1e bd 79 29 28 bf 53 87 30 bf
       0.37261575 -0.038615778 -0.6568828 -0.6895649
0001a0 1d 3d 8e bf 99 97 40 3f 9e d0 e2 bf 7a 48 32 bf
       -1.11124 0.7523132 -1.7719915 -0.6964184
0001b0 0c 54 a7 bf 7d e2 83 3f 75 d4 45 3f 97 68 53 3e
       -1.3072524 1.0303494 0.7727731 0.20645367
0001c0 a3 d9 11 3f 59 f2 6c be 27 ee a5 3e 4d 40 66 bf
       0.5697271 -0.23139323 0.32408258 -0.89941865
0001d0 95 3a 7c bf 38 38 74 3d ca 50 18 bf 6c 72 3f be
       -0.9852689 0.059623927 -0.59498274 -0.18695992
0001e0 17 c1 17 bd 40 97 3b 3f 21 88 68 3f b3 d9 af 3e
       -0.03704938 0.73277664 0.90832716 0.3434578
0001f0 f8 46 97 bf b9 d9 ee 3d 04 30 a0 bf fa fb 08 be
       -1.1818533 0.11662621 -1.2514653 -0.13377371
000200 b9 ba e6 bd c5 f4 b3 bf f2 66 39 be 0e cd d7 bf
       -0.11266083 -1.4059073 -0.18105677 -1.6859453
000210 ed 67 13 bf b9 89 57 3f 88 46 6b 3f 3d ef ba be
       -0.57580453 0.84194523 0.919045 -0.3651065
000220 8f 1c 80 bf 37 3a a4 3e 46 8d 40 be 6c 5b b1 be
       -1.0008715 0.32075664 -0.18803892 -0.34640062
000230 a2 52 08 bf bf ba 21 bf e5 d1 8d 3e 1c e7 9f be
       -0.5325109 -0.63175577 0.276992 -0.3123101
000240 46 a2 5b 3f ad 2e 80 bf 65 1f ee 3d 03 6b 2a 3f
       0.85794485 -1.0014244 0.11627082 0.66569537
000250 be bb 20 3f 29 0a aa 3e d9 37 ee bd a6 75 21 bf
       0.6278647 0.33210877 -0.11631746 -0.6307014
000260 f5 87 28 bf 1d 9b cb bd 89 e0 7e 3f a4 f7 d5 3d
       -0.65832454 -0.09941695 0.99561363 0.10447624
000270 d5 6c 77 bc 95 cc 2b bf 20 f4 8b 3e 6d a6 80 bf
       -0.015101631 -0.6710904 0.2733469 -1.0050789
000280 3e 49 4f bf 34 5b 6c 3d 74 25 48 be 0a 11 13 3f
       -0.80971134 0.057704166 -0.19545537 0.57447875
000290 39 85 aa 3e a7 a9 38 3f 85 8b a9 3f 43 11 63 3e
       0.33304766 0.7213387 1.3245703 0.22174554
0002a0 c4 ce 9c bf 92 62 84 bf d2 49 88 be 41 40 fa bf
       -1.22506 -1.0342581 -0.2661882 -1.9550859
0002b0 95 9e 7b bf 0e ce 3c bf 55 75 a9 bf c5 24 7a 3e
       -0.9828885 -0.73751915 -1.3238932 0.24428089
0002c0 76 99 53 3b 47 8d 84 be a1 f7 02 3f b4 3c 4c bf
       0.0032287515 -0.25889036 0.511591 -0.79780126
0002d0 cc a4 83 3e 6a 58 99 be 65 cc a6 be f7 90 0a be
       0.25711668 -0.29950267 -0.32577816 -0.13531862
0002e0 02 1c 0d bf 3f 21 98 be 20 d5 a8 3e c4 9a 95 3f
       -0.5512086 -0.29712865 0.329751 1.1687856
0002f0 27 9d 2b be e9 a5 03 3f 04 47 ec be 57 b6 ce ba
       -0.16759168 0.51425034 -0.4614793 -0.0015770894
000300 f5 41 e0 3e 29 a7 10 3f cb 51 67 3f 05 d1 00 bd
       0.4380032 0.56505066 0.9035918 -0.031449337
000310 2c f2 43 be f1 cd 77 bf 86 f1 8d bf 4d ae 48 3f
       -0.1913535 -0.96798617 -1.1089332 0.7839096
000320 89 48 0b c0 b6 2e 90 3e 5a 9a 18 3e 6f f8 ce 3e
       -2.1763022 0.28160638 0.1490263 0.40423915
000330 8f 3e 2b 3e a7 5e 6c 3d fe 2a b1 3e ab 91 92 3e
       0.16723083 0.057707455 0.34603113 0.2862676
000340 0d de 2e 3e b1 c3 e5 3e 2b fc bb 3d 5f a4 1e 3f
       0.17076893 0.44875863 0.091789566 0.6196956
000350 8e 0b 13 bf 86 28 32 3e ce ba ee bd c4 d2 21 3f
       -0.57439506 0.17398271 -0.11656724 0.6321223
000360 f2 f8 e1 be 14 2e 6c 3e 9d 4d 4e bf 83 a9 8f bf
       -0.44135243 0.23064452 -0.8058718 -1.1223606
000370 fe f4 78 3f dc ee 02 3f 10 00 b0 bf 24 80 dc bf
       0.9724883 0.5114572 -1.3750019 -1.7226605
000380 57 b7 82 3e 17 01 39 bf 76 40 ac be f0 3c a1 be
       0.25530502 -0.7226729 -0.3364293 -0.31491804
000390 99 c9 35 3d bc 03 16 3f 6c 23 2f bd e4 32 5d be
       0.04438171 0.5859945 -0.04275839 -0.21601444
0003a0 60 7e eb be 5e 91 3e bf 86 64 06 3f fa 91 1b 3f
       -0.45994854 -0.7444056 0.52497137 0.6076962
0003b0 ad 4b dc 3e ed 18 29 3e b4 c0 64 3e 0e d2 ce 3d
       0.43026486 0.16513415 0.22339135 0.100986585
0003c0 9b 0c ef 3e 65 37 4f 3e c0 bc 18 bf c3 d5 fb be
       0.46689305 0.20235975 -0.5966301 -0.49186525
0003d0 4a 5c dc be 7e a2 44 bf d2 31 63 3f e7 a1 42 be
       -0.4303916 -0.76810443 0.88747895 -0.19007073
0003e0 bf 1e 2b 3f c1 69 22 3d 3f c4 43 be f9 aa 0b bb
       0.6684379 0.039651636 -0.1911783 -0.0021311624
0003f0 13 79 fc be 39 d1 8a 3f 69 c3 8a be 51 4e 3b 3f
       -0.49311122 1.08451 -0.2710221 0.73166376

fc1.bias f4 [64]
000000 6b 24 b9 be 63 44 0d bf df dd aa 3e c3 f3 ef 3d
       -0.36160597 -0.55182475 0.333724 0.11716416
000010 0b 97 6b be 2c 06 ad bc 4d 3f 50 bf 09 09 7d 3d
       -0.23006837 -0.021121107 -0.8134659 0.061776195
000020 a0 05 27 3c d0 6f fd bb ff 34 14 bf be c0 21 be
       0.010194212 -0.0077342764 -0.57893366 -0.15796182
000030 b3 46 89 be 44 7d 18 3f 70 1c 66 bf b1 6d 20 bf
       -0.26811752 0.5956614 -0.8988714 -0.62667376
000040 f1 33 7c be a2 79 bd be f3 6e c5 3e 22 21 22 be
       -0.24629189 -0.3700686 0.3856121 -0.15832952
000050 9b 4a 5d bf d4 da 62 3f 92 71 e1 3e 4e b2 cd be
       -0.86441964 0.88615155 0.4403196 -0.40175098
000060 44 be 0e bf 68 4b 47 3f 5d f6 0c bf e4 fd c8 be
       -0.5575907 0.77849436 -0.5506342 -0.39256203
000070 3e 52 c9 3e 49 58 e5 be d4 96 66 3f 2a 1d 83 bf
       0.39320558 -0.4479392 0.90073895 -1.0243275
000080 20 b2 25 3f 91 1f 9f be 66 b1 c0 be 14 ed f3 be
       0.6472492 -0.3107877 -0.37635344 -0.47641814
000090 d5 17 f9 3e 84 fb d7 3d ac 57 a0 be b3 5f 36 3e
       0.48650995 0.1054602 -0.31316888 0.17809944
0000a0 38 2c 54 be 68 95 94 bf ba 1d 9c 3e e6 ae 15 bf
       -0.20719993 -1.1608095 0.3049143 -0.5847
0000b0 a9 69 0b bf 08 fa 63 3e 14 d5 50 bd 77 e7 33 bf
       -0.544581 0.22263348 -0.050984457 -0.7027506
0000c0 b8 5c 6c 3f 5b ab b8 3e 69 bd 2b 3f 0f 07 da bc
       0.9232898 0.36068234 0.6708589 -0.026614694
0000d0 ca aa 1e bf 54 7f 89 be 27 c3 f0 3b 3b 59 d9 bd
       -0.61979353 -0.26854956 0.0073474827 -0.106127225
0000e0 93 eb 57 3d 8e 24 1c be 97 53 34 bf 7d 8a 97 bd
       0.052714895 -0.1524832 -0.7044005 -0.073994614
0000f0 62 6b 07 be 1b 20 1a bf 81 1a c7 3d 4c 5e 33 3e
       -0.13224557 -0.6020524 0.09721852 0.1751644

fc2.weight f4 [64, 64]
000000 4c 11 86 bd 33 95 8e 3e 0f 38 2d 3e a5 12 63 3e
       -0.06546268 0.27848205 0.16915916 0.22175081
000010 19 32 8b 3f 16 eb 54 3f 7f 2e a4 3f a1 5c 9a 3e
       1.0874664 0.8317121 1.282669 0.30148795
000020 7b f7 30 bf ef 20 59 3f 86 6b d6 3e bc 83 bb be
       -0.69127625 0.8481588 0.4187891 -0.36623943
000030 7b 1c de 3e 1d d0 d8 3d e8 3a 98 3e 98 b7 a9 bd
       0.43381104 0.105865695 0.29732442 -0.08286971
000040 b5 b4 81 be eb 2a 87 bf 96 f8 72 be fe a5 df 3b
       -0.2533318 -1.0559973 -0.2372764 0.0068252077
000050 dd db c5 3f 8e d0 24 bd 7d 31 01 bf 8b 75 76 3f
       1.5457722 -0.040237956 -0.5046614 0.96273106
000060 b0 b3 71 bf 2c 16 4d 3e 35 25 59 3f 28 bf 16 3e
       -0.94414806 0.20027989 0.848224 0.14721358
000070 3a a7 b9 bd 23 ac ae 3e 94 93 f9 3e 1a 94 13 3f
       -0.09065099 0.34115705 0.48745406 0.5764786
000080 9a 49 ce 3e e5 a0 08 bf 90 80 76 be f8 4e 82 be
       0.4029053 -0.53370506 -0.2407248 -0.25450873
000090 e6 3f ff 3e c3 be 22 bf 1e 09 0d 3f b1 fb e5 be
       0.49853438 -0.6357233 0.55092037 -0.44918588
0000a0 b8 d9 10 3f 38 b5 91 be bd 6e 35 3e a2 96 dc be
       0.5658221 -0.2845857 0.17718025 -0.43083674
0000b0 b1 5b 6a bd f4 b0 11 bf d9 4c c1 bc ff a2 01 3f
       -0.05721635 -0.56910634 -0.023596214 0.5063934
0000c0 82 72 8d 3e e9 80 7c 3e 3a bc cb be 1d 7d 17 3f
       0.27626425 0.2465855 -0.39792043 0.5917528
0000d0 ac d2 a5 3d 1f 6a 54 3f 1a 11 44 be 5f 0f 77 3f
       0.08096823 0.8297443 -0.19147149 0.9650783
0000e0 57 75 63 be 00 32 de 3a df e1 ec be d1 99 ed 3e
       -0.2221273 0.0016952157 -0.46266076 0.46406415
0000f0 5e 58 89 be 8c 24 c9 bf 38 9f c2 3d df db af bf
       -0.2682523 -1.5714278 0.09503025 -1.3738974
000100 20 40 1b 3f ad fd 01 3f c0 a5 da 3e a5 d7 47 3e
       0.6064472 0.50777704 0.42704582 0.19515856
000110 ce be 66 3f b3 bd 6b 3e 54 7b fd 3e a9 b6 98 be
       0.90134895 0.23021583 0.49508154 -0.2982686
000120 ca b3 f9 be 28 00 34 3f 39 ad 36 3f 93 3d f3 3e
       -0.4876998 0.7031274 0.71358067 0.47507915
000130 c7 ae d5 3e c0 2e 98 3d 07 13 a6 3e c1 6f a7 3e
       0.41734907 0.07430792 0.32436392 0.3270245
000140 e3 73 b0 3e 89 f9 5f bf d4 94 d2 bd 98 b2 0a 3f
       0.34463415 -0.87490135 -0.10282293 0.5417876
000150 fc 05 81 3f 95 08 10 be 82 c6 1d bf a6 4a d6 3e
       1.0079951 -0.14065774 -0.61631024 0.41853827
000160 61 dc 92 bf f9 cd 0d 3d 1c 0c 28 3f 4c 8f b7 3d
       -1.1473504 0.03462026 0.6564348 0.089628786
000170 38 84 d5 be 86 83 ba 3e 79 25 24 3c 64 8c ba 3e
       -0.41702437 0.3642847 0.0100187 0.36435235
000180 f1 11 1f 3f 64 17 06 be 37 96 94 be e8 f0 0a 3f
       0.6213675 -0.1309486 -0.29020855 0.54273844
000190 19 bd 2c 3d 6e a3 64 bf 87 20 05 be e0 64 9f be
       0.042172525 -0.89311874 -0.1300069 -0.3113165
0001a0 6b 41 41 3e 61 2d d6 bd e6 ff fc 3e 83 1f 2e 3c
       0.18872611 -0.10457874 0.49413985 0.01062763
0001b0 f5 c3 1f 3e 38 46 54 be cd b9 54 3e 22 11 0a 3e
       0.15602095 -0.20729911 0.20774002 0.13483098
0001c0 19 81 ed 3d 52 9b c7 be dd 35 b7 be 18 39 2b 3f
       0.11596889 -0.38985687 -0.35783282 0.66883993
0001d0 73 8a e9 be a0 7c 3e 3f ff 3a d9 bd f1 ec ed 3e
       -0.4561344 0.7440891 -0.10606956 0.46469834
0001e0 23 1e f2 3c a0 38 87 bb c7 7a 0c bf 81 01 46 3f
       0.029555386 -0.0041266233 -0.54874843 0.77346045
0001f0 19 53 b5 3e 22 d5 2b bf 8f 81 99 bc 28 ca 47 bf
       0.3541496 -0.6712209 -0.018738536 -0.7804284
000200 f9 d7 98 3e 36 e9 5f 3f 68 32 a3 be ee 54 27 3f
       0.29852274 0.87465227 -0.31874394 0.6536397
000210 36 96 6c be 34 75 a8 3f b3 23 8d 3e a5 7f 3f 3f
       -0.23104176 1.3160768 0.275663 0.74804145
000220 52 11 ac 3d 07 27 8d bb 7f 7a a4 be ed 07 6c bf
       0.08401741 -0.004307631 -0.32124707 -0.92199594
000230 b5 0c 6f 3f 13 1b ba 3e bf c2 c8 be eb 07 c2 be
       0.93378764 0.3634878 -0.3921108 -0.37896666
000240 42 59 61 3f 8a 6d 2c be 6f b2 00 c0 3b 94 36 3f
       0.8802682 -0.16838661 -2.0108907 0.7131993
000250 5a b3 d1 3e a1 fa cc bd 51 65 f4 be 23 ca 8b 3e
       0.40957147 -0.10008741 -0.47733548 0.27302656
000260 0f 68 25 bf bc 82 ec 3e 93 52 37 be 33 ea 99 3f
       -0.64611906 0.46193492 -0.17902593 1.2024597
000270 48 17 69 3e 63 3b 04 3f 1b 8a 42 3f 1e 66 3c 3f
       0.22762787 0.51653117 0.7599198 0.7359332
000280 19 cf 14 be 41 be ce bf d5 b5 f8 bb 4a 91 1f bf
       -0.14532126 -1.6151811 -0.0075900354 -0.6233107
000290 07 d8 18 3f e5 f4 eb be 77 36 f3 be 3e ae e7 3d
       0.5970463 -0.46085277 -0.4750249 0.11312531
0002a0 1f a3 db be 61 e1 f8 be ef 9f cc 3e ea e5 b5 bf
       -0.4289789 -0.4860945 0.3996577 -1.4210789
0002b0 bf 43 7e bf 91 8f 38 bf a3 73 d0 be a5 e8 fe 3e
       -0.9932212 -0.72094065 -0.40713224 0.4978687
0002c0 a1 08 31 bd 01 40 0a 3f 88 09 bc 3e d1 55 1a 3e
       -0.04322112 0.5400391 0.36726022 0.15071799
0002d0 26 4a 51 be 58 5f 5d be cb 75 3a bf 66 7e b0 bd
       -0.20438442 -0.21618402 -0.7283599 -0.086178586
0002e0 13 e3 37 3e d6 9d fb bd f9 88 c3 be ac 44 e8 3f
       0.17957716 -0.12285964 -0.3819044 1.8145957
0002f0 af 5d 31 c0 0d 76 6f 3e 80 37 47 bf 49 5f fa bf
       -2.771343 0.23384877 -0.7781906 -1.9560329
000300 f0 5c bb bd a2 cb 19 bd 14 a0 b0 bd 1d f0 da bd
       -0.09148586 -0.037547715 -0.086242825 -0.10690329
000310 86 b2 a2 3d db e2 c1 bd 31 e6 ad bd 9f 2d 5f bc
       0.07944207 -0.09467097 -0.08491171 -0.013621717
000320 80 fb cb bc e2 d5 d5 bd 86 0d 38 bc 06 4d 28 b9
       -0.024900198 -0.104411855 -0.011233693 -0.00016050422
000330 f2 61 19 bc f1 f5 88 bd 92 75 2d 3d 13 f4 0c be
       -0.009361731 -0.066875346 0.042348452 -0.13764982
000340 9a 44 cd bd 38 b8 0b 3d 97 e9 bd bd 8e 2c 0b 3d
       -0.1002285 0.03411123 -0.09273069 0.033978038
000350 83 b7 c2 3d fe f0 8f bd 56 21 fe 3c b4 3c bf bd
       0.09507658 -0.070283875 0.031021755 -0.0933775
000360 49 1a e0 3b d5 40 a1 ba fd 23 a4 bd 27 95 cf bd
       0.006839071 -0.0012302647 -0.08014677 -0.101358704
000370 ec 1f 20 be a8 b3 4a bd 0f a3 57 bc 3d 8c 97 bc
       -0.15637177 -0.04948774 -0.013161435 -0.018499488
000380 2e 38 40 3d 12 de f5 bd 1d db b1 3d 2a 10 04 bd
       0.046928577 -0.12005247 0.08684371 -0.032241978
000390 2b 7a f0 bd eb ac e6 bd 37 27 9e bc e5 2f d3 bd
       -0.11742052 -0.1126345 -0.019305808 -0.103118695
0003a0 c2 af 45 bd b9 22 16 3d 97 8e 26 bd fd 4c ae 3d
       -0.04826332 0.036654208 -0.040663328 0.08510778
0003b0 84 79 84 bd 21 7a 05 3d e9 d5 01 be 86 9f 97 bd
       -0.0646849 0.032587174 -0.12679256 -0.074034736
0003c0 17 91 9c bc 50 b4 1c 3d ec c1 aa bd 25 03 2e bc
       -0.019112153 0.038257897 -0.08337769 -0.010620867
0003d0 ce 6a 0e be 02 72 e8 3c 09 37 f0 bd 13 ef 05 be
       -0.1390793 0.028374676 -0.11729247 -0.13079481
0003e0 e0 b5 92 bb 10 02 99 bd 7a 11 ea 3c f2 ce dd 3d
       -0.0044772476 -0.074710965 0.028572787 0.10830487
0003f0 01 01 a0 bd ce 28 4d 3d 09 1b ca 3d 28 af 42 bd
       -0.078126915 0.050087743 0.09868438 -0.047530323

fc2.bias f4 [64]
000000 be 3f 2b 3f 80 3a fd 3e f2 29 32 3f d8 72 12 be
       0.6689414 0.49458694 0.69595253 -0.14301622
000010 45 7c fa bd 4a 03 27 bd c9 20 8d bd 70 1c fb 3e
       -0.12230734 -0.04077462 -0.06891019 0.49045134
000020 12 94 1a 3e 01 c2 15 be dc d2 c9 3e 72 72 a7 3f
       0.15095547 -0.14624788 0.39418685 1.3081801
000030 c3 fa 76 3f a7 cf de be c9 9b c9 3c 99 04 db be
       0.9647638 -0.435178 0.024610417 -0.42776945
000040 9a 5e 00 be 57 ee 29 3e 56 86 58 3d 79 2b 19 bb
       -0.12536088 0.16594826 0.052862488 -0.002337186
000050 5f 13 ba 3f 03 be 80 3f 52 9f 85 3f 45 f3 f6 be
       1.4537162 1.0057987 1.0439246 -0.48232475
000060 05 f4 97 3f 09 5c f3 be 8e 4e 5a 3f 70 37 8d 3e
       1.1871344 -0.47531155 0.85276115 0.27581358
000070 19 09 f4 3e 01 f4 77 bb 43 3e 7d 3f 43 69 ae bd
       0.4766319 -0.0037834647 0.9892313 -0.08516171
000080 c3 ae 9c 3f ff e0 f0 bd bf 44 1d 3f 9b 1f 45 ba
       1.2240833 -0.117616646 0.61433023 -0.0007519663
000090 2d 29 80 3f 42 94 3a 3e 9d ef 1b 3e 88 9e 62 ba
       1.0012566 0.18220618 0.15228124 -0.0008644839
0000a0 0a 8c 42 3f 5f 7a a3 bc 5b 21 57 3e ae 4f 74 be
       0.7599493 -0.019955812 0.21008818 -0.2385852
0000b0 9d 22 ee be 4b 78 ad 3e b7 c2 2c 3f fa 0c 86 bd
       -0.46510783 0.3388084 0.6748461 -0.06545444
0000c0 9d 56 32 be 58 a2 a4 3f b2 40 24 3e 74 77 a0 be
       -0.17415853 1.2862043 0.16040304 -0.31341136
0000d0 4e b7 32 3d 00 b7 47 3e bb b6 24 be 36 5c a2 bd
       0.043631844 0.19503403 -0.16085331 -0.07927744
0000e0 8a 9e 14 bf c1 eb 85 3d 23 e3 14 3f fc 3f d4 3e
       -0.5805441 0.06539107 0.58159083 0.41455066
0000f0 06 18 13 be a4 8e b2 3f 6d ff ac be c3 af ad 3f
       -0.14364633 1.394978 -0.33788624 1.3569263

fc3.weight f4 [3, 64]
000000 1f f7 94 3e fb 2e 0d 3e 4c fd b6 3e ce 7d fe bd
       0.29094788 0.13787453 0.35740125 -0.12426339
000010 34 b7 5e bd bd ae bc bf 2f 2c 4a c0 44 68 01 c0
       -0.054373935 -1.4740826 -3.1589468 -2.0219889
000020 59 e8 3f 3d ed c9 55 bd 01 22 c6 3e 98 17 de 3e
       0.046852443 -0.052194525 0.38697818 0.43377376
000030 14 d9 6e 3e 66 86 b4 3f 67 d5 61 c0 46 65 7f 3f
       0.23324996 1.4103515 -3.52865 0.99763906
000040 d1 ae 86 bd 55 f5 36 bf f8 01 3b bf 6a 39 41 3f
       -0.06576312 -0.71468097 -0.7304988 0.7547823
000050 f8 d2 15 3f 51 37 a8 3e b3 aa e8 3e 44 2f 41 bf
       0.5852504 0.32854703 0.45442733 -0.75462747
000060 e7 da e8 3e b0 09 a2 bf 73 df ac 3e 4e 63 30 3b
       0.4547951 -1.2659206 0.33764228 0.002691466
000070 fe 69 dd 3c e3 a5 fe 3c fa a8 c8 3e d2 58 d7 bc
       0.02702808 0.03108496 0.3919142 -0.02628747
000080 24 46 e7 3e ee 39 43 bd 21 c1 08 3f c8 eb bf bc
       0.451707 -0.047662668 0.5341969 -0.023427859
000090 c5 2a b1 3e 2c 16 50 3e df bf d7 3e 49 b5 97 3c
       0.34602943 0.20320958 0.42138574 0.01851906
0000a0 01 13 5b 3e 4d 5f c0 3d c6 ca 82 3e c7 0e a4 3c
       0.21393968 0.09393177 0.2554533 0.020026578
0000b0 02 8c 79 bf 0f 22 1b 3e 6d 3f 8b 3d ea 1e e6 3d
       -0.9747926 0.15149711 0.06799207 0.11236365
0000c0 e8 4d c7 3c 64 67 0b 3f 07 96 4e 3f de a4 5f be
       0.02432914 0.54454637 0.80697674 -0.21840236
0000d0 2b 51 56 bf 71 0c fc bf 12 4e 34 bc 62 e1 ef 3d
       -0.837176 -1.9691297 -0.011004942 0.1171291
0000e0 15 28 49 3f 69 44 b0 be b5 50 2b 3e 13 5f d2 3e
       0.78576785 -0.34427193 0.16730006 0.4108816
0000f0 0b 45 ea bc a5 eb 00 3f 86 97 af be c0 c0 19 3f
       -0.028597375 0.50359565 -0.3429529 0.6005974
000100 f6 90 3f be b2 12 0f 3e b1 ad ec bf 42 d5 cb 3a
       -0.18707642 0.13971975 -1.8490506 0.0015551227
000110 ee 45 e9 bd 69 e6 3c 3f 26 0d 34 bd 23 b1 65 bf
       -0.11390291 0.7378908 -0.04395785 -0.89723414
000120 89 1a 01 c0 45 56 18 bd 31 32 f4 3d 95 92 f7 3e
       -2.0172446 -0.037191648 0.11923636 0.4835402
000130 31 e0 00 3f b0 1f b8 b9 89 b1 18 3e 0f 3c 91 3f
       0.5034209 -0.00035118824 0.14911474 1.1346453
000140 4d d2 cd bb 11 64 0c c0 73 61 46 be 3d bf 40 be
       -0.0062811733 -2.1936076 -0.19373111 -0.18822952
000150 ae 2d 08 3f 61 c5 1e 3e e4 88 22 3f c6 a6 df be
       0.531947 0.15504982 0.6349013 -0.43681926
000160 35 bc 06 3f 8e 5c 1c 3e 5e 41 45 3d 95 be 3a 3e
       0.5263093 0.15269682 0.048158042 0.18236764
000170 a2 1c 97 be c3 32 3a be 36 ae b5 3e 91 7a 86 bd
       -0.29514033 -0.18183427 0.35484475 -0.065663464
000180 5f 8d 1c 3f e2 b5 b0 3d 44 9d 9f 3e b8 59 be 3c
       0.61153215 0.086284414 0.31174672 0.02323614
000190 2e 10 82 3e 96 7a 0e 3f 74 57 28 bf 31 fc 59 3e
       0.2540297 0.556558 -0.6575844 0.2128761
0001a0 f0 d3 81 3e 57 ab 50 3d 4c 36 f1 3e f5 80 ca 3c
       0.25357008 0.050944652 0.47111738 0.024719695
0001b0 a8 66 1c 3f 45 c6 97 bc f9 65 1e 3e 54 9a 3b bd
       0.6109414 -0.01852716 0.15468587 -0.045801476
0001c0 a0 0a d2 bc 5d 9f 17 3f 00 e7 88 3e 1f 97 87 be
       -0.025639832 0.59227544 0.2673874 -0.26482484
0001d0 f8 fa 01 40 62 55 07 3d 81 45 da bc 09 2d a1 bc
       2.030943 0.03304041 -0.02664447 -0.019674795
0001e0 07 b3 55 3f 50 7b 86 3e d2 e1 4c c0 64 db e7 3d
       0.834763 0.26265955 -3.201283 0.11321142
0001f0 fa f3 f2 3d 7f ff 0d 3f 71 07 63 3f 36 74 df 3e
       0.11862941 0.5546798 0.8868323 0.4364335
000200 05 50 86 3e 02 cc d0 3d 18 bd 56 3e 11 a6 7f bd
       0.26232925 0.101951614 0.20970571 -0.062414233
000210 ef c2 b0 3d 83 e2 0f 3e 9b f7 54 3e d7 e4 86 bf
       0.08630931 0.14051251 0.20797579 -1.0538586
000220 49 96 0f 3e a8 1e dc bd 75 77 01 c0 11 9d ea 3e
       0.14022173 -0.10748035 -2.022916 0.45822957
000230 17 3f 9a 3e 5e 3b d5 be a5 39 9a 3d 2b 13 9f 3f
       0.3012626 -0.41646856 0.07530526 1.2427725
000240 a8 05 00 3d 45 ca 93 3f 62 d8 cd be 6e b7 77 bd
       0.031255394 1.1546103 -0.4020415 -0.060477667
000250 ff 10 14 3f 6a c7 e2 3e 5e bf e9 3e 78 cb 22 bf
       0.57838434 0.44292766 0.45653814 -0.6359172
000260 ea d8 f0 3e f4 a1 86 3d dd 70 d1 3e 33 4e e6 3e
       0.47040492 0.06573859 0.4090642 0.44981536
000270 ce 2b 86 bc db 46 c6 3b af d6 6b 3e f4 00 ac 3b
       -0.01637831 0.006050927 0.23031114 0.005249137
000280 aa de 33 3f 50 0d 2b 3d 52 4a 50 be d4 d3 d0 bc
       0.70261633 0.041760743 -0.20340851 -0.025491633
000290 79 50 11 3f 26 f5 18 bf 78 2d 89 bf 0d e0 05 c0
       0.56763417 -0.59749067 -1.0717001 -2.0918
0002a0 aa 4f 22 bd 7e d0 cb bc 16 10 49 c0 5a 6f c0 3b
       -0.039626755 -0.02487969 -3.1416068 0.005872649
0002b0 b6 ab 2d bf 7c 73 7b be f4 e8 a5 3e 6e 9e 94 bd
       -0.67840135 -0.24555773 0.32404292 -0.072567806
0002c0 be 4e 4f 3d 52 1b ec 3e 8a c6 16 be bb e4 a4 3e
       0.050612204 0.46114594 -0.14724174 0.32205757
0002d0 54 cc 04 40 8a 07 25 be 14 2b 8b bb 88 95 b2 bc
       2.0749712 -0.16116157 -0.0042470787 -0.021799818
0002e0 c8 c3 42 c0 d3 b5 54 3f 0e 05 8b 3d 67 6d d6 3e
       -3.0431995 0.8308994 0.067880735 0.41880342
0002f0 ce 2f 8c bd f7 07 be 3e b9 a5 45 3f ee cc 18 3f
       -0.068450555 0.37115452 0.77206 0.596877

fc3.bias f4 [3]
000000 8b 75 a2 3f 8c 90 68 3f 15 c1 6a 3f
       1.2692121 0.9084556 0.9170087
