SnakeV3/snake_model_episode_900.pth (torch, 23336 bytes, 6 tensors)

fc1.weight f4 [64, 11]
000000 11 c3 6a 3f 6b 1b 1f 3f 25 2e e3 3e 7b 51 5b 3f
       0.917039 0.6215121 0.44371143 0.85671204
000010 e3 2a 1d 3e d4 b9 83 3d e1 8f 9f 3e 48 7a dd be
       0.15348391 0.06431928 0.31164458 -0.43257356
000020 db 50 19 bf 6b d7 62 bf e7 1b 07 bf e3 01 8f 3f
       -0.59889 -0.8860995 -0.5277695 1.1172451
000030 d3 67 6f 3f 89 3e f8 3e 91 53 e6 bf 22 0f aa bf
       0.935178 0.4848521 -1.7994252 -1.3285868
000040 6d 97 55 bf ac 15 d8 bf 9b f1 9b 3d db 8f 9c 3c
       -0.8343418 -1.6881614 0.07614442 0.019111564
000050 94 b5 d0 3e 18 85 2e 3e 9f 26 f5 be 7d 3a 8e 3e
       0.40763533 0.17042959 -0.47881028 0.27778998
000060 46 f1 00 bf cf f1 8b bf b9 f7 9a 3e 94 b0 6c 3f
       -0.50368154 -1.0933169 0.30267122 0.92456937
000070 3d 73 ce 3e 33 d2 60 bf 8c 69 24 3f d7 0d a9 3e
       0.40322295 -0.8782074 0.6422355 0.3301837
000080 fb 52 dd bf 39 b2 37 bf a0 ed 64 3f 1c 3e 85 3f
       -1.7290949 -0.7175632 0.89425087 1.0409579
000090 37 e9 07 3f cf e4 0a bf a2 d9 ca be 21 6f 3e bd
       0.5309023 -0.54255384 -0.39619166 -0.0464927
0000a0 66 3b bd be eb 3d 32 3f 86 28 9c be 5a 3d b3 bf
       -0.3695938 0.6962573 -0.30499667 -1.4003098
0000b0 eb 2e d1 be 7b cc 8f 3e d7 3d 22 3f 4c eb 11 3f
       -0.40856108 0.28085694 0.6337561 0.5699966
0000c0 7e 59 9f bf a8 74 4b 3f 97 01 8f bf 3d cb f6 3e
       -1.2449186 0.7947488 -1.117236 0.48201934
0000d0 1b eb 92 be 82 79 a3 bf 67 e5 09 c0 a8 50 99 be
       -0.28694996 -1.2771456 -2.1546266 -0.29944348
0000e0 dd 6c 66 bf 90 71 08 40 cd b6 bb bd 3b b6 87 bf
       -0.9000986 2.1319313 -0.09165726 -1.0602487
0000f0 a4 44 7f 3e be 5b f4 be 3c 48 36 3e 3b bc 79 3e
       0.24928528 -0.47726244 0.17800993 0.2438821
000100 14 45 f2 3e 8c ff 0d be 14 9b 66 3f b9 16 ac 3e
       0.47318327 -0.13867015 0.9008038 0.33611086
000110 db 37 18 3f bd 15 e1 bf aa 5f d8 3d 99 ae bf be
       0.5946023 -1.7584759 0.105651215 -0.37437895
000120 7f 44 33 bf a0 f7 af be b9 52 1c 3e d4 09 b8 be
       -0.7002639 -0.3436861 0.15265931 -0.35944998
000130 78 a7 de 3e 51 7d 0e bf b7 40 90 bf e9 50 06 be
       0.43487144 -0.5565997 -1.1269749 -0.13116802
000140 f6 1b ff be f0 a1 34 3f bc b1 81 bf 0f 19 f1 3e
       -0.4982602 0.70559597 -1.0132365 0.4708943
000150 4b 99 ee 3e 46 f3 74 be b3 92 d4 be 6d 44 c1 3e
       0.46601328 -0.23920926 -0.41518173 0.37747517
000160 5e 4e 01 bf 20 39 97 bf 0b 6c 62 3f 21 f1 85 3e
       -0.50510204 -1.1814308 0.8844611 0.2616053
000170 d5 0a 14 be 33 78 a5 3f d8 25 b2 3e 98 4a 0a 3f
       -0.14457257 1.2927307 0.34794497 0.5402007
000180 7a 67 b9 3e 93 77 4b bf 6c 5b 6f be a5 72 6e bf
       0.3621176 -0.7947933 -0.23374718 -0.93143684
000190 eb 29 95 3e cf bf a4 bd 49 50 7c be 6e ff 98 bf
       0.29133543 -0.08044397 -0.24640001 -1.1952951
0001a0 39 e8 b0 bf d0 52 23 3f 23 c4 df bf 0d c7 88 bf
       -1.3820869 0.63798237 -1.7481731 -1.0685745
0001b0 0c 54 a7 bf 08 7f 76 3f ab b0 07 3f ae d7 9c 3e
       -1.3072524 0.96287584 0.5300395 0.306333
0001c0 f0 57 31 3f 5c 0e 65 bd 4a 79 9e 3e b4 9e 4c bf
       0.69274807 -0.055921897 0.3095191 -0.7992966
0001d0 39 da 91 bf 54 90 32 be f7 10 5a be 9c 20 57 3e
       -1.1394721 -0.1743787 -0.21295534 0.21008533
0001e0 9d 11 27 3b 19 00 2e 3f c8 f8 4c 3f f9 a6 f9 3e
       0.0025492676 0.679689 0.8006711 0.48760203
0001f0 98 4f ce bf 40 45 5d be 0b 5e 87 bf 0e 75 71 be
       -1.611804 -0.21608448 -1.0575575 -0.23579809
000200 2e 78 e2 be ac 42 ce bf 31 ca 8a 3c 5f 6f a4 bf
       -0.44232315 -1.6114097 0.016942116 -1.2846488
000210 30 29 92 be 54 a5 5b 3f 9c 2d 22 3f d5 43 8b be
       -0.2854705 0.85799146 0.63350844 -0.2720019
000220 49 fa a9 bf 05 f8 f1 3e aa 89 ca be 9f 91 22 bf
       -1.3279506 0.47259536 -0.39558154 -0.6350345
000230 82 61 1b bf 33 9f 13 bf 87 ba ac 3e 65 a1 63 be
       -0.6069566 -0.57664794 0.3373606 -0.22229536
000240 4c 35 1b 3f f4 d2 da bf 6e d1 00 3e af ec 0b 3f
       0.606282 -1.7095628 0.12579891 0.54658026
000250 67 16 50 3f 77 4f b2 3e da 68 b6 be 9d ee 11 bf
       0.81284183 0.34826252 -0.3562687 -0.5700472
000260 e4 69 25 bf 8a 85 e6 bd 47 2d 53 3f 97 51 69 3e
       -0.646147 -0.11255939 0.8249096 0.2278503
000270 02 1f b4 bd 27 ba 00 3e 9f fb 2f bc 1b 41 63 bf
       -0.08794977 0.12571011 -0.0107411435 -0.8877122
000280 ca 07 15 bf 91 09 c6 bc 83 78 48 be fe cf 35 3f
       -0.5821501 -0.024174483 -0.19577222 0.71020496
000290 0a 0d 9b 3e 87 b8 34 3f ea 0d a6 3f 49 d3 17 3f
       0.30283386 0.70594066 1.2972996 0.5930677
0002a0 35 07 b5 bf 2f 0e b7 bf c2 66 d1 be 93 e1 fd bf
       -1.4142824 -1.4301203 -0.4089871 -1.9834465
0002b0 29 be a3 bf b7 ad 19 bf 2e 4a bc bf 4b 5e 93 3e
       -1.2792407 -0.6003069 -1.4710138 0.28782877
0002c0 7f 25 ad 3e 2c a5 fd be f7 7e ad 3e f5 23 51 bf
       0.3381767 -0.4954008 0.3388593 -0.8169549
0002d0 45 75 aa 3e 65 9a 6b be be ae ef be 9f e0 f8 bd
       0.33292595 -0.23008116 -0.46813005 -0.12152218
0002e0 2a b6 e3 be e8 49 1f bf 9b b9 ab 3e 9d 04 97 3f
       -0.44474918 -0.62222147 0.33540043 1.1798283
0002f0 7b 37 93 be c1 ba da 3e fa df f3 be 65 93 53 be
       -0.28753266 0.42720607 -0.47631818 -0.20661695
000300 97 48 0c 3f 20 66 0e 3f 39 a1 44 3f 22 26 ff 3d
       0.54798263 0.5562458 0.76808506 0.12458445
000310 72 25 23 be 39 56 6c bf 56 5f a5 bf ae 1d 8a 3f
       -0.15932253 -0.92319065 -1.2919719 1.0790308
000320 86 6c 06 c0 55 d6 b5 3e 84 e1 94 3e db 2f 9c 3e
       -2.1003737 0.35515085 0.29078305 0.3050526
000330 bd 8f 6e 3e cd 2c 3d 3d ec 66 c9 3e 79 6a 2e 3e
       0.2329702 0.046185303 0.39336336 0.17032804
000340 91 e8 a1 3e 5d 24 f5 3e f3 67 9f 3e b4 21 6d 3f
       0.31622747 0.47879305 0.31133994 0.9262955
000350 e0 b8 09 bf ea f5 fe 3e ae bc 96 be 4e a3 1b 3f
       -0.5379772 0.49796993 -0.29440826 0.6079606
000360 22 ef f4 bd b8 0b af 3e 5b 09 52 bf 86 d4 73 bf
       -0.119596735 0.34188628 -0.82045525 -0.9524616
000370 d1 a2 65 3f 62 27 fd 3e a3 92 d5 bf 06 91 e0 bf
       0.89701563 0.4944411 -1.6685375 -1.7544258
000380 d6 12 f6 3d 83 dc 3e bf 3a e7 7a bd b5 32 e2 be
       0.120153114 -0.74555224 -0.06125567 -0.4417931
000390 8c eb c2 3e 3d f0 01 3f 54 15 2a be 51 5d 3b be
       0.38070333 0.507572 -0.16609699 -0.18297316
0003a0 be 76 16 bf fa bd 47 bf 11 94 0e 3f f0 1c 34 3f
       -0.58774936 -0.78024256 0.5569468 0.70356655
0003b0 f0 d8 ba 3e 4e 57 94 3e be 47 44 3e a9 ca 1d 3e
       0.36493635 0.28972858 0.19167992 0.1540934
0003c0 eb 17 14 3f 7d d4 14 3e bc f1 1d bf 00 b7 bc be
       0.57848996 0.14534183 -0.6169698 -0.36858368
0003d0 f3 a6 e5 be 2d d7 5c bf 26 63 63 3f 7b 6b 8c be
       -0.44853935 -0.8626583 0.88823164 -0.2742575
0003e0 21 e9 54 3f df 6e 1d 3e b4 6b 93 be 25 69 3d 3b
       0.83168226 0.15374325 -0.28793108 0.0028901782
0003f0 13 66 00 bf 13 55 6a 3f 0d 5e 12 be de 10 1b 3f
       -0.5015575 0.9153606 -0.1429369 0.6057261

fc1.bias f4 [64]
000000 86 c6 18 bf 9c 40 05 bf 0c 11 96 3e 78 d9 1b 3b
       -0.5967792 -0.5205171 0.2930988 0.0023780745
000010 37 b8 3a be 7c d3 0a bd d0 96 79 bf 82 50 07 be
       -0.18234335 -0.033893093 -0.97495747 -0.13214305
000020 bb 0e 08 3d 55 ce bd bd bb a8 4f bf 9d a2 4c be
       0.033217173 -0.0926787 -0.8111684 -0.19983907
000030 95 d7 d6 be a1 4c 17 3f 8f a8 95 bf ae 1d 4c bf
       -0.4196135 0.591013 -1.1692065 -0.7973279
000040 0e 2b 8e be c7 65 18 bf c2 9c e2 3e 4b ee 5f be
       -0.27767223 -0.595303 0.44260222 -0.21868245
000050 ea a3 7d bf a8 46 76 3f d4 66 f9 3e 20 af 1d bf
       -0.9907824 0.9620156 0.48711264 -0.61595345
000060 1e 22 1b bf 64 c4 39 3f 87 fb 47 bf be 73 2c bf
       -0.60598934 0.72565293 -0.78118175 -0.6736411
000070 d7 f9 02 3f 69 f1 bf be 00 e0 70 3f 39 46 98 bf
       0.51162475 -0.3748887 0.94091797 -1.189643
000080 75 da 1e 3f b5 30 06 bf 4a 52 45 bf c2 2a 1b bf
       0.6205209 -0.5241807 -0.7707869 -0.6061212
000090 c2 47 11 3f be 04 fa bd b5 4f b9 be de 12 7d bd
       0.5675012 -0.12207936 -0.36193624 -0.06178557
0000a0 e4 22 c1 be 4c 31 b4 bf 88 44 9f 3e 19 42 37 bf
       -0.37721932 -1.4077544 0.31106973 -0.7158523
0000b0 44 fc 3a bf 78 26 8d 3e c2 91 06 bd 07 cd 6f bf
       -0.73041177 0.27568412 -0.03285385 -0.9367222
0000c0 ad 40 87 3f 33 c4 b2 3e 5b 79 22 3f 9a 4e 0f be
       1.0566612 0.34915313 0.63466424 -0.13994828
0000d0 ac 48 34 bf 1d 25 25 bf 4f 18 fd 3c 8d 8d 59 be
       -0.7042339 -0.64509755 0.03089538 -0.21245404
0000e0 29 2f 6c 3e 8e 24 1c be a8 5d 5a bf 64 e3 93 bd
       0.23064865 -0.1524832 -0.8529916 -0.07221106
0000f0 ea ec 93 bd c5 07 5c bf 68 b0 c3 bd 11 ea 12 3e
       -0.07222922 -0.85949355 -0.09555131 0.14347102

fc2.weight f4 [64, 64]
000000 92 16 64 be 31 63 72 bc 98 60 89 3e 12 72 0f 3f
       -0.22274235 -0.014794157 0.26831508 0.5603343
000010 66 0e 4a 3f 74 b3 8e 3f aa cf e3 3f 14 a1 f2 3e
       0.7892822 1.1148515 1.7797749 0.47388518
000020 0f d6 fa be 83 ba 8e 3f 54 17 18 3f 8b 85 49 be
       -0.4899144 1.1150669 0.59410596 -0.19679849
000030 3c f8 44 be 38 44 83 bd 91 14 0f 3f 15 91 1b bf
       -0.19235319 -0.06409496 0.55890757 -0.6076825
000040 2d d8 3a be 88 03 80 bf c9 d1 6b be 2c 3a da be
       -0.18246527 -1.0001078 -0.23029245 -0.42622507
000050 7a 9a c7 3f f0 b4 b5 bc e3 9f 83 bf 9f 53 8c 3f
       1.5594018 -0.022181004 -1.0283169 1.0963019
000060 a6 64 31 bf 56 f5 97 3e c8 0b 5d 3f b7 dd 1a 3e
       -0.692942 0.29679364 0.863461 0.1512364
000070 6d 06 34 be 7f bd a5 3e 40 df 11 3f 18 b6 95 3f
       -0.17580576 0.32371137 0.5698128 1.1696196
000080 4b d9 91 3e 03 40 aa bf 9f d6 b4 be 85 49 80 bd
       0.28486094 -1.3300785 -0.35319993 -0.06264023
000090 ec c8 ba 3e b4 40 22 bf e0 13 fa 3e fe 0d 5b be
       0.36481416 -0.6337998 0.48843288 -0.21392056
0000a0 68 75 01 3f 68 27 b5 bd 53 5c 80 3e 2c 8a 38 be
       0.5056977 -0.08845407 0.25070438 -0.18021458
0000b0 bd 5a 70 be 6f 60 08 bf ea 08 e8 3d ca 5b 44 3f
       -0.23472114 -0.53272146 0.11329825 0.7670256
0000c0 0e 2e 80 3e d3 4f 39 3e be d0 08 bf af 7d 8d 3e
       0.25035137 0.18096857 -0.53443515 0.2763495
0000d0 99 63 e4 3e 5b fc 86 3f 13 9b 13 be bc 63 bb 3f
       0.44607237 1.0545763 -0.14414625 1.4639812
0000e0 e6 5c 08 bf 00 32 de 3a f0 9a 64 be e7 28 55 3e
       -0.5326675 0.0016952157 -0.22324729 0.20816384
0000f0 00 88 f6 be 98 50 a6 bf 99 90 08 3c 86 07 93 bf
       -0.48150635 -1.2993345 0.008335256 -1.1486671
000100 f0 60 cf 3e 7a f8 61 3f 6e a8 46 3d 3f 81 96 3e
       0.40503645 0.8826977 0.04850047 0.29395482
000110 2e 4d 6b 3f e7 24 60 3e 8c 10 af 3f 3f 32 15 be
       0.9191464 0.21889077 1.3676925 -0.14569949
000120 d9 d4 1f bf e7 11 5f 3f 04 4c 84 3f 28 5d 08 3f
       -0.62434155 0.8713669 1.0335698 0.53267145
000130 4b 5c a2 3e b1 81 db be 5a d2 26 3f dc 1f 2c 3f
       0.3171104 -0.42872384 0.6516472 0.67236114
000140 bd a1 10 3f c4 e4 51 bf e6 cd 32 bf f2 0b 42 3f
       0.56496793 -0.81989694 -0.69845426 0.7579948
000150 26 08 ac 3f 54 99 10 be 8f 30 88 bf c8 f8 67 3e
       1.3439987 -0.1412099 -1.0639819 0.22653496
000160 d7 a6 78 bf 5f 29 10 3d 91 07 5d 3f d7 81 f7 3c
       -0.9712958 0.035195705 0.8633967 0.03021328
000170 ec 13 87 be 24 58 cd 3e 05 a9 23 3d 28 4b dd 3d
       -0.26382387 0.40106308 0.03995611 0.108053505
000180 cd 37 e2 3e 0f de 80 3d 9a 68 a3 be 21 62 31 3f
       0.44183198 0.06292354 -0.31915742 0.6929036
000190 dd 7f 8d bd 75 1c 89 bf 5b 46 3e 3c bc 9a 68 bd
       -0.069091536 -1.0711809 0.011613454 -0.05678819
0001a0 a7 e5 55 be a8 a1 34 bd a9 b5 68 3f c8 ab 85 3e
       -0.20888387 -0.04409948 0.9090219 0.2610762
0001b0 08 57 d3 bd 60 2b 0c bf 03 3a dc 3b a4 ce 8c 3e
       -0.10319334 -0.54753685 0.0067207827 0.27501404
0001c0 75 be 9c 3d 9a c3 01 bf b5 41 d1 be f6 89 8c 3f
       0.07653514 -0.5068909 -0.40870443 1.0979602
0001d0 b7 ff 5d 3e f9 3e 84 3f 0d d1 fd bc b3 8f 22 3f
       0.21679579 1.0331718 -0.030983472 0.6350052
0001e0 09 35 4e 3e a0 38 87 bb 50 e0 20 3e a6 c8 72 3f
       0.20137419 -0.0041266233 0.15710568 0.94837415
0001f0 81 90 5d 3f d2 b2 a9 be db f6 0b 3f 43 0d 0a bf
       0.8654862 -0.33144242 0.54673547 -0.53926486
000200 13 f8 c6 bc 90 1a 76 3d ed 2e b4 bd 91 e2 45 3f
       -0.024288213 0.060083926 -0.08798013 0.7729884
000210 ea f6 92 be 72 e6 8a 3f f4 b6 b9 3c e5 52 4e 3f
       -0.28704005 1.0851576 0.022670247 0.80595237
000220 c8 be 94 3e 6a e7 fd 3e a5 1b d4 be c9 a2 f9 bf
       0.29051805 0.49590617 -0.4142734 -1.9502803
000230 c9 8c 3f 3d 5e c5 55 3e 1a 9b 55 be 97 9c 24 bf
       0.046765123 0.20876071 -0.20859948 -0.6430144
000240 39 49 9c 3e 72 cf 76 be 65 81 0f c0 7c b4 c8 3e
       0.30524614 -0.24102572 -2.2422726 0.392002
000250 23 b1 1e 3f 4a c7 45 bd b3 68 6b be aa 4b 15 3f
       0.6198904 -0.04828576 -0.22989158 0.5831858
000260 10 70 1e bf ad c2 04 3f ac 71 a7 be 8a 14 b4 3f
       -0.61889744 0.5185955 -0.32703912 1.4068768
000270 92 02 95 3e b1 d3 c1 3c b6 e2 63 3f c3 4e 0d 3f
       0.29103523 0.023660513 0.8901781 0.55198306
000280 88 41 d0 bd 37 ab cd bf 2d a8 48 be 0d 27 a6 bf
       -0.10168749 -1.6067876 -0.19595404 -1.2980667
000290 81 2d 01 3f ca fa 12 be 53 ab 72 bf 00 2e 18 3f
       0.5046006 -0.14353481 -0.9479267 0.5944519
0002a0 10 e0 4f bf 26 22 b2 bf 5b 4e ab 3e 68 b9 d4 bf
       -0.8120127 -1.3916671 0.33458218 -1.6619081
0002b0 e9 06 a9 bf 98 08 46 bf 82 08 a4 be 29 89 52 3f
       -1.3205234 -0.77356863 -0.3203774 0.8224054
0002c0 09 ef 0d bd 25 e8 c7 3e 40 8c 12 3f e2 0a 76 be
       -0.03465179 0.390443 0.57245255 -0.24027589
0002d0 1b c8 5e be de cb 3e bf 65 60 d1 be b7 89 05 bd
       -0.21756022 -0.74529827 -0.40893856 -0.03260204
0002e0 71 14 bd 3e d6 9d fb bd f9 90 65 bf 0b ff 04 40
       0.36929658 -0.12285964 -0.89674336 2.0780666
0002f0 bb 35 45 c0 59 1f 6a 3e 6b ac 46 bf 78 02 08 c0
       -3.0814044 0.2286352 -0.7760684 -2.1251507
000300 f0 5c bb bd a2 cb 19 bd 14 a0 b0 bd 1d f0 da bd
       -0.09148586 -0.037547715 -0.086242825 -0.10690329
000310 86 b2 a2 3d db e2 c1 bd 31 e6 ad bd 9f 2d 5f bc
       0.07944207 -0.09467097 -0.08491171 -0.013621717
000320 80 fb cb bc e2 d5 d5 bd 86 0d 38 bc 06 4d 28 b9
       -0.024900198 -0.104411855 -0.011233693 -0.00016050422
000330 f2 61 19 bc f1 f5 88 bd 92 75 2d 3d 13 f4 0c be
       -0.009361731 -0.066875346 0.042348452 -0.13764982
000340 9a 44 cd bd 38 b8 0b 3d 97 e9 bd bd 8e 2c 0b 3d
       -0.1002285 0.03411123 -0.09273069 0.033978038
000350 83 b7 c2 3d fe f0 8f bd 56 21 fe 3c b4 3c bf bd
       0.09507658 -0.070283875 0.031021755 -0.0933775
000360 49 1a e0 3b d5 40 a1 ba fd 23 a4 bd 27 95 cf bd
       0.006839071 -0.0012302647 -0.08014677 -0.101358704
000370 ec 1f 20 be a8 b3 4a bd 0f a3 57 bc 3d 8c 97 bc
       -0.15637177 -0.04948774 -0.013161435 -0.018499488
000380 2e 38 40 3d 12 de f5 bd 1d db b1 3d 2a 10 04 bd
       0.046928577 -0.12005247 0.08684371 -0.032241978
000390 2b 7a f0 bd eb ac e6 bd 37 27 9e bc e5 2f d3 bd
       -0.11742052 -0.1126345 -0.019305808 -0.103118695
0003a0 c2 af 45 bd b9 22 16 3d 97 8e 26 bd fd 4c ae 3d
       -0.04826332 0.036654208 -0.040663328 0.08510778
0003b0 84 79 84 bd 21 7a 05 3d e9 d5 01 be 86 9f 97 bd
       -0.0646849 0.032587174 -0.12679256 -0.074034736
0003c0 17 91 9c bc 50 b4 1c 3d ec c1 aa bd 25 03 2e bc
       -0.019112153 0.038257897 -0.08337769 -0.010620867
0003d0 ce 6a 0e be 02 72 e8 3c 09 37 f0 bd 13 ef 05 be
       -0.1390793 0.028374676 -0.11729247 -0.13079481
0003e0 e0 b5 92 bb 10 02 99 bd 7a 11 ea 3c f2 ce dd 3d
       -0.0044772476 -0.074710965 0.028572787 0.10830487
0003f0 01 01 a0 bd ce 28 4d 3d 09 1b ca 3d 28 af 42 bd
       -0.078126915 0.050087743 0.09868438 -0.047530323

fc2.bias f4 [64]
000000 3c 4b 3c 3f c3 4f 9b 3e 24 10 35 3f d8 72 12 be
       0.735523 0.3033429 0.70727754 -0.14301622
000010 45 7c fa bd 03 e4 8a bd f7 f2 0b bd 3a fc 9d 3e
       -0.12230734 -0.06781771 -0.034167256 0.30856496
000020 8e ca cc 3e 01 c2 15 be 69 ad cb 3e 4c b8 b1 3f
       0.39998287 -0.14624788 0.3978074 1.3884368
000030 16 64 74 3f 55 88 c3 be 5e ab 62 3e f0 b2 34 bf
       0.9546522 -0.3818995 0.22135684 -0.70585537
000040 9a 5e 00 be 4e fb b5 bd 86 46 83 3e 13 33 02 bf
       -0.12536088 -0.08885823 0.25639743 -0.50859183
000050 50 7d c8 3f 2c 7a 83 3f e5 4d 90 3f 45 f3 f6 be
       1.5663242 1.0271659 1.1273772 -0.48232475
000060 af 0d a2 3f 94 a2 0c bf 04 45 4c 3f 60 60 9c bb
       1.2660426 -0.54935575 0.7979281 -0.004772231
000070 c5 4b ca 3d 01 f4 77 bb 05 18 7f 3f 43 69 ae bd
       0.09877733 -0.0037834647 0.99646026 -0.08516171
000080 e2 1e ab 3f ff e0 f0 bd cb 76 28 3f 9b 1f 45 ba
       1.33688 -0.117616646 0.65806264 -0.0007519663
000090 4d 55 83 3f 05 e7 b0 3d ea f6 57 3e cb f0 2f 3e
       1.0260407 0.086378135 0.21090284 0.17181699
0000a0 56 dd 1f 3f 5f 7a a3 bc f0 e9 81 3e ae 4f 74 be
       0.62447107 -0.019955812 0.25373793 -0.2385852
0000b0 3e 26 28 bf a3 33 09 3e bc 1a d9 3e 0a 19 c7 bd
       -0.6568335 0.13398604 0.4240321 -0.09721573
0000c0 9d 56 32 be 59 cf b1 3f 62 fb 5e bd eb 17 ae be
       -0.17415853 1.3891402 -0.054438956 -0.34002623
0000d0 a6 ca f1 bd f4 e6 22 3e bb b6 24 be 59 6a e3 bd
       -0.1180623 0.15908414 -0.16085331 -0.111042686
0000e0 cf 65 0c bf 7f aa 8c be e5 46 4c 3f 19 2b d6 3e
       -0.5484285 -0.27473828 0.79795676 0.41829756
0000f0 06 18 13 be b8 53 bd 3f 3a 52 f2 be 01 58 bb 3f
       -0.14364633 1.4791174 -0.4732836 1.4636232

fc3.weight f4 [3, 64]
000000 3b 00 40 3e da 28 94 3e 74 13 bd 3e ce 7d fe bd
       0.18750088 0.28937417 0.36928904 -0.12426339
000010 34 b7 5e bd f8 f6 a9 bf 23 24 4a c0 58 20 f0 bf
       -0.054373935 -1.3278494 -3.1584556 -1.875987
000020 1c 80 49 be ed c9 55 bd 11 77 aa 3e 75 69 cf 3e
       -0.19677776 -0.052194525 0.33293965 0.40510145
000030 6c 0f 22 3c e7 91 c2 3f 59 44 6e c0 46 39 c7 3f
       0.009891372 1.5200776 -3.7229216 1.5564353
000040 d1 ae 86 bd bc eb 12 bf a0 6c 7e bf 5d f1 4a 3f
       -0.06576312 -0.5739095 -0.993845 0.7927454
000050 50 ef 18 3f b6 b0 a6 3e a8 b1 df 3e 44 2f 41 bf
       0.5974016 0.32556695 0.43690228 -0.75462747
000060 b7 fa e2 3e bf 9b c9 bf 2f 4d 39 3e b6 b4 cf bd
       0.44331905 -1.5750655 0.1809585 -0.1014189
000070 0d c0 16 3f e3 a5 fe 3c 55 b6 c0 3e d2 58 d7 bc
       0.58886796 0.03108496 0.37639108 -0.02628747
000080 d6 33 ec 3e ee 39 43 bd d1 39 13 3f c8 eb bf bc
       0.46133298 -0.047662668 0.57510096 -0.023427859
000090 f5 04 98 3e 3f 56 40 3e 64 1d 20 3f d3 52 84 be
       0.29691282 0.187829 0.62544847 -0.2584444
0000a0 2f fe 43 3e 4d 5f c0 3d 07 5e b8 3e c7 0e a4 3c
       0.19139932 0.09393177 0.36009237 0.020026578
0000b0 9d fb ac bf 43 83 07 3f 15 bc 47 3e 94 ec a7 3d
       -1.3514286 0.52934664 0.19505341 0.081994206
0000c0 e8 4d c7 3c df b3 0f 3f ca 10 7c 3f 23 f7 be bd
       0.02432914 0.56133837 0.9846312 -0.09324481
0000d0 e7 ae 5e bf cc 23 d1 bf 12 4e 34 bc ac fc ae 3d
       -0.8698563 -1.6339049 -0.011004942 0.08544287
0000e0 2f 19 8f 3f 3d 54 11 bf 7e 8f fd 3d 21 64 08 3f
       1.117956 -0.5676916 0.123808846 0.53277785
0000f0 0b 45 ea bc f7 c0 ff 3e bb 0f c7 be 84 61 1c 3f
       -0.028597375 0.49951908 -0.3887919 0.610863
000100 b8 8b 34 be c2 97 73 3e 4a af df bf 42 d5 cb 3a
       -0.17631423 0.2378836 -1.7475369 0.0015551227
000110 ee 45 e9 bd b5 aa 45 3f c8 73 74 3d 0b ac 6d bf
       -0.11390291 0.77213603 0.05968073 -0.9284064
000120 6c 1e 13 c0 45 56 18 bd dd b8 15 3e 48 a6 ee 3e
       -2.2987318 -0.037191648 0.14621301 0.46611238
000130 24 08 c5 3e 3d 3f 9b be 63 ac e8 3d f5 2f 8c 3f
       0.38482773 -0.30321684 0.11361005 1.0952135
000140 4d d2 cd bb a2 3c 27 c0 77 a1 a9 be 77 17 ac be
       -0.0062811733 -2.6130757 -0.33131 -0.33611652
000150 f0 11 09 3f 30 ef 46 3e 53 f0 1e 3f c6 a6 df be
       0.53542995 0.1942718 0.62085456 -0.43681926
000160 c9 c2 fd 3e 85 b6 82 3e 4f c2 f2 3b 1b e7 c6 3d
       0.49562672 0.25529876 0.0074084173 0.097120486
000170 19 10 2b bf c3 32 3a be 5c ed a1 3e 91 7a 86 bd
       -0.6682144 -0.18183427 0.31626403 -0.065663464
000180 bc 0d 14 3f e2 b5 b0 3d 36 16 bb 3e b8 59 be 3c
       0.57833457 0.086284414 0.36540383 0.02323614
000190 8f e5 6f 3e d9 31 15 3f f7 c6 fe be 54 14 0b 3f
       0.23427413 0.58279186 -0.49761173 0.54327893
0001a0 e4 c1 3d 3e 57 ab 50 3d 04 62 e3 3e f5 80 ca 3c
       0.18530995 0.050944652 0.44410717 0.024719695
0001b0 0b 85 bf 3e 95 b2 40 3e 64 b1 84 3d 54 9a 3b bd
       0.3740619 0.18818124 0.06479147 -0.045801476
0001c0 a0 0a d2 bc 31 e6 15 3f 47 3c 01 3f e7 f3 47 bf
       -0.025639832 0.5855437 0.504826 -0.7810654
0001d0 64 da e6 3f f6 f0 ac be 81 45 da bc 09 2d a1 bc
       1.8035398 -0.3377759 -0.02664447 -0.019674795
0001e0 54 4e 7b 3f cb ed fd 3d cd 41 6d c0 41 5d fd 3e
       0.98166394 0.12398871 -3.7071412 0.4948521
0001f0 fa f3 f2 3d fd 01 0b 3f 04 e1 83 3f 4f 3a db 3e
       0.11862941 0.5429991 1.0303044 0.42817923
000200 6f 98 d2 3e 8e d9 f5 3e 41 90 5b 3e 11 a6 7f bd
       0.41131923 0.48017544 0.21441747 -0.062414233
000210 ef c2 b0 3d c9 63 a1 be 07 15 c4 3d 4c 54 3e bf
       0.08630931 -0.31521443 0.09574323 -0.74347377
000220 92 6f 12 be a8 1e dc bd 99 50 df bf a4 f5 ea 3e
       -0.14300373 -0.10748035 -1.7446471 0.45890534
000230 6f 52 1d 3e e8 82 b6 be 4b 8e 17 3d 32 68 a9 3f
       0.15363477 -0.3564675 0.037000936 1.3234923
000240 a8 05 00 3d d9 6c 6e 3f 75 cd 10 be 94 3d af bd
       0.031255394 0.9313484 -0.14140876 -0.08556667
000250 f0 ab 12 3f d0 aa c5 3e fe cd e4 3e 78 cb 22 bf
       0.57293606 0.38606882 0.4468841 -0.6359172
000260 b6 6d ea 3e 68 78 a7 3d 11 3b a8 3e 60 75 fc 3e
       0.45786828 0.081772625 0.32857564 0.493083
000270 c0 5a 93 3e db 46 c6 3b 62 9a a5 3d f4 00 ac 3b
       0.28780174 0.006050927 0.08086087 0.005249137
000280 f2 fa 32 3f 50 0d 2b 3d e4 7b 87 be d4 d3 d0 bc
       0.6991416 0.041760743 -0.2646171 -0.025491633
000290 21 5f fa 3e b5 b6 14 bf 07 2b 2a bf 80 35 fd bf
       0.48900703 -0.5809129 -0.66471905 -1.9781952
0002a0 14 62 9f bd 7e d0 cb bc fb 01 46 c0 5a 6f c0 3b
       -0.07782379 -0.02487969 -3.0938709 0.005872649
0002b0 fa 0f a4 be 5f ef 87 be f8 d0 dd 3e 6e 9e 94 bd
       -0.3204344 -0.26549813 0.43323493 -0.072567806
0002c0 be 4e 4f 3d 71 91 df 3e 6e e7 7a be c4 22 00 bd
       0.050612204 0.4366565 -0.24502346 -0.031283155
0002d0 1e df fd 3f e9 ae 90 3e 14 2b 8b bb 88 95 b2 bc
       1.9833715 0.28258446 -0.0042470787 -0.021799818
0002e0 be 21 2b c0 0d fe 28 3f 9b ea 71 3d 9c 3f fd 3e
       -2.6739345 0.6601265 0.059061628 0.49462593
0002f0 ce 2f 8c bd 70 c2 b6 3e e3 41 63 3f 0f 46 18 3f
       -0.068450555 0.3569522 0.8877241 0.594819

fc3.bias f4 [3]
000000 a8 70 b2 3f 60 45 8a 3f ee e5 8d 3f
       1.394063 1.0802422 1.1085794
