SnakeV3/snake_model_episode_100.pth (torch, 23336 bytes, 6 tensors)

fc1.weight f4 [64, 11]
0.52294374 0.3435355 0.04910634 0.14453623 -0.5949635 0.10464405 0.16380182 -0.1860047
-0.17104277 -0.55340505 0.11361606 0.37261826 0.6283603 0.48527375 -0.35067084 -0.6367214
-0.19094646 -0.72479784 0.32339358 -0.029738206 0.15207966 -0.0054741236 -0.7030013 0.43363434
-0.20256168 -0.52978605 0.19782545 0.4626367 0.2868669 -0.44974327 0.28221866 0.38356826
-0.24873078 -0.7739632 0.6991845 0.41641536 0.10436325 0.1453396 -0.018642642 0.1809376
0.08238257 0.2332767 -0.3148926 -0.1991166 -0.16506739 -0.21558572 0.12762481 0.33772984
-0.342522 0.39187747 -0.7862492 0.5162898 -0.43611407 -0.8578479 -1.1680821 -0.044340692
-0.6995186 1.4160248 0.17528722 -0.2981282 0.004795837 -0.8105435 0.12295001 0.2860043
0.42480278 -0.3098582 0.8698809 0.5405338 0.4151901 -0.34452322 0.112747945 -0.5174078
-0.02630843 0.25281045 -0.05940609 0.3929403 0.2595727 -0.74037373 -0.14776137 0.05191493
0.0066692503 0.35779193 -0.44685507 0.34186321 0.1603675 0.24101941 -0.62250376 0.23116933
-0.35102034 -0.69463956 -0.1679015 0.12221551 -0.45888007 0.19978632 0.23452544 0.3828612
-0.16181731 -0.25462937 -0.2216429 -0.2558471 -0.166809 -0.54436874 -0.45214173 -0.30661362
-0.38622442 0.27696928 -0.69147986 -0.08848599 -0.33211687 0.614728 0.7546904 0.65417737
0.56942284 0.012681222 0.15731914 -0.27231726 -0.12622525 0.049964186 -0.5832069 0.07994334
-0.17978573 0.3625097 1.0136629 0.22657615 -0.27564412 0.12713768 -0.5516246 -0.1040899
-0.26057675 -0.26896942 0.035821598 -0.6783117 -0.5753237 0.81762934 0.59954554 -0.050092295
-1.3112634 0.10052374 -0.10771878 -0.5466559 -0.025690602 -0.17670526 0.2671024 -0.07480605
0.6083397 -0.8013801 0.25822595 0.36955643 0.30834702 0.50439066 -0.16598786 -0.09079608
-0.10600762 0.12875137 1.2253689 0.2735951 -0.091219924 0.017533494 -0.12152147 -0.34255752
-0.017136302 0.19822747 -0.08138868 0.2387129 0.330215 0.20310003 0.106108636 -0.042357516
-0.14310789 -0.9854422 0.24521062 -1.0121384 -0.37818062 -0.31965706 0.25399697 0.7511162
-0.54705137 -0.23089232 0.51037496 -0.33315292 0.17343901 -0.07556325 -0.25269148 0.07299609
-0.20181958 0.13105834 -0.0030552591 1.0261818 -0.303178 -0.116751 -0.55148923 -0.09331399
0.34653336 0.6389121 0.4499472 0.10619444 -0.16485736 -0.8634715 -0.3905374 0.45163617
-1.2374983 0.16272525 0.15027744 0.040043797 0.10601807 0.05767521 0.3125926 0.19637285
-0.05698639 -0.097919986 0.16970657 0.71219516 -0.5097428 -0.116848774 0.10389611 0.39585587
-0.3039708 0.28106532 -0.16111822 -0.35716018 0.69168526 0.43443087 0.5071782 -0.65799874
0.02606344 -0.34073383 0.13156426 -0.31744412 0.034667093 0.24640608 0.012284833 0.19277482
-0.4323046 -0.8241078 0.13296594 0.2360072 0.4187825 0.18672422 0.17251676 0.09025804
0.34543666 0.21022782 -0.64937884 -0.12734918 -0.40882325 -0.36896038 0.35985905 -0.2016104
0.53520054 -0.2738162 0.13278037 0.29617867 -0.31312385 0.8676785 -0.44674906 0.7923365
00000000: a4df 053f e3e3 af3e bb23 493d 4e01 143e
00000010: 874f 18bf 9f4f d63d aabb 273e 0478 3ebe
00000020: d625 2fbe f4ab 0dbf 89af e83d d2c7 be3e
00000030: 38dc 203f cd75 f83e 218b b3be 2c00 23bf
00000040: 7887 43be 5a8c 39bf d893 a53e 8a9d f3bc
00000050: c5ba 1b3e 4760 b3bb e5f7 33bf 5205 de3e
00000060: 546c 4fbe 0fa0 07bf c192 4a3e b8de ec3e
00000070: 38e0 923e c044 e6be f77e 903e 0f63 c43e
00000080: 48b3 7ebe 7422 46bf c1fd 323f 6534 d53e
00000090: 66bc d53d e7d3 143e 74b8 98bc b547 393e
000000a0: 31b8 a83d 16e0 6e3e 9a39 a1be 39e5 4bbe
000000b0: 6d07 29be 81c2 5cbe 14b0 023e edea ac3e
000000c0: 0b5f afbe 2aa4 c83e a147 49bf 912b 043f
000000d0: 584a dfbe ec9b 5bbf b783 95bf 969e 35bd
000000e0: a713 33bf 4d40 b53f 7e7e 333e 42a4 98be
000000f0: 6626 9d3b c77f 4fbf 37cd fb3d 286f 923e
00000100: c07f d93e bca5 9ebe 84b0 5e3f 6c60 0a3f
00000110: cc93 d43e 5965 b0be 65e8 e63d d674 04bf
00000120: c784 d7bc 5f70 813e cd53 73bd 792f c93e
00000130: b7e6 843e 2289 3dbf c24e 17be c0a4 543d
00000140: ba89 da3b 8130 b73e 30ca e4be b208 af3e
00000150: 6137 243e cbcd 763e 685c 1fbf a7b7 6c3e
00000160: f0b8 b3be e6d3 31bf 5fee 2bbe 204c fa3d
00000170: 54f2 eabe c994 4c3e 7027 703e 6206 c43e
00000180: 70b3 25be c85e 82be 5bf6 62be 64fe 82be
00000190: facf 2abe c05b 0bbf 1f7f e7be 76fc 9cbe
000001a0: 35bf c5be ebce 8d3e d304 31bf 2538 b5bd
000001b0: 390b aabe d05e 1d3f 6433 413f 2b78 273f
000001c0: b2c5 113f e6c4 4f3c 4518 213e 2b6d 8bbe
000001d0: 3141 01be 3fa7 4c3d 0c4d 15bf 55b9 a33d
000001e0: c019 38be df9a b93e b5bf 813f 9403 683e
000001f0: 3a21 8dbe 6130 023e 4537 0dbf 162d d5bd
00000200: 516a 85be 5cb6 89be abb9 123d d6a5 2dbf
00000210: 6a48 13bf 2850 513f d17b 193f 942d 4dbd
00000220: 7bd7 a7bf 64df cd3d aa9b dcbd a4f1 0bbf
00000230: 1975 d2bc 39f2 34be a5c1 883e ea33 99bd
00000240: 27bc 1b3f 3f27 4dbf 3136 843e 8036 bd3e
00000250: a9df 9d3e bf1f 013f b9f8 29be 4cf3 b9bd
00000260: 861a d9bd 66d7 033e e3d8 9c3f a814 8c3e
00000270: 83d1 babd 67a2 8f3c 40e0 f8bd b363 afbe
00000280: 6e61 8cbc 24fc 4a3e 1caf a6bd 2871 743e
00000290: f111 a93e 74f9 4f3e 7c4f d93d 137f 2dbd
000002a0: e08a 12be f145 7cbf 7e18 7b3e c08d 81bf
000002b0: e4a0 c1be 17aa a3be e40b 823e 2749 403f
000002c0: 8f0b 0cbf 096f 6cbe efa7 023f 0593 aabe
000002d0: ff99 313e e8c0 9abd c760 81be f97e 953d
000002e0: cba9 4ebe 2834 063e be3a 48bb ed59 833f
000002f0: 263a 9bbe 261b efbd 662e 0dbf 681b bfbd
00000300: d26c b13e be8f 233f 7b5f e63e 787c d93d
00000310: 5ed0 28be 780c 5dbf 85f4 c7be db3c e73e
00000320: 5866 9ebf 73a1 263e 54e2 193e f704 243d
00000330: 0020 d93d d73c 6c3d 230c a03e f715 493e
00000340: 906a 69bd 468a c8bd 8fc7 2d3e 6c52 363f
00000350: 817e 02bf 694e efbd 7cc7 d43d 9fad ca3e
00000360: 10a2 9bbe cbe7 8f3e 2dfc 24be b3dd b6be
00000370: 4912 313f b96d de3e 6ed6 013f 9b72 28bf
00000380: ff82 d53c aa74 aebe c8b8 063e 0988 a2be
00000390: 15ff 0d3d e051 7c3e 5346 493c c366 453e
000003a0: 0757 ddbe bbf8 52bf 3928 083e dfab 713e
000003b0: a96a d63e a234 3f3e 3ca8 303e 35d9 b83d
000003c0: 13dd b03e f645 573e b13d 26bf d367 02be
000003d0: 4851 d1be 60e8 bcbe 723f b83e f572 4ebe
000003e0: e702 093f a331 8cbe 94f7 073e bba4 973e
000003f0: c551 a0be 2e20 5e3f 4bbc e4be 91d6 4a3f

fc1.bias f4 [64]
0.15589139 -0.16104314 0.27608013 0.1010747 0.09519771 -0.043656517 -0.21025395 0.2889477
0.04521963 -0.2606213 0.137272 0.06749634 0.10016683 0.5444609 -0.32476228 -0.15905032
0.38135263 -0.04856176 0.40736225 0.23558822 -0.39709258 0.57837164 0.10105062 -0.1152356
-0.21629962 0.5338806 0.072828464 0.01605954 0.35118097 -0.20953718 0.5890604 -0.1739907
0.49609044 0.23400539 0.0025282113 -0.05568369 0.14848469 0.32258916 0.19936416 0.30199325
-0.19048733 -0.40367475 0.17684025 -0.14499216 -0.25326055 0.151666 -0.11012953 -0.05743842
0.57761216 0.15517719 0.50686437 0.17295645 0.06625121 -0.0728124 0.022965197 0.002075569
0.3333892 -0.1524832 0.28030905 -0.0012053393 0.014212189 -0.2937031 0.4101669 -0.11990792
00000000: fea1 1f3e 7ee8 24be 605a 8d3e 4100 cf3d
00000010: 04f7 c23d 2dd1 32bd d04c 57be f4f0 933e
00000020: 3838 393d 2870 85be 0891 0c3e 853b 8a3d
00000030: 4424 cd3d ca61 0b3f 3e47 a6be 16de 22be
00000040: a740 c33e b2e8 46bd c991 d03e 0a3e 713e
00000050: b84f cbbe 2a10 143f a1f3 ce3d a400 ecbd
00000060: a67d 5dbe 66ac 083f 1727 953d 4c8f 833c
00000070: fecd b33e ea90 56be aacc 163f 9e2a 32be
00000080: 91ff fd3e 1c9f 6f3e 59b0 253b 9514 64bd
00000090: 5f0c 183e 682a a53e 1e26 4c3e dc9e 9a3e
000000a0: 1c0f 43be 75ae cebe 9c15 353e d378 14be
000000b0: 5eab 81be 554e 1b3e 978b e1bd 8c44 6bbd
000000c0: 64de 133f c5e6 1e3e ddc1 013f 7f1b 313e
000000d0: b7ae 873d ab1e 95bd 8221 bc3c 4506 083b
000000e0: fdb1 aa3e 8e24 1cbe ab84 8f3e 7afc 9dba
000000f0: 3eda 683c 4160 96be 6501 d23e 4992 f5bd

fc2.weight f4 [64, 64]
0.040228847 -0.0061368784 0.17267695 0.26922792 0.5804082 0.45682585 0.015553451 0.36516464
-0.19140379 0.51462066 0.093227915 0.28035498 0.31696925 0.10085645 -0.3162671 0.05210654
0.15295362 -0.8715246 0.27005035 0.23570235 0.29272905 0.11923418 0.034552 0.04234683
-0.61319566 0.25998908 0.24597202 0.23813738 -0.03726999 0.39011902 0.3961625 0.002065441
0.38093585 -0.12129872 0.37107304 0.13436845 0.5060003 -0.10852411 0.36152956 0.021024968
-0.14553653 -0.26825586 0.2428721 -0.09700889 -0.050539803 0.16029106 0.13001609 0.13319618
0.3295967 0.41142693 0.04640933 0.33982965 -0.3276632 0.23739097 0.20538643 0.37904018
0.27245352 0.0016952157 0.03175117 0.6595394 0.12866391 -0.55899906 0.12743902 -0.7177109
0.014112953 0.20377935 0.4189197 0.29547158 0.4952754 0.17460829 0.13944814 0.3269232
-0.18999003 0.33893082 0.26588124 0.37502736 0.26940134 0.29875663 -0.37126294 0.24964252
0.07979066 -0.71963507 0.33691347 0.24084578 0.41270012 0.14402941 0.0465647 -0.12734205
-0.507409 0.1776612 0.16344531 0.15023902 -0.14150794 0.36282155 0.083237626 -0.021443913
0.4222065 0.08049677 0.25781772 0.42254823 0.2797406 -0.17656782 0.53810817 0.10057568
-0.21971177 -0.43362847 0.4239846 -0.019746933 0.040105473 0.22745694 0.31527606 -0.03458939
0.36355293 -0.02954072 0.04562193 0.33825463 -0.40093416 0.19369629 0.23657905 0.24288715
0.23075046 -0.0041266233 -0.031547796 0.6434516 0.29708812 -0.54549485 0.17899188 -0.53346467
0.0021527696 0.38803014 -0.032086935 0.25294748 -1.429124 1.0573537 0.40815493 0.38449103
-0.01658845 0.24516885 0.43017724 -0.27319416 0.15478878 -0.268394 0.09681661 -0.6597358
0.49201846 0.046954937 -0.47145435 0.42163837 -0.23395973 -0.19586155 0.2132443 0.5190366
0.019784564 0.3157606 0.26009792 0.7107197 0.025725307 0.33810347 0.3511116 0.19178997
-0.49002522 -0.4342382 0.36985552 -0.45721593 0.20907813 -0.37156048 -0.5194577 -0.049197335
-0.18287829 0.24130972 -0.30516377 -0.29963523 -0.38301408 -0.502533 -0.29506466 0.3208035
-0.11738882 0.47147956 -0.2203148 0.11078052 -0.0781342 0.07325437 -0.4325699 0.16836886
0.3733515 -0.12285964 0.046831053 1.3081856 -0.46634325 -0.14194153 0.0013042125 -0.718757
-0.059752204 -0.0058398573 -0.086242825 -0.10690329 0.07944207 -0.06292714 -0.053185526 -0.013621717
-0.024900198 -0.104411855 0.02051253 0.03159143 -0.009361731 -0.036436256 0.07409703 -0.13764982
-0.1002285 0.06586343 -0.09273069 0.033978038 0.09507658 -0.0385587 0.0620393 -0.0933775
0.038566813 0.03043757 -0.08014677 -0.06965819 -0.12466593 -0.017738186 -0.013161435 -0.018499488
0.07866682 -0.12005247 0.08684371 -0.032241978 -0.11742052 -0.1126345 0.012300715 -0.103118695
-0.04826332 0.036654208 -0.040663328 0.08510778 -0.032953415 0.064193025 -0.12679256 -0.04229934
-0.019112153 0.038257897 -0.08337769 -0.010620867 -0.1390793 0.060118094 -0.11729247 -0.13079481
-0.0044772476 -0.074710965 0.028572787 0.10830487 -0.046405688 0.050087743 0.09868438 -0.047530323
00000000: 01c7 243d de17 c9bb 3ad2 303e 3ed8 893e
00000010: a295 143f 14e5 e93e e7d3 7e3c dcf6 ba3e
00000020: 5bff 43be 2ebe 033f 47ee be3d b08a 8f3e
00000030: cb49 a23e d48d ce3d c3ed a1be ab6d 553d
00000040: e09f 1c3e 3c1c 5fbf 0a44 8a3e f55b 713e
00000050: 95e0 953e 0d31 f43d 6686 0d3d df73 2d3d
00000060: 64fa 1cbf 4a1d 853e 17e0 7b3e 49da 733e
00000070: 6ba8 18bd aebd c73e d0d5 ca3e 5a5c 073b
00000080: 060a c33e 776b f8bd 49fd bd3e e297 093e
00000090: 3c89 013f e341 debd 671a b93e 8e3c ac3c
000000a0: 8707 15be d558 89be 77b3 783e 99ac c6bd
000000b0: d302 4fbd 5723 243e f022 053e 9464 083e
000000c0: e6c0 a83e 8da6 d23e b617 3e3d 27fe ad3e
000000d0: 79c3 a7be 9e16 733e d250 523e 8e11 c23e
000000e0: 077f 8b3e 0032 de3a 840d 023d 93d7 283f
000000f0: 79c0 033e 901a 0fbf 607f 023e e7bb 37bf
00000100: 043a 673c 89ab 503e a57c d63e 0d48 973e
00000110: bd94 fd3e 84cc 323e 7ecb 0e3e 7a62 a73e
00000120: bf8c 42be 5788 ad3e 9621 883e 9603 c03e
00000130: f9ee 893e a1f6 983e 2d16 bebe 4aa2 7f3e
00000140: 4969 a33d 013a 38bf ec7f ac3e 47a0 763e
00000150: 6e4d d33e 727c 133e a0ba 3e3d f465 02be
00000160: 8ee5 01bf d1ec 353e 355e 273e 42d8 193e
00000170: 75e7 10be bfc3 b93e 7d78 aa3d 25ab afbc
00000180: 732b d83e 7edb a43d af00 843e 3e58 d83e
00000190: 293a 8f3e 32ce 34be 75c1 093f 9ffa cd3d
000001a0: 1ffc 60be 8d04 debe 8214 d93e 52c4 a1bc
000001b0: a345 243d 79ea 683e dd6b a13e 9bad 0dbd
000001c0: 9c23 ba3e 61ff f1bc 10de 3a3d b62f ad3e
000001d0: 3e47 cdbe 5258 463e c741 723e 69b7 783e
000001e0: d949 6c3e a038 87bb 4338 01bd 3eb9 243f
000001f0: ef1b 983e 8da5 0bbf a649 373e 2491 08bf
00000200: 7b15 0d3b e3ab c63e 976d 03bd 5582 813e
00000210: 89ed b6bf 5e57 873f aff9 d03e 02dc c43e
00000220: 80e4 87bc 8b0d 7b3e 3140 dc3e 1be0 8bbe
00000230: f380 1e3e f06a 89be c947 c63d 72e4 28bf
00000240: d8e9 fb3e d253 403d 7762 f1be fce0 d73e
00000250: 2493 6fbe ee8f 48be b75c 5a3e 95df 043f
00000260: 3d13 a23c 60ab a13e 8e2b 853e baf1 353f
00000270: e1bd d23c e61b ad3e e6c4 b33e 9764 443e
00000280: 96e4 fabe 7854 debe b45d bd3e 3518 eabe
00000290: 9418 563e 2d3d bebe 2efb 04bf 2583 49bd
000002a0: 7244 3bbe e519 773e 6d3e 9cbe ca69 99be
000002b0: 6c1a c4be 01a6 00bf b712 97be 5b40 a43e
000002c0: 8d69 f0bd c565 f13e 349a 61be e6e0 e23d
000002d0: d304 a0bd 6306 963d cd79 ddbe e368 2c3e
000002e0: ee27 bf3e d69d fbbd ebd1 3f3d a072 a73f
000002f0: 8bc4 eebe 1f59 11be 1cf2 aa3a 7500 38bf
00000300: babe 74bd 465c bfbb 14a0 b0bd 1df0 dabd
00000310: 86b2 a23d f2df 80bd 11d9 59bd 9f2d 5fbc
00000320: 80fb cbbc e2d5 d5bd e509 a83c 0466 013d
00000330: f261 19bc 2f3e 15bd 2fc0 973d 13f4 0cbe
00000340: 9a44 cdbd 68e3 863d 97e9 bdbd 8e2c 0b3d
00000350: 83b7 c23d baef 1dbd ec1c 7e3d b43c bfbd
00000360: 3cf8 1d3d 3658 f93c fd23 a4bd f4a8 8ebd
00000370: da50 ffbd ac4f 91bc 0fa3 57bc 3d8c 97bc
00000380: 121c a13d 12de f5bd 1ddb b13d 2a10 04bd
00000390: 2b7a f0bd ebac e6bd f088 493c e52f d3bd
000003a0: c2af 45bd b922 163d 978e 26bd fd4c ae3d
000003b0: 29fa 06bd a277 833d e9d5 01be 1342 2dbd
000003c0: 1791 9cbc 50b4 1c3d ecc1 aabd 2503 2ebc
000003d0: ce6a 0ebe 643e 763d 0937 f0bd 13ef 05be
000003e0: e0b5 92bb 1002 99bd 7a11 ea3c f2ce dd3d
000003f0: e413 3ebd ce28 4d3d 091b ca3d 28af 42bd

fc2.bias f4 [64]
0.33855397 0.25767717 0.10142407 -0.111274354 -0.090541735 0.25440645 -0.09959994 -0.09473303
0.15515766 -0.11448279 -0.01378365 0.5747216 0.52485603 0.11009952 0.036255307 0.013083305
-0.093597844 -0.10086438 -0.027611386 0.2386913 0.5903883 0.41464812 0.4731953 -0.31148186
0.5087089 -0.12608853 0.29118338 0.34729525 0.41385522 0.05492844 0.4533079 -0.05348985
0.5119957 -0.085850954 0.3040647 0.031007024 0.34175918 0.21081384 0.08925541 0.07858306
0.3189943 0.01682795 0.17006095 -0.09200534 0.008147837 0.21503422 0.44976604 -0.06545444
-0.13744512 0.48076168 0.30126008 -0.07579598 0.2682565 0.06790277 -0.12908822 -0.07927744
-0.08186682 0.22686833 0.09808693 0.23825258 -0.11980244 0.63467175 0.12926933 0.49001387
00000000: f256 ad3e 43ee 833e 6cb7 cf3d cfe3 e3bd
00000010: f26d b9bd 9041 823e 0efb cbbd 6403 c2bd
00000020: a6e1 1e3e f475 eabd d1d4 61bc f420 133f
00000030: f75c 063f db7b e13d 7280 143d 5c5b 563c
00000040: 3ab0 bfbd fc91 cebd 4631 e2bc 7e6b 743e
00000050: b023 173f c24c d43e a846 f23e 8d7a 9fbe
00000060: bf3a 023f 5a1d 01be fd15 953e afd0 b13e
00000070: d5e4 d33e a5fc 603d f917 e83e 2c18 5bbd
00000080: 2612 033f a0d2 afbd 5eae 9b3e 7102 fe3c
00000090: 0ffb ae3e 95df 573e 8acb b63d 28f0 a03d
000000a0: 3953 a33e c5da 893c 7524 2e3e 4c6d bcbd
000000b0: 817e 053c ee31 5c3e bc47 e63e fa0c 86bd
000000c0: 6abe 0cbe 6526 f63e c33e 9a3e ec3a 9bbd
000000d0: ea58 893e 9c10 8b3d b42f 04be 365c a2bd
000000e0: cba9 a7bd 2c50 683e cde1 c83d 7cf8 733e
000000f0: fb5a f5bd d979 223f 2e5f 043e 19e3 fa3e

fc3.weight f4 [3, 64]
0.40282804 0.39970556 0.1757085 -0.12426339 -0.054373935 -0.042217527 -0.56184506 -0.72190785
0.18950903 -0.08395572 0.25606284 0.30076906 0.251044 0.28473097 -1.0954844 0.14477463
-0.06576312 -0.25115594 -0.41109094 0.33814132 0.36934194 0.33795857 0.30516726 -0.36251864
0.33110335 -0.19883136 0.3184354 0.30031008 0.32963786 0.03108496 0.4423388 0.0054085534
0.32376888 -0.079426154 0.5261643 -0.023427859 0.32263067 0.32576275 0.036538478 0.059038896
0.38978416 0.06870702 0.21481322 -0.11528717 -0.11491397 0.35661635 0.2251851 0.11236365
0.05598822 0.36951566 0.011785524 -0.012567553 -0.75700814 -1.0754114 -0.011004942 0.1171291
-0.1292133 0.33696657 0.12149818 0.106402114 -0.0031677336 0.32144156 -0.23295979 0.3996234
-0.13582082 0.0055905785 -1.0585006 0.03324908 -0.11390291 0.37316737 0.17848179 -0.16915278
-0.75896 -0.037191648 0.51516926 0.46706066 0.6375347 0.16948268 0.3904747 0.012748793
0.025471207 -0.27109113 -0.016415825 -0.0007342626 0.45010972 0.14492986 0.6300381 -0.23646288
0.5233581 -0.10913511 0.114049084 -0.00011755111 -0.03914697 -0.20287576 0.0633921 -0.065663464
0.541273 0.086284414 0.46326795 0.02323614 0.1997743 0.035163093 -0.635637 0.25726628
-0.0155659905 0.041285016 0.50208056 0.06883563 0.3680902 0.15508726 0.49524397 -0.045801476
-0.04569336 0.55550486 0.5530598 0.015958434 1.0777525 0.13286795 -0.058380574 -0.019674795
-0.054974884 -0.03200079 -1.7415155 -0.20846166 0.08304685 0.5445372 0.07438002 0.32718772
0.012365263 -0.19585994 0.433502 -0.062414233 0.1180747 0.22552316 0.28848213 0.075378045
0.36902654 -0.10748035 -0.48437142 0.42499682 0.22091842 -0.48824266 -0.017241443 -0.102137074
0.031255394 0.30184913 -0.2422621 -0.08909138 0.5555093 0.559386 0.32390597 -0.29801616
0.41727808 0.3759895 0.56952316 0.438555 0.26220134 0.037806172 0.3913224 0.005249137
0.6300448 0.041760743 -0.15101303 -0.056968622 0.6654129 -0.39394492 -0.50522685 -0.5367717
-0.19112664 -0.08641659 -1.3130606 0.12419337 -0.1511214 -0.43689945 0.23564932 -0.072567806
0.050612204 0.4181324 0.06665161 -0.012075608 1.3250906 0.09547384 -0.0042470787 -0.021799818
-0.47606957 0.37350827 0.21737501 0.71942616 -0.09159329 0.32231903 0.47202864 0.5872767
00000000: 7a3f ce3e 35a6 cc3e eeec 333e ce7d febd
00000010: 34b7 5ebd 49ec 2cbd 14d5 0fbf f4ce 38bf
00000020: a80e 423e faf0 abbd ab1a 833e 67fe 993e
00000030: d788 803e 42c8 913e d538 8cbf cd3f 143e
00000040: d1ae 86bd 8397 80be 837a d2be dc20 ad3e
00000050: 631a bd3e e808 ad3e e23e 9c3e 0b9c b9be
00000060: 6186 a93e 739a 4bbe f709 a33e 3ec2 993e
00000070: 4bc6 a83e e3a5 fe3c 3b7a e23e 3c3a b13b
00000080: 09c5 a53e 2eaa a2bd b4b2 063f c8eb bfbc
00000090: d92f a53e 60ca a63e 5fa9 153d c5d2 713d
000000a0: ca91 c73e 44b6 8c3d fff7 5b3e ae1b ecbd
000000b0: 0458 ebbd 6b96 b63e ec96 663e ea1e e63d
000000c0: e753 653d 2831 bd3e 1218 413c 23e8 4dbc
000000d0: 49cb 41bf 15a7 89bf 124e 34bc 62e1 ef3d
000000e0: 7e50 04be e286 ac3e 0ad4 f83d 5ae9 d93d
000000f0: c099 4fbb fd93 a43e 038d 6ebe 709b cc3e
00000100: 9d14 0bbe 2c31 b73b f37c 87bf 3030 083d
00000110: ee45 e9bd cb0f bf3e eec3 363e 6336 2dbe
00000120: 344b 42bf 4556 18bd 22e2 033f 9322 ef3e
00000130: 7935 233f de8c 2d3e 4dec c73e 50e0 503c
00000140: fea8 d03c 75cc 8abe 7b7a 86bc 877b 40ba
00000150: c874 e63e 7e68 143e 2d4a 213f 5323 72be
00000160: ccfa 053f 3b82 dfbd 9192 e93d c685 f6b8
00000170: 9358 20bd aabe 4fbe b8d3 813d 917a 86bd
00000180: de90 0a3f e2b5 b03d 7531 ed3e b859 be3c
00000190: a291 4c3e 2d07 103d 1bb9 22bf 68b8 833e
000001a0: 7f08 7fbc 7a1a 293d 5a88 003f b2f9 8c3d
000001b0: 5276 bc3e 32cf 1e3e 9e90 fd3e 549a 3bbd
000001c0: f628 3bbd 9135 0e3f 5495 0d3f 43bb 823c
000001d0: cbf3 893f 890e 083e 7820 6fbd 092d a1bc
000001e0: 582d 61bd 4313 03bd fbe9 debf f976 55be
000001f0: 7814 aa3d ca66 0b3f 8d54 983d 2685 a73e
00000200: ac97 4a3c 828f 48be f9f3 dd3e 11a6 7fbd
00000210: 26d1 f13d 8bef 663e eeb3 933e ce5f 9a3d
00000220: 0cf1 bc3e a81e dcbd 88ff f7be 2f99 d93e
00000230: 7038 623e f1fa f9be ed3d 8dbc 3e2d d1bd
00000240: a805 003d f88b 9a3e 8e13 78be 8b75 b6bd
00000250: dc35 0e3f ec33 0f3f 01d7 a53e 9395 98be
00000260: 79a5 d53e b281 c03e 45cc 113f 488a e03e
00000270: 413f 863e a5da 1a3d 695b c83e f400 ac3b
00000280: 9e4a 213f 500d 2b3d 29a3 1abe ee57 69bd
00000290: 8058 2a3f 26b3 c9be 8c56 01bf df69 09bf
000002a0: b4b6 43be 2efb b0bd 5f12 a8bf 1859 fe3d
000002b0: 91bf 1abe 49b1 dfbe 0e4e 713e 6e9e 94bd
000002c0: be4e 4f3d 7315 d63e a480 883d c5d8 45bc
000002d0: 929c a93f ca87 c33d 142b 8bbb 8895 b2bc
000002e0: 64bf f3be 7a3c bf3e 8e97 5e3e 502c 383f
000002f0: 4395 bbbd 0007 a53e bdad f13e c457 163f

fc3.bias f4 [3]
0.25454706 0.2992392 0.23456758
00000000: fe53 823e e135 993e 7c32 703e
