SnakeV3/snake_model_episode_400.pth (torch, 23336 bytes, 6 tensors)

fc1.weight f4 [64, 11]
000000 aa f2 34 3f b3 c1 b0 3e 2f ae ac 3e 6e 19 9f 3e
       0.70682776 0.3452278 0.33726642 0.3107409
000010 7d e0 ac be db 17 54 3e 6a 90 97 3e bd f1 05 bf
       -0.3376502 0.20712225 0.29602367 -0.5232199
000020 4d b0 4a be c8 46 29 bf 33 aa 8a be 86 c5 18 3f
       -0.19793816 -0.6612363 -0.27082977 0.59676397
000030 94 8e 73 3f c9 bf 12 3f 74 08 19 bf d4 c7 aa bf
       0.9513943 0.5732389 -0.59778523 -1.3342233
000040 75 2f 8f be 78 a3 96 bf c1 6c cd 3e c5 2b e0 bd
       -0.27965894 -1.1768637 0.40122035 -0.109458484
000050 62 79 b9 3e 5d 7d d0 bd 81 6b 3e bf e0 b6 b3 3e
       0.3622542 -0.10180161 -0.7438279 0.3510046
000060 d5 54 e3 be a9 db 75 bf c3 13 bc 3e 05 7a 3d 3f
       -0.4440066 -0.960383 0.36733827 0.7401431
000070 3b dc 4a 3e 35 c2 47 bf 86 45 10 3f db b0 b0 3e
       0.19810574 -0.7803071 0.56356084 0.3450993
000080 90 40 55 bf 80 da f9 be 62 fa 09 3f 09 b0 10 3f
       -0.8330164 -0.48799515 0.5389768 0.5651861
000090 9c be d0 3e 64 ad 13 be 18 00 c7 bd 0f 02 85 bc
       0.40770423 -0.14421612 -0.09716815 -0.016236333
0000a0 67 4b f4 bd 33 d5 08 3f f6 69 01 bf 0e 09 13 bf
       -0.11928444 0.53450316 -0.5055231 -0.5743569
0000b0 e2 ae 91 be 5f c0 a5 3e 0a af 91 3e 18 58 1c 3f
       -0.28453737 0.3237333 0.28453857 0.6107192
0000c0 7e 59 9f bf e3 fe 0a 3e 31 62 9f bf b6 56 05 3f
       -1.2449186 0.13573794 -1.2451841 0.52085435
0000d0 72 13 12 bf 2f 96 8a bf 8a 09 e1 bf 2b 3b 58 be
       -0.5706092 -1.0827082 -1.7581036 -0.21116321
0000e0 91 9e 62 bf ed 73 e2 3f 03 b1 e1 3d 07 39 4a bf
       -0.88523203 1.7691628 0.110200904 -0.78993267
0000f0 ac 2c d0 3d e3 36 a9 be 18 6a 99 3d fb 7c 4a 3e
       0.101647705 -0.33049688 0.07490939 0.19774239
000100 de 7c cc 3e cc a5 40 be 85 a5 4a 3f fc b4 d2 3e
       0.39939016 -0.18813246 0.7915881 0.41153705
000110 5d 63 32 3e 08 78 0e bf 07 6e 57 bb d2 2e 2b bf
       0.17420717 -0.55651903 -0.0032871978 -0.6686832
000120 6c 23 2b bf e3 e1 c0 bd ba 6d 35 38 36 ab c3 3e
       -0.66850924 -0.094180845 4.3255954e-05 0.3821656
000130 5b 63 25 3e 69 41 f1 be bb 34 30 bf 84 34 6e bc
       0.16151182 -0.47120216 -0.6883046 -0.014538888
000140 ab 41 be be 7e 64 81 3e 9a d0 21 be be 60 3d 3f
       -0.37159476 0.25271982 -0.15802231 0.7397574
000150 09 58 ba 3e 30 5b c0 3d 92 69 fe be cc 7a 8a 3e
       0.3639529 0.09392393 -0.4968992 0.27046812
000160 09 ed 29 be 4b cf 8d bf 1e 6b e7 3e 40 44 af bb
       -0.16594328 -1.1078886 0.4519891 -0.005348712
000170 9d 99 66 be ff 0d 03 3f 86 0a 15 3f 2c ff b9 3e
       -0.22519536 0.5119323 0.5821918 0.36327493
000180 22 ed 23 3e a4 7a 4f be 89 41 97 be 19 4a 20 bf
       0.16008428 -0.20261627 -0.29542187 -0.62613064
000190 e0 21 99 bb e7 b9 01 bf 05 0a 59 bf 9e ed de be
       -0.0046732277 -0.5067429 -0.84780914 -0.43540663
0001a0 62 b5 61 bf 53 49 1c 3f 19 a3 d2 bf 16 63 46 bf
       -0.88167393 0.61049384 -1.6456023 -0.77494943
0001b0 9b da 2f bf 6a d0 53 3f 64 ac 58 3f fb b1 a3 3e
       -0.6869294 0.8273989 0.8463805 0.31971726
0001c0 80 f5 90 3e b3 d0 1a 3e a8 6b 70 3e 76 d6 fe be
       0.28312302 0.15118675 0.23478568 -0.49772996
0001d0 40 a7 8d be e1 5d 9c be 25 c3 c3 be a6 6d 8b be
       -0.27666664 -0.30540374 -0.3823482 -0.27232093
0001e0 c3 cd b4 be 19 53 2e 3e b8 d3 69 3f 84 23 f6 3d
       -0.35313234 0.17023887 0.9133868 0.12018493
0001f0 8e 5a d9 be 11 99 ad 3e 46 23 4e bf a9 60 f2 3d
       -0.424519 0.33905843 -0.80522573 0.11834843
000200 ef 2f b5 be 74 13 9f bf 1a aa a8 be b3 34 29 bf
       -0.35388133 -1.2427812 -0.32942277 -0.6609604
000210 40 94 ee be 17 e5 4e 3f 69 bd 45 3f d2 f2 d1 bd
       -0.4659748 0.80818313 0.7724214 -0.102513924
000220 e1 68 b4 bf ed cd 32 3e bd f0 26 bf 16 24 ec be
       -1.4094507 0.17461367 -0.6521109 -0.4612128
000230 54 e8 43 be c7 91 33 bf 81 9e ac 3e a8 8d 1c be
       -0.19131595 -0.70144314 0.3371468 -0.15288413
000240 5c 74 05 3f 99 fa 84 bf 44 64 ae 3d c2 7a d8 3e
       0.52130675 -1.0388976 0.08515218 0.42281157
000250 1f c9 e9 3e 87 d7 1e 3f b4 61 46 bd 09 cf f2 be
       0.45661256 0.6204762 -0.04843302 -0.4742358
000260 75 1f fe be 0b fb 08 3d f3 48 95 3f 06 f6 e2 3b
       -0.49633375 0.03344254 1.1662887 0.006926301
000270 c6 db 30 bd 79 b4 14 be f9 96 db bd d4 a0 5f bf
       -0.043178342 -0.1452197 -0.10722155 -0.8735478
000280 2e aa ee be 33 7e 3d be ef 65 1e 3c d3 3c 50 3e
       -0.46614212 -0.18505172 0.009667858 0.20335703
000290 84 8b e0 3e 7f e3 ca 3e fd cc 25 3f 18 94 f7 3e
       0.43856442 0.3962669 0.6476591 0.48355174
0002a0 4c 9f 23 bf 0b 97 41 bf 84 29 b3 3d fb 23 c8 bf
       -0.6391494 -0.756211 0.08748153 -1.563598
0002b0 6e 47 23 bf dd 1d 5c bf e5 df 4b bf dd d4 1f 3f
       -0.6378087 -0.8598307 -0.7963851 0.6243418
0002c0 e5 f3 da 3c 3b fe a0 be 99 84 29 3f ed bf b2 be
       0.026727626 -0.31443962 0.6621795 -0.34912053
0002d0 24 53 1c 3d d5 b1 f3 bd d1 02 8e be 43 94 98 bd
       0.038165227 -0.11899153 -0.27736524 -0.07450154
0002e0 e5 22 81 be e5 3b 28 be dc ce 74 3e 6d 57 85 3f
       -0.25221935 -0.16429098 0.23907036 1.0417305
0002f0 bb 2b 5d be 52 ab bd 3e 97 bb e0 be 61 bb 5d bd
       -0.21598713 0.3704477 -0.4389312 -0.054133777
000300 31 13 c9 3e 3e 08 28 3f 4a 64 da 3e e3 c6 f3 3c
       0.39272454 0.65637577 0.4265464 0.029757923
000310 50 82 b8 be 8d 44 98 bf 71 07 5d bf af b8 0f 3f
       -0.3603692 -1.189592 -0.8633948 0.5614118
000320 48 35 c4 bf 89 2d b9 3e 77 7d 10 3d ae ae 20 3d
       -1.532876 0.36167553 0.035275903 0.039229088
000330 a1 40 80 3e b5 54 09 3e be e3 af 3e 4a 12 0c 3e
       0.25049308 0.1341122 0.3435344 0.13678852
000340 9f 07 47 3d 76 86 76 3e 6c c6 3f 3c c6 0a 2f 3f
       0.048591252 0.2407473 0.011705022 0.68375814
000350 8f 79 15 bf eb 5e 81 3d 90 84 89 bd 66 f2 20 3f
       -0.5838861 0.06316932 -0.067147374 0.6286987
000360 3c ad 44 be 6b 77 94 3e 93 89 3e bf a6 0d 0d bf
       -0.19206709 0.2899736 -0.7442867 -0.5509895
000370 78 37 65 3f 17 c9 10 3f 33 e3 33 bf 70 04 c9 bf
       0.89537764 0.5655684 -0.70268553 -1.5704479
000380 af 0e 0d be cb fc a6 be e9 26 62 be 2a a9 26 bf
       -0.13775133 -0.3261474 -0.22085156 -0.65101874
000390 62 f9 70 3d a3 e6 0c 3f 8f 64 d4 3d 20 5e c2 3c
       0.05883158 0.55039424 0.103707425 0.023726523
0003a0 5c 0b 09 bf e7 30 50 bf 9f 6c b4 3e c4 c4 ae 3e
       -0.5353296 -0.8132462 0.3523912 0.34134495
0003b0 06 c1 c2 3e ba e1 a2 3e 44 a8 8f 3e 29 57 81 3d
       0.3803789 0.3181284 0.28058064 0.063154526
0003c0 29 b2 d4 3e ac f8 83 3e 08 f4 fc be 50 d2 92 be
       0.41542175 0.2577566 -0.4940493 -0.2867608
0003d0 09 43 9f be 9f 90 33 bf a2 93 38 3f a7 14 33 bd
       -0.3110583 -0.7014255 0.7210027 -0.043720867
0003e0 0b 98 15 3f 92 24 07 bd d4 0e 14 3d 3a 6e 8a 3e
       0.58435124 -0.03299386 0.036146954 0.2703722
0003f0 0f eb bf be b5 56 8c 3f 89 19 52 bf de cb 5b 3f
       -0.37484023 1.0963961 -0.82070214 0.8585795

fc1.bias f4 [64]
000000 d9 24 e5 bd 47 70 8a be 46 ef ad 3e d0 4f fc 3c
       -0.11188669 -0.27038786 0.33971614 0.030799776
000010 df 8d ea bd 13 e6 83 bc 68 5f 09 bf 5e db c1 3d
       -0.11452841 -0.016100919 -0.53661203 0.09465669
000020 84 67 99 bd 3e 99 b4 bd 87 c5 75 be 9b b5 c0 3c
       -0.07490447 -0.08818291 -0.24001132 0.023524096
000030 cf 37 fd bc e0 18 11 3f b2 b9 0f bf 49 b7 cb be
       -0.0309104 0.5667858 -0.56142724 -0.39788273
000040 10 7d 03 3d 33 a3 0d be c5 b3 cb 3e 71 ed 5d 3e
       0.03210169 -0.13831787 0.3978559 0.21672608
000050 6c c3 12 bf 47 de 3e 3f bd 33 c7 3e 3f aa 3e be
       -0.5732944 0.7455792 0.3890666 -0.18619631
000060 ca 0a be be 7a 83 1f 3f a1 9b 6e be ec b0 f2 bd
       -0.37117606 0.6230999 -0.23301555 -0.118501514
000070 a9 ab e7 3e ba 54 84 be ab e9 43 3f af a1 31 bf
       0.45248154 -0.2584589 0.76528424 -0.69387335
000080 9b e8 13 3f b8 cf 19 3d df 09 79 be a9 1b 8a be
       0.577768 0.03755161 -0.24320172 -0.26974228
000090 d9 d0 a2 3e fd ed 46 3e 17 d9 71 3d 06 6d 73 3e
       0.31799963 0.19426723 0.059044924 0.23772058
0000a0 74 ae c9 bd 24 23 36 bf 8f c4 42 3e 54 de af be
       -0.098477274 -0.7114737 0.19020294 -0.3434931
0000b0 a4 09 d4 be 87 b8 c4 3d 3f 0a a0 bd 10 f5 fc be
       -0.41413605 0.09605508 -0.07814454 -0.49405718
0000c0 05 20 46 3f a9 59 84 3e 81 cf 15 3f 1c 63 ee 3d
       0.7739261 0.25849655 0.5851975 0.11639997
0000d0 11 55 5b be 29 c1 51 be 12 b6 b9 3d 8a 63 21 bd
       -0.21419169 -0.20483841 0.0906793 -0.03940157
0000e0 4d 6e c1 3e 8e 24 1c be 67 62 a4 be 61 17 80 bd
       0.37779465 -0.1524832 -0.32106325 -0.06254459
0000f0 86 17 c0 3d 25 a0 dd be 35 d9 a1 3e 6c de b2 3d
       0.09379487 -0.43286243 0.31611028 0.0873383

fc2.weight f4 [64, 64]
000000 94 36 06 bf 5d e8 99 3d 37 65 8a 3e 27 6f 91 3e
       -0.5242703 0.07515023 0.27030346 0.28405115
000010 18 d2 45 3f 75 db 0d 3f 15 e9 ec 3e 63 14 9d 3e
       0.772737 0.5541299 0.46271577 0.30679616
000020 b5 ec d1 be a2 7e 45 3f 32 de 2a 3e 0b ac ea 3e
       -0.41000906 0.7714635 0.16686323 0.45834383
000030 d1 9e b5 3e ea 9b 74 3d 89 9d 72 be a0 71 66 bd
       0.3547273 0.059719004 -0.23692907 -0.056260705
000040 b6 13 6d bd f1 e9 9b bf ef e4 3f 3d 11 c8 80 3d
       -0.057880126 -1.2180768 0.046849187 0.0628816
000050 1f 11 76 3f 43 58 7d 3a 44 c7 1b be 65 48 66 3e
       0.96119875 0.0009664336 -0.15212733 0.22488554
000060 81 8e 83 bf bd 17 24 3e 96 d2 fb 3d 66 70 97 3e
       -1.0277864 0.1602468 0.122960255 0.2957794
000070 b0 15 35 be 4a 58 00 3f 74 2f f3 3e 49 64 35 3f
       -0.17684054 0.5013472 0.4749714 0.7085615
000080 00 7c bb 3e 65 1f 4f 3d 20 32 fc 3d c2 08 33 3e
       0.36618042 0.05056705 0.12314248 0.1748381
000090 a8 91 0b 3f 04 66 09 bf 83 8a 32 3e 81 39 6e be
       0.5451913 -0.5367129 0.1743565 -0.23264123
0000a0 1a 67 a4 3e 27 e1 27 bf 77 46 bd 3e d5 93 33 bf
       0.3210991 -0.6557793 0.36967823 -0.7014745
0000b0 60 5c 82 3b 0b 0b 28 bd 84 07 23 3e 31 48 5f 3e
       0.003978297 -0.041026156 0.15920836 0.21804883
0000c0 9c d8 a2 3e 84 cc 24 3e dc 3b 27 be e4 96 f1 3e
       0.31805885 0.16093642 -0.16331428 0.47185433
0000d0 d0 50 17 bf c7 4c 87 3e 4e 32 b3 3d 24 56 20 3f
       -0.59107685 0.26425764 0.08749829 0.6263144
0000e0 ab d9 be 3d 00 32 de 3a 21 77 81 be b8 65 3a 3f
       0.093188606 0.0016952157 -0.252862 0.7281146
0000f0 6f 8a 83 bd fa 0f e0 bf c8 62 65 be 9b 9f 70 bf
       -0.064228885 -1.7504876 -0.22400963 -0.9399354
000100 31 49 d3 3d a3 6d 9e 3e 4e 41 09 3f 00 92 c2 3e
       0.103166945 0.3094302 0.5361527 0.38002014
000110 1f a9 3f 3f 20 b4 71 3e a6 f2 fe 3e 3e 0c 61 3e
       0.74867433 0.23603868 0.497945 0.21977326
000120 6b f9 72 be a8 ed 1a 3f 28 eb 8a 3e fb 2b 06 3f
       -0.23727958 0.60518885 0.27132535 0.5241086
000130 d1 2a ca 3e 1f 84 8f 3e c4 7b 0a bf 28 78 c7 3e
       0.3948579 0.28030488 -0.540951 0.3895886
000140 ab 61 ca bd 69 36 4a bf c7 cc 1e 3e a8 d1 9f 3e
       -0.0988191 -0.78989273 0.15507804 0.31214643
000150 76 d2 24 3f 7c 03 a8 3d 66 37 cf bd 9e 23 00 3e
       0.6438364 0.082037896 -0.10117988 0.12513587
000160 c9 8e 33 bf 4b cf 23 3e ea 95 fe 3e 45 75 8d 3e
       -0.7013975 0.15997045 0.4972375 0.27628532
000170 c0 43 23 be a1 e7 f5 3e 06 59 59 3e 1a 2e 7d 3e
       -0.15943813 0.4802828 0.21225366 0.24724618
000180 de 99 04 3f 18 61 3a 3e 82 48 74 3e f1 94 0b 3f
       0.5179728 0.18201101 0.23855785 0.5452414
000190 00 9b ac 3e 1f ad ef be 8c b0 fd 3d 81 8e 55 bd
       0.33712006 -0.46811768 0.12387189 -0.052137855
0001a0 4a c0 96 3e 85 59 40 bf 83 23 19 3f 13 76 25 bc
       0.2944358 -0.75136596 0.5981981 -0.010098952
0001b0 b5 30 07 3e 37 e2 8d 3d 14 be ca 3e c1 e7 de 3d
       0.13202174 0.06927913 0.39598143 0.10884047
0001c0 a6 6d e1 3e e4 c2 85 bd 85 05 50 be ca e2 0a 3f
       0.44028968 -0.06531313 -0.20314606 0.542523
0001d0 2c 44 a2 be 16 a4 78 3e 2a dd cb 3d a7 05 cb 3e
       -0.31692636 0.24281344 0.09954293 0.3965275
0001e0 30 f1 b6 3d a0 38 87 bb c7 50 be 3c 42 33 59 3f
       0.089327216 -0.0041266233 0.023231877 0.8484384
0001f0 36 b3 6a 3e e7 8d 3e bf 47 62 ee 3d 07 7e 90 be
       0.22919926 -0.74435276 0.11639839 -0.2822115
000200 7a 37 72 be e8 d4 2e 3f 37 91 49 be 18 ca 1c 3f
       -0.23653975 0.6829362 -0.19684301 0.6124587
000210 1d 9b 5d bf 90 66 9d 3f a4 fb 69 3f c7 a9 38 3f
       -0.8656481 1.2296925 0.913996 0.7213406
000220 75 47 de 3d a4 b4 f5 be 65 63 3b 3d 93 dc 07 bf
       0.10853473 -0.4798938 0.045749087 -0.53070945
000230 af 10 c9 3e e7 be c3 bd 25 75 be 3e ca 5c 0a bf
       0.3927054 -0.09557896 0.3719875 -0.54047835
000240 1f 55 19 3f 74 fa 16 be 72 2f c4 bf 51 46 4e 3f
       0.5989551 -0.14743978 -1.5326979 0.80576044
000250 43 31 cb 3e 1e 93 4a be 2d 54 fe bd a5 d1 09 3f
       0.3968602 -0.19782683 -0.12418399 0.5383552
000260 71 62 2c bf 25 6b 93 3e 47 fa 3e be 13 0c 7b 3f
       -0.6733771 0.28792682 -0.1865016 0.980653
000270 d4 4a 07 3e bb 39 0d 3f ba e1 f6 3e 2b a5 ba 3e
       0.13212138 0.55166215 0.4821909 0.36454138
000280 26 68 49 bf 70 fb 15 bf f2 9d 00 3f 8b dc ab be
       -0.7867454 -0.5858679 0.50241005 -0.33566698
000290 79 0d c4 3e cf f8 3e bf 36 21 fe be 43 d9 28 bd
       0.3829153 -0.745984 -0.49634713 -0.041222822
0002a0 cb c8 fb be 1e 7a 51 bd 4a c3 39 3e 9b 68 b3 bf
       -0.4917663 -0.05114185 0.18140903 -1.4016298
0002b0 68 6a 54 bf 1a 8a eb be 70 bb ff be ea 72 1d 3e
       -0.82974863 -0.460038 -0.4994769 0.15375867
0002c0 ba fe 08 bd a6 07 19 3f a1 a5 ea 3d c3 0d 14 3d
       -0.03344605 0.59777296 0.114573725 0.036145937
0002d0 0b 3c 1c be 3e f7 fa 3c 27 c4 1a bf 83 0e a6 bd
       -0.1525728 0.030635472 -0.60455555 -0.08108237
0002e0 6b a2 45 3e d6 9d fb bd f6 2c 4f be ed 1c af 3f
       0.19300239 -0.12285964 -0.20231995 1.3680702
0002f0 f9 9f f1 bf 08 17 3d 3e 03 1c df be df ea a9 bf
       -1.8876945 0.18465817 -0.4357606 -1.3274802
000300 ba be 74 bd 46 5c bf bb 14 a0 b0 bd 1d f0 da bd
       -0.059752204 -0.0058398573 -0.086242825 -0.10690329
000310 86 b2 a2 3d f2 df 80 bd 11 d9 59 bd 9f 2d 5f bc
       0.07944207 -0.06292714 -0.053185526 -0.013621717
000320 80 fb cb bc e2 d5 d5 bd e5 09 a8 3c 04 66 01 3d
       -0.024900198 -0.104411855 0.02051253 0.03159143
000330 f2 61 19 bc 2f 3e 15 bd 2f c0 97 3d 13 f4 0c be
       -0.009361731 -0.036436256 0.07409703 -0.13764982
000340 9a 44 cd bd 68 e3 86 3d 97 e9 bd bd 8e 2c 0b 3d
       -0.1002285 0.06586343 -0.09273069 0.033978038
000350 83 b7 c2 3d ba ef 1d bd ec 1c 7e 3d b4 3c bf bd
       0.09507658 -0.0385587 0.0620393 -0.0933775
000360 3c f8 1d 3d 36 58 f9 3c fd 23 a4 bd f4 a8 8e bd
       0.038566813 0.03043757 -0.08014677 -0.06965819
000370 da 50 ff bd ac 4f 91 bc 0f a3 57 bc 3d 8c 97 bc
       -0.12466593 -0.017738186 -0.013161435 -0.018499488
000380 12 1c a1 3d 12 de f5 bd 1d db b1 3d 2a 10 04 bd
       0.07866682 -0.12005247 0.08684371 -0.032241978
000390 2b 7a f0 bd eb ac e6 bd f0 88 49 3c e5 2f d3 bd
       -0.11742052 -0.1126345 0.012300715 -0.103118695
0003a0 c2 af 45 bd b9 22 16 3d 97 8e 26 bd fd 4c ae 3d
       -0.04826332 0.036654208 -0.040663328 0.08510778
0003b0 29 fa 06 bd a2 77 83 3d e9 d5 01 be 13 42 2d bd
       -0.032953415 0.064193025 -0.12679256 -0.04229934
0003c0 17 91 9c bc 50 b4 1c 3d ec c1 aa bd 25 03 2e bc
       -0.019112153 0.038257897 -0.08337769 -0.010620867
0003d0 ce 6a 0e be 64 3e 76 3d 09 37 f0 bd 13 ef 05 be
       -0.1390793 0.060118094 -0.11729247 -0.13079481
0003e0 e0 b5 92 bb 10 02 99 bd 7a 11 ea 3c f2 ce dd 3d
       -0.0044772476 -0.074710965 0.028572787 0.10830487
0003f0 e4 13 3e bd ce 28 4d 3d 09 1b ca 3d 28 af 42 bd
       -0.046405688 0.050087743 0.09868438 -0.047530323

fc2.bias f4 [64]
000000 8c 8c 16 3f 37 1d 17 3f d7 53 da 3e cf e3 e3 bd
       0.5880821 0.59028953 0.4264209 -0.111274354
000010 45 7c fa bd d1 e1 11 3e 82 dc 35 bd 5a 85 21 3e
       -0.12230734 0.14246298 -0.044399746 0.15773526
000020 12 37 b7 3e f4 75 ea bd f6 96 a2 3e 59 13 8b 3f
       0.35784203 -0.11448279 0.317558 1.086528
000030 e5 6d 60 3f 6e fb 50 3d da c0 e2 3d 4b 98 02 3d
       0.87667686 0.051021032 0.1107194 0.03188352
000040 9a 5e 00 be 14 f3 0d 3d ea 70 8e 3d e1 4d 04 3f
       -0.12536088 0.034655645 0.069551304 0.51681334
000050 f9 40 97 3f a8 a9 4a 3f 6d 32 55 3f a9 f0 26 be
       1.1816703 0.79165125 0.8328007 -0.16302742
000060 d1 ca 7b 3f 68 0d 47 be 8f 4a 2f 3f 99 7c 27 3f
       0.9835635 -0.19438708 0.6847314 0.65424496
000070 d1 b7 50 3f bd 37 e5 3c 97 84 4e 3f 43 69 ae bd
       0.8153048 0.02798068 0.80671066 -0.08516171
000080 d1 40 77 3f a0 d2 af bd b2 9d 12 3f 9b 1f 45 ba
       0.96583277 -0.085850954 0.57271874 -0.0007519663
000090 f8 72 4d 3f 6e 74 ba 3e 3f 07 88 3d ee fd 3d 3e
       0.80253553 0.36416954 0.06642007 0.18553898
0000a0 0e 26 21 3f c5 da 89 3c 73 1e 66 3e 4c 6d bc bd
       0.6294869 0.01682795 0.22472553 -0.09200534
0000b0 18 48 3a be 5e b2 ec 3e e7 f1 46 3f fa 0c 86 bd
       -0.18191564 0.46229833 0.77712864 -0.06545444
0000c0 9d 56 32 be e1 5c 84 3f 66 35 e9 3e d5 a4 67 be
       -0.17415853 1.0340844 0.45548552 -0.22621472
0000d0 b1 25 6c 3e 91 87 60 3e bb b6 24 be 36 5c a2 bd
       0.23061253 0.21926714 -0.16085331 -0.07927744
0000e0 f3 66 8c be cc d7 fe 3e af 50 c1 3e 68 47 c1 3e
       -0.27422294 0.49774015 0.3775687 0.3774979
0000f0 fb 5a f5 bd 4c aa 95 3f de 2a 63 be 3c c9 8a 3f
       -0.11980244 1.1692595 -0.22184321 1.0842662

fc3.weight f4 [3, 64]
000000 55 4f b1 3e 58 83 bf 3e 04 fd a2 3e ce 7d fe bd
       0.34630838 0.37404895 0.3183366 -0.12426339
000010 34 b7 5e bd 30 fa 6b bf d8 8e 31 c0 a7 c4 99 bf
       -0.054373935 -0.9217863 -2.7743435 -1.2013139
000020 07 b7 83 3e fa f0 ab bd ea a7 d3 3e 80 32 cf 3e
       0.25725576 -0.08395572 0.41339046 0.40468216
000030 72 e1 ae 3e b1 77 a0 3d 51 c8 39 c0 72 8e 53 3e
       0.34156376 0.07835329 -2.9028513 0.20659807
000040 d1 ae 86 bd 1b 1d c5 be 26 07 32 bf 7c fb 73 3e
       -0.06576312 -0.38498768 -0.6954216 0.23826402
000050 ff 72 02 3f ab ef b5 3e 8c c5 d8 3e c6 9c 34 bf
       0.5095672 0.35534415 0.42338216 -0.7055172
000060 de 58 e0 3e cb aa 83 bf e4 3a be 3e a6 a0 7c 3e
       0.438178 -1.0286497 0.37154305 0.24670658
000070 4a 07 9a 3e e3 a5 fe 3c 7a 8f d9 3e d2 58 d7 bc
       0.30083686 0.03108496 0.42492276 -0.02628747
000080 9a 01 d6 3e 2e aa a2 bd f4 ce 11 3f c8 eb bf bc
       0.41798097 -0.079426154 0.5695641 -0.023427859
000090 ab 38 b3 3e 78 3e 19 3e 65 96 21 3e 7c 80 98 3d
       0.35004172 0.14965236 0.15780027 0.074463814
0000a0 f8 69 b5 3e 44 b6 8c 3d ff 0a a8 3e ae 1b ec bd
       0.3543241 0.06870702 0.3282089 -0.11528717
0000b0 e8 86 02 bf 15 6b 91 3e 83 b2 89 3e ea 1e e6 3d
       -0.509871 0.2840201 0.26894006 0.11236365
0000c0 e8 4d c7 3c 4e 27 f9 3e c0 f7 f2 3d c4 df bb 3e
       0.02432914 0.486628 0.11863661 0.36694157
0000d0 14 c4 80 bf 63 71 f2 bf 12 4e 34 bc 62 e1 ef 3d
       -1.0059838 -1.8940853 -0.011004942 0.1171291
0000e0 4d a7 f2 3e 11 e6 5c 3e 30 95 61 3e a8 06 14 3e
       0.47393265 0.21572138 0.22029567 0.14455664
0000f0 c0 99 4f bb 42 01 e8 3e 9e ec e4 bd b6 27 07 3f
       -0.0031677336 0.4531346 -0.11177944 0.5279497
000100 9d 6a 94 bd 40 14 d3 3d bf 7e d1 bf 30 30 08 3d
       -0.07246897 0.10306597 -1.6366805 0.03324908
000110 ee 45 e9 bd a0 b9 c5 3e 88 90 8f 3d 70 63 df be
       -0.11390291 0.38618183 0.07009989 -0.43630552
000120 8e 88 d0 bf 45 56 18 bd ee ca af 3e e8 65 01 3f
       -1.6291673 -0.037191648 0.3433451 0.5054612
000130 ef ee 14 3f 32 a4 24 3d f5 4e d8 3e 6b 14 e6 3d
       0.58177084 0.04019565 0.4224774 0.11234363
000140 4d d2 cd bb 30 c0 56 bf b8 8b ae 3d 00 7d 3d 3d
       -0.0062811733 -0.83887005 0.08522743 0.046261787
000150 00 ba 06 3f 73 39 51 3e 3c a5 22 3f 7c 33 c7 be
       0.52627563 0.20432071 0.6353338 -0.38906467
000160 27 5a 08 3f 7a 8a d4 bd a6 7c e2 3d 85 29 63 3d
       0.5326256 -0.10377975 0.11058931 0.055459518
000170 2b 49 01 3e c3 32 3a be 82 98 81 3e 91 7a 86 bd
       0.12625568 -0.18183427 0.25311667 -0.065663464
000180 0f 36 1c 3f e2 b5 b0 3d 40 c1 c0 3e b8 59 be 3c
       0.61019987 0.086284414 0.37647438 0.02323614
000190 30 81 96 3e b8 bf e4 bc fa bd 30 bf 14 f9 e9 3d
       0.29395437 -0.02792345 -0.6903988 0.11424461
0001a0 89 e6 37 3e 7a 1a 29 3d d8 2c 05 3f b2 f9 8c 3d
       0.17959036 0.041285016 0.5202155 0.06883563
0001b0 5a dc 1d 3f 25 4e 29 3e fc 89 c7 3e 54 9a 3b bd
       0.61664355 0.16533716 0.3897246 -0.045801476
0001c0 a0 0a d2 bc 83 25 18 3f aa 85 d1 3e be 8c f3 bd
       -0.025639832 0.5943224 0.4092229 -0.11892079
0001d0 cd 79 a1 3f 92 0e f8 3d 81 45 da bc 09 2d a1 bc
       1.2615296 0.12112154 -0.02664447 -0.019674795
0001e0 8e c5 26 3f a5 cb 85 bc 21 ce 37 c0 20 1f 1e 3e
       0.65145195 -0.016332457 -2.871956 0.15441561
0001f0 78 14 aa 3d c3 c2 12 3f ba a1 30 3e 4f 73 dc 3e
       0.08304685 0.5732843 0.17249194 0.43056723
000200 ff 4f a7 3e 05 cd a3 bb a5 59 94 3e 11 a6 7f bd
       0.3267822 -0.0049988055 0.28974643 -0.062414233
000210 ef c2 b0 3d 1f 0a 60 3e a1 33 97 3e 7c bc 30 be
       0.08630931 0.21878861 0.29531577 -0.17259401
000220 c4 f7 c4 3d a8 1e dc bd 6c a1 97 bf a5 dc e5 3e
       0.0961757 -0.10748035 -1.1846137 0.448949
000230 15 48 85 3e a0 9f 28 bf ec c0 aa 3d eb cc ac 3c
       0.26031557 -0.6586857 0.08337578 0.021093806
000240 a8 05 00 3d be 18 a8 3e e1 24 52 bf 3c 52 75 3c
       0.031255394 0.32831377 -0.8208752 0.0149732195
000250 e1 c0 13 3f 0b f5 04 3f 5e ea cd 3e b8 0e 7e bf
       0.57716185 0.51936406 0.4021787 -0.9924121
000260 51 8e e9 3e 59 5a 1e 3e 23 d8 00 3f c4 d1 8e 3e
       0.4561639 0.15464152 0.503298 0.27894413
000270 36 7f 39 3e a5 da 1a 3d 75 24 c6 3e f4 00 ac 3b
       0.18114933 0.037806172 0.3869969 0.005249137
000280 ef ed 3b 3f 50 0d 2b 3d 6c c3 d5 bd d4 d3 d0 bc
       0.7340993 0.041760743 -0.104376644 -0.025491633
000290 7e c2 1f 3f 0c a9 da bd 80 da 0a bf 53 c6 e0 bf
       0.62406147 -0.106767744 -0.54239655 -1.7560524
0002a0 ed 09 11 3e 2e fb b0 bd c9 a9 20 c0 18 59 fe 3d
       0.14163943 -0.08641659 -2.5103629 0.12419337
0002b0 bc 79 b4 be 40 25 63 be a5 3e 1b 3e 6e 9e 94 bd
       -0.35249126 -0.22182178 0.15160616 -0.072567806
0002c0 be 4e 4f 3d e5 88 e2 3e f0 61 a2 3d f5 ff 4a 3e
       0.050612204 0.44245067 0.07928836 0.19824202
0002d0 1d ce 01 40 9c 5d 87 3c 14 2b 8b bb 88 95 b2 bc
       2.0282052 0.016524129 -0.0042470787 -0.021799818
0002e0 75 00 fa bf 9b 4a 19 3e c1 77 f1 3d 1c 43 08 3f
       -1.953139 0.14969866 0.11790419 0.532274
0002f0 43 95 bb bd d5 fc b6 3e 64 3e ec 3e 2c c7 17 3f
       -0.09159329 0.3573977 0.4614135 0.5928829

fc3.bias f4 [3]
000000 fd e5 6b 3f ef 20 36 3f 01 14 1c 3f
       0.9214781 0.71144 0.60968024
