SnakeV3/snake_model_final.pth (torch, 23148 bytes, 6 tensors)

fc1.weight f4 [64, 11]
000000 e6 e3 72 3f b8 b6 00 3f 67 16 c5 3e 36 22 65 3f
       0.94878995 0.50278807 0.38493654 0.89505327
000010 97 29 6c 3e 6d df 94 3d 17 9d 41 3e 6e 3b be be
       0.2306274 0.072691776 0.18907581 -0.37154716
000020 78 19 2f bf c9 3b 60 bf cf 77 2b bf c0 49 95 3f
       -0.6839824 -0.87591225 -0.6697969 1.1663132
000030 21 22 5e 3f 12 2a 06 3f e1 03 e1 bf 02 92 9d bf
       0.86770827 0.52407944 -1.7579309 -1.2310183
000040 63 e9 46 bf 05 ac f8 bf d5 09 ed 3c cd 12 5b bd
       -0.7769987 -1.9427496 0.028935352 -0.053484727
000050 c0 e9 e4 3e ab a5 33 3e dd d1 c3 be 5e 8b 55 3e
       0.44709587 0.17543666 -0.3824605 0.20853946
000060 9d 2e 00 bf b0 dc 9e bf 2a 59 c6 3e cd ff 80 3f
       -0.50071126 -1.2411098 0.38739902 1.0078064
000070 9e e8 b0 3e 10 aa 79 bf 00 b5 0a 3f 56 03 a7 3e
       0.34552473 -0.9752512 0.54182434 0.32619733
000080 5e 72 ab bf fc c7 cc be d8 7a 66 3f a7 72 7a 3f
       -1.3394277 -0.39996326 0.90031195 0.97831196
000090 63 fb 20 3f 3d 81 0a bf c2 46 1d bf 04 dc 39 be
       0.62883586 -0.5410345 -0.6143609 -0.18150336
0000a0 67 8c da be aa 9a 55 3f 1f 89 c9 be 56 1e a1 bf
       -0.42685243 0.83439124 -0.39362428 -1.2587383
0000b0 ac 6e 05 bd c6 22 84 3e 23 6a 30 3f 93 a1 f2 3e
       -0.032576248 0.2580778 0.6891195 0.47388896
0000c0 7e 59 9f bf 55 d2 7d 3f 23 33 a3 bf 2b 8b ff 3e
       -1.2449186 0.99149066 -1.2749981 0.49910864
0000d0 17 24 44 be 0b a4 b0 bf 7a d7 03 c0 1b b8 81 be
       -0.19154392 -1.3800062 -2.0600266 -0.25335774
0000e0 06 aa 2d bf db 79 0e 40 d1 c5 b1 3c c1 d6 97 bf
       -0.6783756 2.2261875 0.021700772 -1.1862413
0000f0 1c ca 0b 3e 92 14 01 bf e6 26 29 3e 68 ab a6 3e
       0.13651317 -0.5042201 0.16518745 0.32552648
000100 9c fb 08 3f c5 c9 a8 be bc 85 51 3f a7 dc 80 3e
       0.53508925 -0.32966438 0.8184469 0.25168344
000110 ec 25 25 3f bd 15 e1 bf 98 37 d1 3d 96 44 93 be
       0.6451099 -1.7584759 0.10215682 -0.28763264
000120 19 20 8f be 22 7a bf be be 1d 18 3e 3a 26 b0 bc
       -0.27954176 -0.37397867 0.14855096 -0.021502603
000130 7a 69 e9 3e 22 6e ea be 4f d1 45 bf 01 26 94 3d
       0.45588285 -0.4578715 -0.77272505 0.07233811
000140 39 60 2f bf 90 88 53 3f 7c 77 72 bf b5 08 ff 3e
       -0.685062 0.8263025 -0.9471357 0.4981133
000150 6f 5d 12 3f fc df 0c bf 3e 99 a3 be db e0 b7 3e
       0.5717382 -0.55029273 -0.31952852 0.3591374
000160 1f df 10 bf 17 4b a2 bf da 42 72 3f aa fb ba 3d
       -0.56590456 -1.2679166 0.9463326 0.09130032
000170 b1 c7 0d 3e f5 fa 9b 3f df 77 d5 3e dc d7 18 3f
       0.13845707 1.2185961 0.41693017 0.59704375
000180 06 83 9a 3e 6e 4f 48 bf b2 75 c3 be 74 fa 8f bf
       0.30178088 -0.782462 -0.38175732 -1.1248307
000190 b3 f3 b3 3e f5 5f 39 bd 9b 68 c0 be b9 13 a1 bf
       0.35146865 -0.045257527 -0.37579808 -1.2584144
0001a0 39 e8 b0 bf 09 37 2f 3f da b7 b9 bf d1 a4 66 bf
       -1.3820869 0.6844335 -1.4509232 -0.9009524
0001b0 0c 54 a7 bf 35 fa 71 3f 51 59 3c 3f f4 10 63 3e
       -1.3072524 0.9452241 0.73573786 0.22174436
0001c0 90 6a 1e 3f 8c 30 bd 3c 2a 27 ac 3e ee 24 b2 be
       0.6188135 0.023094438 0.3362363 -0.347938
0001d0 6e 36 8e bf 80 5f 8d be bd fe ca 3c 08 a6 ae 3e
       -1.1110361 -0.27611923 0.024779672 0.34111047
0001e0 9c fb 23 3d e8 cd 24 3f 75 0b 54 3f 4b 1b f3 3e
       0.040034875 0.6437669 0.8282998 0.4748176
0001f0 7d be d3 bf 66 53 8f be f4 ea 70 bf fe 61 4c be
       -1.6542507 -0.27993315 -0.9410851 -0.19959256
000200 36 97 40 bf 9b 9d d5 bf 2c 34 f6 3c 71 ea 9a bf
       -0.7523073 -1.6688722 0.030054174 -1.2102796
000210 82 88 86 be 54 95 3f 3f 3f 68 19 3f 01 36 2b 3b
       -0.26276022 0.7483723 0.5992469 0.0026124718
000220 f7 d5 8f bf 98 55 9a 3e 16 16 3a bf 3a 9d 3e bf
       -1.1237172 0.30143428 -0.7268995 -0.7445866
000230 fe 6d 47 bf e6 65 04 bf 7b 40 99 3e 3c 8a 90 be
       -0.7790221 -0.51717985 0.29932007 -0.28230464
000240 58 f6 2e 3f 39 6d e6 bf 41 e9 61 3e cf 86 fe 3e
       0.6834464 -1.8002082 0.22061636 0.49712226
000250 7d 16 58 3f f5 ee cb 3e b1 91 bd be 5a 65 1d bf
       0.84409314 0.39830747 -0.37025216 -0.61482775
000260 a4 8f 1f bf 5e 44 22 be dd 5d 37 3f ed 0a 91 3e
       -0.62328553 -0.15846393 0.716276 0.28328648
000270 2f 39 fe be b8 d4 5c 3e b4 e4 02 3e 1b 41 63 bf
       -0.49653003 0.21565521 0.12782556 -0.8877122
000280 10 5a 8e be 37 a4 91 3d 99 55 48 bd 51 34 26 3f
       -0.27803087 0.071113996 -0.048909757 0.6492358
000290 95 ac d3 3e 31 8a 03 3f 94 ad 93 3f 06 e7 30 3f
       0.41342607 0.5138274 1.1537347 0.69102514
0002a0 1c 9b cf bf 29 9e c0 bf 13 d4 03 bf 39 52 04 c0
       -1.6219211 -1.5048267 -0.51495475 -2.0675185
0002b0 86 65 a8 bf 5d 3f 41 bf 19 24 b4 bf df 42 4e 3e
       -1.3155982 -0.7548731 -1.4073516 0.20142697
0002c0 52 d2 ea 3e 59 4d b9 be e8 32 21 3f f4 5f 9d bf
       0.45863587 -0.36191824 0.629683 -1.2294908
0002d0 d0 cb d7 3e fa 09 f0 be 2c 1e 1a bf f2 b7 98 bd
       0.42147684 -0.46882612 -0.6020229 -0.0745696
0002e0 1c 02 20 bf 61 83 73 bf 13 18 c8 3e 71 a7 90 3f
       -0.6250322 -0.95122343 0.39080867 1.1301099
0002f0 d8 02 9d be 3c 3d 86 3e 88 74 19 bf 49 67 b4 3c
       -0.30666232 0.26218593 -0.5994344 0.022021906
000300 7c 1c 15 3f 60 ae ef 3e 60 bc 2f 3f dc 04 3c 3e
       0.5824659 0.46812725 0.6864681 0.18361229
000310 d9 f1 2b be 8c cd 6f bf d4 fe 99 bf ab 25 8b 3f
       -0.16791476 -0.93673015 -1.2030892 1.087087
000320 5c 62 0f c0 49 7a f8 3e 96 e3 70 3e aa 7d 54 3e
       -2.2403784 0.48530796 0.23524317 0.20751062
000330 7f bc e4 3e 59 bd f6 bd 0f 3d 10 3f 78 1a 3f 3e
       0.4467506 -0.12047834 0.5634317 0.18662441
000340 28 ef 9d 3e 58 ee 26 3f f1 a7 81 3d ff c3 33 3f
       0.30846524 0.65207434 0.063308604 0.7022094
000350 d2 7e 8f be a9 04 12 3f a3 f4 57 be b8 29 1a 3f
       -0.28026444 0.5703836 -0.21089415 0.6021991
000360 d5 af 95 be 32 ab e5 3e a0 89 80 bf a6 1e 3c bf
       -0.29235712 0.44857174 -1.0042 -0.73484266
000370 39 d7 49 3f 9c 20 f3 3e a3 92 d5 bf 06 91 e0 bf
       0.7884403 0.47485816 -1.6685375 -1.7544258
000380 e7 0d 36 3e 86 dc e6 be c4 db 28 be 19 a3 f3 be
       0.17778741 -0.4509012 -0.16490084 -0.4758537
000390 04 2f ef 3e 74 ea d0 3e fc 14 ae 3d cd 52 24 be
       0.46715558 0.40803874 0.08500096 -0.16047211
0003a0 f0 cd 14 bf 0f 30 3a bf 0d a7 1d 3f bd 74 36 3f
       -0.58126736 -0.7272958 0.61583024 0.7127188
0003b0 2d 7a cb 3e 8f dc ab 3e 5a 5c a2 3d 02 33 7a 3e
       0.3974165 0.3356671 0.07927771 0.2443352
0003c0 ba b9 17 3f a0 ea ac 3d 12 f3 fe be 7f 74 9f be
       0.5926777 0.08443189 -0.49794823 -0.31143567
0003d0 88 4e c8 be bc f7 8a bf 90 e3 78 3f be 91 56 be
       -0.39122415 -1.0856853 0.9722223 -0.20954034
0003e0 aa 86 6f 3f c0 5c 9a 3e 88 29 48 be 38 ed 0d 3e
       0.93564856 0.30148888 -0.19547093 0.13860023
0003f0 5d a0 0a bf ec 0a 5a 3f 71 26 2f be 05 33 03 3f
       -0.54150945 0.85172915 -0.17104508 0.51249725

fc1.bias f4 [64]
000000 47 b4 34 bf c2 06 f1 be 7d 72 69 3e 63 9d ad 3c
       -0.7058758 -0.47075468 0.2279758 0.021193212
000010 83 d6 84 be 82 81 f0 bd f4 fc 8b bf 32 f7 0c be
       -0.2594491 -0.11743452 -1.093657 -0.13766173
000020 5c 67 5c bb 4f 3b e3 bd f6 e4 54 bf 76 ec 71 be
       -0.0033630943 -0.110952966 -0.83161867 -0.23625359
000030 73 8a dc be 9d 43 22 3f f9 c6 a7 bf bc b6 72 bf
       -0.43074378 0.6338442 -1.3107597 -0.9481008
000040 e9 1c b4 be 11 80 2f bf 75 16 05 3f 62 bd a6 be
       -0.35178307 -0.6855479 0.5198739 -0.32566363
000050 9e a5 91 bf b7 dd 82 3f 8c fa 21 3f ff 95 50 bf
       -1.1378667 1.0223912 0.6327293 -0.81478876
000060 ab 51 20 bf b0 13 4c 3f f8 6f 87 bf 3c c3 31 bf
       -0.62624615 0.7971754 -1.0581045 -0.6943853
000070 07 64 04 3f 13 83 e3 be 95 0d 7c 3f 5b 4c b8 bf
       0.5171513 -0.4443594 0.98458225 -1.4398302
000080 3a 01 1c 3f 12 09 1e bf 6b 55 63 bf a0 92 5d bf
       0.6093937 -0.6173259 -0.8880221 -0.86551857
000090 27 83 15 3f 26 9e c7 bd c7 84 ba be 91 f8 08 be
       0.5840325 -0.09746961 -0.36429426 -0.1337607
0000a0 47 db fb be b0 bc c8 bf 22 4a a9 3e 37 d2 59 bf
       -0.49190733 -1.5682583 0.3306437 -0.8508639
0000b0 47 e3 33 bf 59 93 8d 3e ec f4 97 bd 18 96 8c bf
       -0.7026867 0.2765148 -0.07419762 -1.0983305
0000c0 ea 8e 92 3f 50 ab be 3e 05 6b 17 3f 8f ff 21 be
       1.1449864 0.37240076 0.59147674 -0.15820144
0000d0 6c 58 5b bf 19 f4 39 bf 24 4f 89 3d 95 38 64 be
       -0.85681796 -0.7263809 0.06704548 -0.2228721
0000e0 a5 a6 01 3e 8e 24 1c be 79 33 71 bf ef eb d1 bd
       0.12661226 -0.1524832 -0.94219166 -0.10250079
0000f0 c8 3e 28 bd 71 28 56 bf 4f 51 4e be 59 70 5c 3e
       -0.041075498 -0.8365546 -0.20148204 0.21527232

fc2.weight f4 [64, 64]
000000 a0 6a f2 bd 18 6e ac 3e 39 28 62 3e 99 67 ee 3e
       -0.11836743 0.33677745 0.22085656 0.46563414
000010 52 51 6a 3f f3 63 a4 3f eb c9 e1 3f d7 9d 9f 3e
       0.91530335 1.2843002 1.7639745 0.3117511
000020 3d 3d c0 be 2b b9 90 3f 77 8f 27 3f 19 3b 5a 3e
       -0.3754672 1.1306509 0.65453285 0.21311606
000030 e3 37 0d be f9 3b ea 3c 49 2c 4a 3f 51 1f 45 bf
       -0.1379085 0.02859305 0.78973824 -0.7700091
000040 1d 12 85 be 1c 0f 9c bf 3d 79 d1 be fb 1b 11 bf
       -0.25990382 -1.2192111 -0.4091281 -0.5668332
000050 ad 69 bd 3f 62 46 a0 bc 7a d7 a7 bf b4 4c 8c 3f
       1.4797875 -0.019564811 -1.3112633 1.0960908
000060 9a 4a b9 be f6 cf 8b 3e 6e b5 9c 3f fb c0 ce bc
       -0.3618973 0.273071 1.2242868 -0.025238505
000070 7b e0 62 be a7 26 d3 3e a6 65 0c 3f 66 31 90 3f
       -0.22155945 0.41240427 0.54842603 1.1265075
000080 90 e8 7c 3e 50 58 f2 bf a2 78 43 be 65 cf bb be
       0.2469809 -1.8933201 -0.19088987 -0.36681667
000090 64 32 88 3e 60 92 3c bf 31 72 d3 3e 9e 49 12 bf
       0.26600945 -0.7366085 0.4129806 -0.5714358
0000a0 e0 f3 c2 3e 5d 22 23 bf e1 54 da 3d 78 50 62 be
       0.38076687 -0.6372431 0.106607206 -0.22101009
0000b0 17 64 28 be ee 6f f2 be 38 c5 d2 bd b4 86 18 3f
       -0.16444431 -0.4735102 -0.10291523 0.5958054
0000c0 9e 78 85 3e ea 0e 82 3e 90 53 ac be b3 0f 3c 3e
       0.26068586 0.25402004 -0.33657503 0.18365364
0000d0 f8 3e 60 3f 02 94 94 3f 55 77 ce bd 0d b9 c5 3f
       0.8759608 1.1607668 -0.100813545 1.5447098
0000e0 d6 28 c7 be 00 32 de 3a ca dd 42 3e 9c 92 65 3e
       -0.38898343 0.0016952157 0.19029918 0.22419208
0000f0 d4 43 b8 be ad b4 8a bf 1c dd 9a 3c 35 5c 6c bf
       -0.3598925 -1.0836388 0.018904261 -0.92328197
000100 0e 62 2d 3f e8 4c b5 3f d0 f0 0a be 94 ff 3e 3e
       0.67727745 1.4164095 -0.13568425 0.18652183
000110 31 8e 61 3f 19 3a 22 3e 05 e5 c6 3f 7d aa 3d bf
       0.8810759 0.15842475 1.5538641 -0.7408827
000120 55 db 04 bf bf bf 5e 3f c3 31 ae 3f b6 7c 4f 3f
       -0.51897174 0.8701133 1.3608936 0.8104967
000130 75 68 d4 3e 9f 9f 3c bf 3f f4 7c 3f d5 22 26 3f
       0.41485944 -0.7368106 0.9881019 0.648969
000140 c8 84 ed 3e b8 c0 3d bf d6 a2 86 bf 79 e5 25 3f
       0.46390367 -0.7412219 -1.0518444 0.6480327
000150 7b 8a d6 3f 95 f0 39 be 8c bb 97 bf c9 11 d3 3e
       1.6761011 -0.18158181 -1.185411 0.41224506
000160 c7 d5 85 bf f2 9f 7a bd 4b a8 bb 3f f9 51 aa 3d
       -1.0455865 -0.061187692 1.4660734 0.08316416
000170 d3 94 ae be ef 95 0a 3f b7 63 30 be 57 25 6f 3d
       -0.3409792 0.5413503 -0.17225538 0.05838522
000180 7d 9c d4 3e 48 bd e5 3c c7 43 03 bf 70 b0 10 3f
       0.4152564 0.028044358 -0.51275295 0.5651922
000190 28 8b e0 bc 15 18 35 bf f7 80 f8 bd 1b 46 e4 be
       -0.027410105 -0.7073987 -0.12133973 -0.44584736
0001a0 d6 76 99 be a4 73 91 be 2b 64 87 3f ca 93 b4 3e
       -0.29973477 -0.2840854 1.0577444 0.35269004
0001b0 b3 e6 5c 3e 7b 62 0c bf 08 6b 9c 3d 1d 47 61 3e
       0.2157238 -0.5483777 0.07637602 0.21999784
0001c0 b1 71 b8 3d 2f 09 2d bf f2 ff 0e bf 02 b3 ad 3f
       0.0900606 -0.6759214 -0.5585929 1.3570254
0001d0 e8 2a 09 3f 98 f7 92 3f ce eb 60 be 8e 2d 09 3f
       0.53581095 1.148181 -0.21964952 0.53585136
0001e0 e4 bb e3 3d a0 38 87 bb 18 f1 d9 3e 11 ab 76 3f
       0.11119822 -0.0041266233 0.42566752 0.96354777
0001f0 8c 10 9d 3f c7 dc be bd 2a 47 27 3f e5 a9 0c bf
       1.2270675 -0.09319454 0.6534296 -0.5494674
000200 ee 68 f2 3d c2 3b d0 bd 00 d5 5f be da ae 75 3f
       0.1183642 -0.10167648 -0.21858597 0.9596993
000210 18 da 8c be 29 7c 86 3f 0d 41 9b 3e 58 b9 87 3f
       -0.27510142 1.0506641 0.30323067 1.0603437
000220 85 17 39 3e 71 e0 15 3f 98 1f 27 bf 2b 65 f6 bf
       0.18075378 0.58545595 -0.65282583 -1.9249624
000230 63 0d 61 be 06 58 95 3e 6d 5b a7 be b9 d8 31 bf
       -0.21977763 0.2916872 -0.3268694 -0.6947132
000240 28 9a aa 3e 96 f6 b4 be 24 5a 18 c0 d2 50 91 3e
       0.33320737 -0.3534438 -2.3805017 0.28381974
000250 70 40 ad 3e ad d3 cf bd 7d 52 d4 bd f6 80 21 3f
       0.33838224 -0.10147796 -0.10367296 0.63087404
000260 be e6 32 bf 23 45 f1 3e 0e ac 1d bf 34 e0 c8 3f
       -0.69883335 0.4712306 -0.6159066 1.5693421
000270 e3 c7 70 3e 60 e9 b1 bd 3c 7e 69 3f 78 7d e7 3e
       0.2351375 -0.08687091 0.91208243 0.45212913
000280 a0 e0 a1 be 11 f5 9d bf 8a bb 3c be c0 89 a1 bf
       -0.31616688 -1.2340413 -0.18430915 -1.2620163
000290 f2 71 00 3f 79 d1 c0 3c eb 17 44 bf 88 be b3 3e
       0.50173867 0.023537384 -0.76598996 0.351063
0002a0 25 9d 10 bf 9e 23 e3 bf 5f fd b0 3e 4c 2b d0 bf
       -0.56489784 -1.7745245 0.34568307 -1.6263213
0002b0 f8 1b 92 bf 6a e3 22 bf 92 90 a2 be 71 fd b5 3e
       -1.1414785 -0.63628256 -0.31750923 0.35544923
0002c0 8a 90 97 bd 71 f2 b1 3e c6 eb fe 3e e9 14 cb be
       -0.074006155 0.3475528 0.49789256 -0.3966439
0002d0 0d d5 ab be 8f f4 5d bf 30 5f 8c be 7e 88 84 3e
       -0.33560982 -0.8670129 -0.27416372 0.25885385
0002e0 e5 82 3b 3f d6 9d fb bd ab 85 71 bf 2b 7d 0c 40
       0.73246604 -0.12285964 -0.94344586 2.1951396
0002f0 80 39 48 c0 67 23 84 3e 54 51 41 bf 8e 61 0d c0
       -3.1285095 0.2580826 -0.7551472 -2.2090793
000300 f0 5c bb bd a2 cb 19 bd 14 a0 b0 bd 1d f0 da bd
       -0.09148586 -0.037547715 -0.086242825 -0.10690329
000310 86 b2 a2 3d db e2 c1 bd 31 e6 ad bd 9f 2d 5f bc
       0.07944207 -0.09467097 -0.08491171 -0.013621717
000320 80 fb cb bc e2 d5 d5 bd 86 0d 38 bc 06 4d 28 b9
       -0.024900198 -0.104411855 -0.011233693 -0.00016050422
000330 f2 61 19 bc f1 f5 88 bd 92 75 2d 3d 13 f4 0c be
       -0.009361731 -0.066875346 0.042348452 -0.13764982
000340 9a 44 cd bd 38 b8 0b 3d 97 e9 bd bd 8e 2c 0b 3d
       -0.1002285 0.03411123 -0.09273069 0.033978038
000350 83 b7 c2 3d fe f0 8f bd 56 21 fe 3c b4 3c bf bd
       0.09507658 -0.070283875 0.031021755 -0.0933775
000360 49 1a e0 3b d5 40 a1 ba fd 23 a4 bd 27 95 cf bd
       0.006839071 -0.0012302647 -0.08014677 -0.101358704
000370 ec 1f 20 be a8 b3 4a bd 0f a3 57 bc 3d 8c 97 bc
       -0.15637177 -0.04948774 -0.013161435 -0.018499488
000380 2e 38 40 3d 12 de f5 bd 1d db b1 3d 2a 10 04 bd
       0.046928577 -0.12005247 0.08684371 -0.032241978
000390 2b 7a f0 bd eb ac e6 bd 37 27 9e bc e5 2f d3 bd
       -0.11742052 -0.1126345 -0.019305808 -0.103118695
0003a0 c2 af 45 bd b9 22 16 3d 97 8e 26 bd fd 4c ae 3d
       -0.04826332 0.036654208 -0.040663328 0.08510778
0003b0 84 79 84 bd 21 7a 05 3d e9 d5 01 be 86 9f 97 bd
       -0.0646849 0.032587174 -0.12679256 -0.074034736
0003c0 17 91 9c bc 50 b4 1c 3d ec c1 aa bd 25 03 2e bc
       -0.019112153 0.038257897 -0.08337769 -0.010620867
0003d0 ce 6a 0e be 02 72 e8 3c 09 37 f0 bd 13 ef 05 be
       -0.1390793 0.028374676 -0.11729247 -0.13079481
0003e0 e0 b5 92 bb 10 02 99 bd 7a 11 ea 3c f2 ce dd 3d
       -0.0044772476 -0.074710965 0.028572787 0.10830487
0003f0 01 01 a0 bd ce 28 4d 3d 09 1b ca 3d 28 af 42 bd
       -0.078126915 0.050087743 0.09868438 -0.047530323

fc2.bias f4 [64]
000000 36 8f 40 3f 5c cb 86 3e a9 5f 42 3f d8 72 12 be
       0.7521852 0.26327026 0.75927216 -0.14301622
000010 45 7c fa bd 7a c7 8b bd e0 b1 58 bd 38 c4 aa 3e
       -0.12230734 -0.068251565 -0.05290401 0.33352828
000020 07 a3 0f 3f 01 c2 15 be 00 08 cb 3e 71 d1 b8 3f
       0.56108135 -0.14624788 0.3965454 1.4438916
000030 c9 62 64 3f f6 ec c9 be d7 86 9b 3e f7 30 57 bf
       0.89213234 -0.394386 0.30376312 -0.8405909
000040 9a 5e 00 be f6 3a 69 be 82 e9 42 3e d0 18 24 bf
       -0.12536088 -0.22776398 0.19034389 -0.6410036
000050 3b 90 d2 3f 49 40 7d 3f 6c fe 95 3f 45 f3 f6 be
       1.6450266 0.98926216 1.1718268 -0.48232475
000060 4d 5e a9 3f 18 67 20 bf 55 25 40 3f 6b 8e 50 be
       1.3231903 -0.6265731 0.75056964 -0.20366828
000070 7d cc 99 3c 01 f4 77 bb ed 5e 76 3f 43 69 ae bd
       0.018774265 -0.0037834647 0.96238595 -0.08516171
000080 97 32 b3 3f ff e0 f0 bd c2 cc 27 3f 9b 1f 45 ba
       1.3999814 -0.117616646 0.6554681 -0.0007519663
000090 4d a5 84 3f 7b 3e 17 bd 12 65 79 3e f4 b2 66 3e
       1.0362946 -0.03692482 0.24354962 0.22529203
0000a0 d5 c6 1b 3f 5f 7a a3 bc 84 bd 97 3e ae 4f 74 be
       0.6085027 -0.019955812 0.29636776 -0.2385852
0000b0 9a 0d 23 bf 10 70 3c 3d 15 9f d5 3e 0a 19 c7 bd
       -0.6369263 0.04600531 0.41722932 -0.09721573
0000c0 9d 56 32 be e5 c7 bb 3f ed b2 7a be 05 3b 0f bf
       -0.17415853 1.4670378 -0.24482317 -0.5594943
0000d0 1a af aa be a8 20 60 3b bb b6 24 be 59 6a e3 bd
       -0.33336717 0.0034199152 -0.16085331 -0.111042686
0000e0 61 7a 02 bf 2c 81 89 be 96 3a 61 3f 5b 6e b6 3e
       -0.50967985 -0.26856363 0.8798002 0.3563107
0000f0 06 18 13 be f3 55 c6 3f 35 ae 10 bf a6 0e c5 3f
       -0.14364633 1.549498 -0.5651582 1.5395095

fc3.weight f4 [3, 64]
000000 d7 fa 46 3e 94 3d 3a 3f 7b 44 cc 3e ce 7d fe bd
       0.19431625 0.7275021 0.39895996 -0.12426339
000010 34 b7 5e bd d3 ce 83 bf 69 5d 5f c0 ca 45 ed bf
       -0.054373935 -1.0297493 -3.4900763 -1.8536923
000020 53 4f a4 be ed c9 55 bd 64 67 80 3e c4 f7 cf 3e
       -0.3209177 -0.052194525 0.2507888 0.40618718
000030 2d bc 04 bc af 08 a1 3f ff b1 81 c0 56 e7 78 3f
       -0.008101505 1.2580775 -4.052978 0.9722799
000040 d1 ae 86 bd 14 30 d5 be 67 b4 86 bf 92 ec 34 3f
       -0.06576312 -0.41638243 -1.0523804 0.7067348
000050 21 bf 1d 3f 57 c3 89 3e 52 be d2 3e 44 2f 41 bf
       0.61619765 0.26906845 0.41160828 -0.75462747
000060 5d 88 df 3e 2c db b2 bf 92 30 64 3d 72 fa 7e be
       0.43658724 -1.3973136 0.055710383 -0.24900225
000070 88 5e 3e 3f e3 a5 fe 3c c1 1f a7 3e d2 58 d7 bc
       0.74362993 0.03108496 0.32641414 -0.02628747
000080 59 7e ef 3e ee 39 43 bd ef 15 09 3f c8 eb bf bc
       0.46776083 -0.047662668 0.53549093 -0.023427859
000090 73 93 85 3e 65 1f 16 3f f3 5c d6 3e 8a 46 3e be
       0.26089057 0.58641654 0.4186779 -0.18581596
0000a0 9e 99 e0 3e 4d 5f c0 3d 3e 15 9e 3e c7 0e a4 3c
       0.438672 0.09393177 0.30875582 0.020026578
0000b0 d9 19 89 bf b2 f5 ff 3e 5a 94 3c 3e 94 ec a7 3d
       -1.0711013 0.49992138 0.18415967 0.081994206
0000c0 e8 4d c7 3c 01 d1 12 3f 2d 47 56 3f 74 6e 34 be
       0.02432914 0.57350165 0.83702356 -0.1762026
0000d0 27 41 34 bf 8e 08 c8 bf 12 4e 34 bc ac fc ae 3d
       -0.70411915 -1.5627611 -0.011004942 0.08544287
0000e0 4f ab 7d 3f 4c 7a d9 3d 25 a2 16 3e 75 5f dc 3e
       0.9908952 0.106190294 0.1471029 0.43041578
0000f0 0b 45 ea bc 50 12 02 3f 85 aa 41 be cf b7 21 3f
       -0.028597375 0.5080919 -0.18912704 0.63171095
000100 73 41 9b be cb b0 ab 3e cb c5 d1 bf 42 d5 cb 3a
       -0.3032337 0.3353332 -1.6388487 0.0015551227
000110 ee 45 e9 bd 16 85 2e 3f 15 af 17 bc 9b 23 2f bf
       -0.11390291 0.68171823 -0.009258051 -0.68413705
000120 ed 57 05 c0 45 56 18 bd 56 22 a0 3d 93 0c ee 3e
       -2.0834916 -0.037191648 0.07819049 0.46493968
000130 a5 94 81 3e b3 09 16 bf f6 8f 42 3d e9 ee a8 3f
       0.2530872 -0.5860855 0.047500573 1.319791
000140 4d d2 cd bb d9 32 12 c0 22 f5 b9 be 66 c4 62 be
       -0.0062811733 -2.2843535 -0.36319834 -0.22145233
000150 26 d1 09 3f 5d f8 32 3e 51 a8 1b 3f c6 a6 df be
       0.5383476 0.17477556 0.60803705 -0.43681926
000160 b2 08 f6 3e ed ae ba 3e d6 12 16 3d 22 70 5c 3d
       0.4805351 0.36461583 0.036639057 0.053817876
000170 6c 93 2e bf c3 32 3a be 22 51 91 3e 91 7a 86 bd
       -0.681937 -0.18183427 0.28382212 -0.065663464
000180 18 05 13 3f e2 b5 b0 3d 49 cd b8 3e b8 59 be 3c
       0.5742965 0.086284414 0.3609412 0.02323614
000190 18 51 6c 3e 9a 80 3d 3f 10 04 1c bf 90 9f f3 3e
       0.2307781 0.74024355 -0.609437 0.47582674
0001a0 c3 e3 06 3d 57 ab 50 3d a0 45 dc 3e f5 80 ca 3c
       0.032932054 0.050944652 0.4302187 0.024719695
0001b0 cc e2 df 3e 50 2e 17 3e ee bb 91 bd 54 9a 3b bd
       0.4372772 0.1476376 -0.07115923 -0.045801476
0001c0 a0 0a d2 bc 5a 00 15 3f 7f 83 0e 3f 74 17 e3 be
       -0.025639832 0.5820366 0.556694 -0.4435383
0001d0 68 05 e2 3f 5b a9 59 be 81 45 da bc 09 2d a1 bc
       1.76579 -0.2125601 -0.02664447 -0.019674795
0001e0 1b f4 6c 3f c0 58 84 3e 5b 43 80 c0 16 25 17 3f
       0.92559975 0.2584896 -4.008222 0.59040964
0001f0 fa f3 f2 3d a3 71 09 3f de ee 72 3f b1 9e de 3e
       0.11862941 0.5368902 0.9489573 0.43480447
000200 69 a2 a4 3e d2 3c e4 3e 4d 99 85 3e 11 a6 7f bd
       0.3215516 0.44577652 0.26093522 -0.062414233
000210 ef c2 b0 3d d9 1b 9c be 6d 4b b3 3c fc 36 69 bf
       0.08630931 -0.30489996 0.021886552 -0.91099524
000220 1d 8a 87 be a8 1e dc bd fd 95 ce bf 1f cf e6 3e
       -0.2647256 -0.10748035 -1.6139523 0.45079896
000230 e2 8d c1 3d c9 06 2e bf 36 b9 3f 3c 35 4f bf 3f
       0.0945089 -0.67979103 0.011701873 1.4946047
000240 a8 05 00 3d a6 fb 6f 3f 65 dd bb be 34 a3 03 be
       0.031255394 0.9374336 -0.36692348 -0.12855226
000250 af f6 12 3f 9b f7 aa 3e 1a 05 f4 3e 78 cb 22 bf
       0.5740766 0.33392033 0.47660142 -0.6359172
000260 29 b9 f6 3e 79 8e 43 3e 62 e3 8e 3e 82 a5 18 3f
       0.4818814 0.19097318 0.27907854 0.59627545
000270 25 38 ba 3e db 46 c6 3b 86 16 10 3d f4 00 ac 3b
       0.3637096 0.006050927 0.03517773 0.005249137
000280 ab c2 39 3f 50 0d 2b 3d ee 92 a2 be d4 d3 d0 bc
       0.72562665 0.041760743 -0.31752723 -0.025491633
000290 7d 2e e1 3e 38 f4 0f bf 4b 0d 1f bf 8b d2 f0 bf
       0.4398078 -0.56232023 -0.6212966 -1.8814253
0002a0 81 c8 b9 bd 7e d0 cb bc c3 4e 55 c0 5a 6f c0 3b
       -0.09071446 -0.02487969 -3.3329322 0.005872649
0002b0 95 c7 b0 3e ca 14 60 be df 92 3d 3f 6e 9e 94 bd
       0.3452727 -0.2188293 0.7405223 -0.072567806
0002c0 be 4e 4f 3d 72 ff e0 3e e3 9a 12 bf 53 52 8b be
       0.050612204 0.4394489 -0.5726759 -0.27211246
0002d0 e3 4f fe 3f bb b4 c9 3e 14 2b 8b bb 88 95 b2 bc
       1.986813 0.393957 -0.0042470787 -0.021799818
0002e0 96 63 3e c0 a8 de 15 3f f1 78 5f 3d 9b 08 e8 3e
       -2.9748282 0.5854287 0.054558698 0.45319065
0002f0 ce 2f 8c bd fc 98 b7 3e 98 22 41 3f ba 9c 14 3f
       -0.068450555 0.35858905 0.7544341 0.58051646

fc3.bias f4 [3]
000000 af fd c1 3f bc 11 95 3f 6c fd 92 3f
       1.5155543 1.1646037 1.1483588
