SnakeV3/snake_model_episode_600.pth (torch, 23336 bytes, 6 tensors)

fc1.weight f4 [64, 11]
00000000: 4897 0f3f 8b52 163f 2a9c 283f 15bc cf3e
00000010: e105 4abe da0c f53e 88a1 d73d 93de f2bc
00000020: 98bd 77bf 27ec 4ebf 301e b3be 0677 003f
00000030: caf9 5c3f cf3f fc3e bdbc 6dbf 5c80 d6bf
00000040: e30a 02bf 194b 95bf 0366 cf3e 8db9 9fbd
00000050: df21 b13e d3f2 d0bd aafd c3be 674c dc3e
00000060: 33f9 f2be 4128 5abf d5c3 cb3e 63f4 3c3f
00000070: 0ab2 9d3e d587 99bf d987 2c3f 21d2 e43e
00000080: a09a 82bf 5932 1bbf 1a7c 2b3f 2476 0f3f
00000090: b123 163f 0e6b e0be 4de0 7cbe 88f6 94bb
000000a0: 102c b8be 1280 2d3f a69c 39bf c2d2 75bf
000000b0: c193 dcbd 3cc5 ed3d 42c8 df3e 7b37 f93e
000000c0: 7e59 9fbf 6d9f 6f3e 3162 9fbf 819a ed3e
000000d0: 8085 49bf 648a c2bf a278 f2bf 06f1 4fbe
000000e0: 6a0b 55bf ae1a 0040 14b7 203d a9e0 1ebf
000000f0: 2182 693d 89c6 1abf 26f6 573e 80fc 053e
00000100: 8c79 253f eec0 183c 8bf2 3c3f a947 cf3e
00000110: 24e6 cb3e 0df9 70bf 6e06 1dbb f424 63be
00000120: 82c8 a2bf 2be0 11bf 1d65 283e 0777 e23e
00000130: 5901 a73e f786 e2be ff78 5fbf faf7 8abd
00000140: de5b 81be ff75 c33e d135 50bf 61df 4e3f
00000150: 6623 1e3f d6bc 8dbe f21b 04bf 60e2 863e
00000160: 7d2b f7be 8681 76bf bcc6 6e3f 36b8 f03d
00000170: 2c52 38be 29e8 273f 9a6a 083f 7d78 f73e
00000180: 837b f53d a036 17bf 0435 43be 6862 27bf
00000190: 0a55 883e 0452 5cbe de0b 75bf 0ad9 c8be
000001a0: 20ef 8abf 3168 503f 10f2 eebf 8bab 37bf
000001b0: 4451 8abf 5f5c 7b3f 6a17 623f 033c a43d
000001c0: 90b0 b63e 15bc 08be 9813 a13e e709 73bf
000001d0: 821f 59bf fb53 09be d396 d3be 4e00 69be
000001e0: 0bb8 63be 9712 563f b090 623f 8cbb 803e
000001f0: 7934 5abf d6cd 8f3e 79e5 9abf a213 5dbe
00000200: ded3 eebd 4dd4 c2bf f309 85be 85d3 a1bf
00000210: 8fee 10bf 3534 483f b32c 603f 41a1 7ebe
00000220: 878b bdbf 46ef 4a3e 3927 87be 8278 8dbe
00000230: 31cb 30bf 8598 3fbf 9ae0 1a3e 1402 5fbe
00000240: 089e 3a3f e59b 93bf 1e55 3a3c 0343 083f
00000250: 23a7 1f3f 2cdb e03e f7fe 05be ac1d 1fbf
00000260: 7bb8 0ebf f7a7 19be b038 8f3f bfe1 86bd
00000270: 3ab8 98bd f05d 37bf 5cc3 bc3e 2f40 46bf
00000280: 493e 49bf 2700 863d c7f8 e3bd 4f9a 073f
00000290: be46 ea3e ef6f ac3e 651e 9d3f 1235 c03e
000002a0: 6e0c babf 4d8d 39bf 880f 2bbd d22e eebf
000002b0: 0864 44bf e2a4 8abf 99b9 3dbf 45d3 123f
000002c0: c3a8 ebb9 11c3 9bbe 37b3 163f 00da 48bf
000002d0: 32a9 423e 8026 8dbe 8755 7dbe 1000 39be
000002e0: 9efb e0be 5a58 10be b0c2 bf3e 361a 8f3f
000002f0: beda 94be 85b5 f13e 5361 15bf 8e26 303e
00000300: 7bed 833e fba5 093f 1171 313f ad81 dbbb
00000310: a5c9 74be 7f42 8fbf c400 88bf 733a 413f
00000320: 8c60 03c0 227f 833e 1f43 853d 99a3 b03e
00000330: beb2 573e ea56 b83d 0715 9e3e 7410 813e
00000340: b2f9 3e3e bdf6 ba3e 4a58 6b3e 7a59 303f
00000350: 91c3 00bf b362 2c3e cef8 b2be d57e 213f
00000360: d8e7 24bf 6ddb 7e3e be86 3fbf dd87 77bf
00000370: c928 6c3f 84a4 aa3e ee23 a9bf 2480 dcbf
00000380: d4c6 f13d 2104 52bf f502 aabe 128c 2fbf
00000390: 3fa8 543e b285 ba3e 3208 973e 1f7a 15be
000003a0: 4be1 15bf 40f8 64bf a3e0 f43e fcf7 063f
000003b0: cd35 d53e e136 e13d d005 693e 0de4 2c3d
000003c0: 0410 d43e c05e 893e 101a 10bf af8b b4be
000003d0: 5fd8 e5be 7ea2 44bf 095f 6b3f 5d5f 98bd
000003e0: a6ee 183f 2561 463b 3c3c acbd 7dd9 093e
000003f0: fe6b cbbe 535a 863f 768b efbe b58a 813f
0.5609021 0.587197 0.6586329 0.40573183 -0.19728805 0.47861367 0.105288565 -0.029647147
-0.9677367 -0.8082909 -0.3498397 0.50181615 0.8631865 0.49267432 -0.92866117 -1.6757922
-0.5079786 -1.1663543 0.40507516 -0.07799063 0.34596154 -0.10202565 -0.38279468 0.4302704
-0.4745575 -0.8521767 0.39797845 0.73810405 0.30799896 -1.1994578 0.6739479 0.44691566
-1.0203438 -0.606237 0.6698624 0.56039643 0.5864821 -0.43831676 -0.24694939 -0.0045459904
-0.35971117 0.67773545 -0.7250465 -0.96024716 -0.10770369 0.11609885 0.43707472 0.4867514
-1.2449186 0.2340066 -1.2451841 0.4640694 -0.7871933 -1.5198483 -1.8943064 -0.20306787
-0.8322054 2.0016284 0.039237097 -0.62061554 0.057008866 -0.6045919 0.21089992 0.13084602
0.6463859 0.009323342 0.7380759 0.4048436 0.3982402 -0.9413002 -0.0023960131 -0.22182065
-1.271744 -0.5698268 0.16444822 0.44231436 0.32618216 -0.44243595 -0.87294 -0.06785579
-0.25265402 0.3817596 -0.8133212 0.808096 0.61772764 -0.27683133 -0.5160514 0.26344585
-0.48275366 -0.9629139 0.93271995 0.117538854 -0.18000096 0.65588623 0.5328766 0.48334113
0.119864486 -0.59067726 -0.19063193 -0.6538453 0.2662738 -0.21515661 -0.9572123 -0.39228088
-1.0854225 0.81408983 -1.8667622 -0.7174613 -1.080605 0.9818782 0.8831698 0.08019259
0.35681581 -0.13352998 0.3146026 -0.94936985 -0.848137 -0.13410942 -0.41326007 -0.22754022
-0.22238176 0.83622116 0.88502026 0.25143087 -0.85236317 0.28086728 -1.210128 -0.2158952
-0.11661504 -1.5221039 -0.25984153 -1.2642676 -0.5661401 0.7820466 0.87568206 -0.24866201
-1.4808205 0.19817838 -0.26397112 -0.27631003 -0.69060045 -0.748421 0.15124741 -0.21778136
0.72897387 -1.153195 0.011372833 0.5322725 0.62364405 0.43917215 -0.13085543 -0.6215465
-0.55750245 -0.1500548 1.1189175 -0.065860264 -0.074570134 -0.7162771 0.36867797 -0.77441686
-0.78610665 0.06542998 -0.11131435 0.5296983 0.45757097 0.3367915 1.2274901 0.3754049
-1.4535043 -0.7248123 -0.04176286 -1.8608038 -0.76715136 -1.0831568 -0.74111325 0.5735362
-0.0004494843 -0.3042226 0.5886721 -0.7845764 0.19009855 -0.27568436 -0.24739657 -0.1806643
-0.4394197 -0.14096203 0.37453222 1.1179874 -0.29073137 0.472088 -0.5835163 0.17202207
0.2576712 0.5376889 0.6931315 -0.006698808 -0.23905046 -1.1192168 -1.0625234 0.7547981
-2.0527678 0.25682932 0.06506943 0.34499815 0.21064278 0.090009525 0.30875418 0.25207865
0.18649939 0.3651637 0.22982898 0.6888653 -0.5029841 0.16834526 -0.34955448 0.63084155
-0.64416265 0.24888392 -0.74814975 -0.96691686 0.92249733 0.3332864 -1.321409 -1.7226605
0.118055016 -0.8203755 -0.3320538 -0.68573105 0.20767306 0.36430126 0.2949844 -0.14597367
-0.58546895 -0.894413 0.47827634 0.52722144 0.4164261 0.109967954 0.22756124 0.042209674
0.4141847 0.268301 -0.5628977 -0.3526282 -0.4489164 -0.76810443 0.9194189 -0.07440064
0.5973915 0.0030270305 -0.08409926 0.13461871 -0.3973083 1.0496315 -0.46786088 1.0120455

fc1.bias f4 [64]
00000000: bdd0 adbe 066b ebbe 74f4 c33e c405 6e3d
00000010: 9e2f 71be f71d f8bc 6364 3ebf 3871 893d
00000020: 8b82 1cbd e078 a73c 09a1 e0be 1fd0 c9bd
00000030: 6dbe 8abe 00ce 073f a7d9 33bf 90eb babe
00000040: 7c99 75be e0e3 d3be a293 b83e 73a6 06bd
00000050: 0d7a 51bf f37e 4b3f 01b0 f13e 09ca a4be
00000060: a416 01bf de72 2f3f d0a7 e5be ee59 c9be
00000070: a45a d93e 2122 aebe af5f 593f 6149 5fbf
00000080: 920a 1a3f f45a 81be a6a3 80be 1c2f d8be
00000090: 456a eb3e e2a1 0d3e 2cfc 32be d3d0 4e3e
000000a0: 1a62 1cbe 1197 8abf 7716 983e 1406 eabe
000000b0: 8efe 03bf 1aad 5f3e ea49 64bd b9ee 1dbf
000000c0: ca0a 613f d498 a73e 5acc 1b3f 97d9 0abe
000000d0: dce9 0ebf 8f67 47be 444b b63d 1041 04be
000000e0: f8e7 943e 8e24 1cbe 0bb0 1dbf 54d0 0cbd
000000f0: 5421 ebb9 9812 e2be 0161 103e 04e0 cc3d
-0.33948317 -0.4598009 0.3827244 0.058110967 -0.23553321 -0.030287726 -0.7437193 0.06711048
-0.038210433 0.02044338 -0.4387286 -0.09854149 -0.27098408 0.53048706 -0.70253986 -0.36507845
-0.23984331 -0.41384792 0.36050135 -0.032873582 -0.8182686 0.79490584 0.47204593 -0.3218539
-0.5042517 0.6853465 -0.44854593 -0.39326423 0.42451966 -0.34010413 0.84911627 -0.8722134
0.6017238 -0.25264704 -0.25124854 -0.42223442 0.45979515 0.13831285 -0.17479008 0.20196848
-0.15271798 -1.0827352 0.2970464 -0.45707762 -0.51560295 0.21843377 -0.055734552 -0.61692387
0.8790709 0.32733786 0.6085869 -0.13559566 -0.5582559 -0.19473098 0.089010745 -0.12915444
0.29083228 -0.1524832 -0.61596745 -0.034378365 -0.00044847524 -0.4415481 0.14099504 0.10003665

fc2.weight f4 [64, 64]
00000000: 011d 90bb 45eb 683e 3004 ba3e 8771 103e
00000010: 0bf8 843f e0e6 383f b1c6 813f 069d b93e
00000020: 88bd e5be 2c61 6b3f b2e1 ba3e 4ff5 9abe
00000030: ba9a 113f 51e7 e13d b8d6 3c3e e002 d63c
00000040: 4079 2bbe 6ea2 82bf a8f6 0dbe e1e2 d43d
00000050: 3f60 b13f 581b 32bd 800e 7abe dbf8 1c3f
00000060: dc06 89bf 0726 333e 7321 223f 49e8 373e
00000070: ed24 26be a090 873e 67f9 063f c933 5d3f
00000080: b3cb a63e 0982 063e bd62 94bd 8ee6 5e3d
00000090: 7302 053f 1b86 11bf 3528 cd3e 87c3 83be
000000a0: 8d9f 283f dd94 373e 9d09 993e b319 23bf
000000b0: 91fb 80bd 7bd0 b3be f6ea 453d 2c96 9e3e
000000c0: c799 8a3e ff0a 383e 8113 36be 69fb fd3e
000000d0: ca8d a2be e960 363f b989 013d 6251 483f
000000e0: ab65 fbbd 0032 de3a 2f1e c1be b36b 193f
000000f0: d602 92be f698 d2bf 3ceb a2be 9cf7 b3bf
00000100: a948 213f 7818 9b3e 1017 f13e 9777 ba3e
00000110: 572e 6d3f eb12 953e 17c2 213f 25e8 a43b
00000120: 3a71 b3be 5238 303f 9420 183f faff a03e
00000130: a678 123f 2b25 3a3e c005 1b3e ec19 ab3e
00000140: e51a 4e3e 32a7 88bf 54af 6b3c fc0a e03e
00000150: 1be7 383f 366a 93bb 4300 e0be a522 8f3e
00000160: e38b 76bf df6d fe3d d3b7 113f 7f4e 883e
00000170: 1559 80be 9b23 913e 3474 2b3e 1859 d43e
00000180: a36a 163f df2b 2cbe f416 59be c6a9 f03e
00000190: 2f0e 303e 8c0b 50bf 7f8f 46bd 5568 41be
000001a0: d586 d63e 5c7a 2abe d1d1 ef3e 1cf5 2b3d
000001b0: a759 063e 0c7b 52bd d858 d33e 77af 9a3d
000001c0: e79b 8e3e 6722 43be 3cf2 9abe a361 063f
000001d0: 3afb e2be 08f5 143f 0e05 8dbc 16b9 f53e
000001e0: 023f 2ebe a038 87bb fc2f babe ad9c 3e3f
000001f0: dd2b d33e 5755 5dbf 4e36 a93d 6b15 e8be
00000200: 797a 923e 3e78 4c3f 9341 48be 5821 433f
00000210: 9118 91be fe89 ad3f e0f5 293e 852a 6d3f
00000220: a82c a53c ff2f 3bbe 6b40 02bf b582 63bf
00000230: 3021 443f efa8 b63e e08d 12bf 5899 61be
00000240: aed9 5a3f ec7b 04be b575 e3bf a587 5a3f
00000250: b246 303e 9c6b f2bd 3697 d5be 4a03 963e
00000260: fe73 24bf 0547 c83e 6451 86be 111f 9c3f
00000270: f076 393e 5555 cc3e 73dd 383f 3a7e 383f
00000280: c8f4 87be 6950 a9bf b502 683e 9664 c7be
00000290: 1309 e63e dde2 edbe 59b3 dabe ffee 273d
000002a0: b7ac abbe 6009 e23c 117c 8a3e 3f5e c5bf
000002b0: 3db4 85bf b81c 42bf 695e e8be 7091 ba3e
000002c0: afb3 43bd 4140 213f 9f0e aa3e 2a7c 4f3d
000002d0: a5d9 01bf fa6d 37be f61f 51bf 2630 a8bd
000002e0: c441 a93d d69d fbbd 971f a6be 40fa eb3f
000002f0: e3a1 16c0 04af 833e ffbd 0fbf 2e3c e0bf
00000300: babe 74bd 465c bfbb 14a0 b0bd 1df0 dabd
00000310: 86b2 a23d f2df 80bd 11d9 59bd 9f2d 5fbc
00000320: 80fb cbbc e2d5 d5bd e509 a83c 0466 013d
00000330: f261 19bc 2f3e 15bd 2fc0 973d 13f4 0cbe
00000340: 9a44 cdbd 68e3 863d 97e9 bdbd 8e2c 0b3d
00000350: 83b7 c23d baef 1dbd ec1c 7e3d b43c bfbd
00000360: 3cf8 1d3d 3658 f93c fd23 a4bd f4a8 8ebd
00000370: da50 ffbd ac4f 91bc 0fa3 57bc 3d8c 97bc
00000380: 121c a13d 12de f5bd 1ddb b13d 2a10 04bd
00000390: 2b7a f0bd ebac e6bd f088 493c e52f d3bd
000003a0: c2af 45bd b922 163d 978e 26bd fd4c ae3d
000003b0: 29fa 06bd a277 833d e9d5 01be 1342 2dbd
000003c0: 1791 9cbc 50b4 1c3d ecc1 aabd 2503 2ebc
000003d0: ce6a 0ebe 643e 763d 0937 f0bd 13ef 05be
000003e0: e0b5 92bb 1002 99bd 7a11 ea3c f2ce dd3d
000003f0: e413 3ebd ce28 4d3d 091b ca3d 28af 42bd
-0.004397989 0.22745998 0.3633132 0.14105807 1.0388197 0.7222729 1.0138761 0.36252612
-0.44871163 0.9194515 0.36500317 -0.3026528 0.5687672 0.11030448 0.18441284 0.026124418
-0.16745472 -1.020582 -0.13863623 0.10394836 1.3857497 -0.04348311 -0.24419594 0.61317223
-1.0705218 0.17494975 0.6333229 0.17959704 -0.16225024 0.26477528 0.5272431 0.8640714
0.32577285 0.13135542 -0.07245395 0.054419093 0.5195686 -0.56845254 0.40069738 -0.25735113
0.65868455 0.1792788 0.29890147 -0.6371109 -0.062979825 -0.35119995 0.04831978 0.30973947
0.27070448 0.17972945 -0.17780878 0.49605873 -0.317488 0.71241623 0.031625483 0.7824918
-0.12275251 0.0016952157 -0.3771834 0.5992996 -0.2851779 -1.645293 -0.31820095 -1.4059939
0.63001496 0.30292106 0.47087908 0.36419365 0.92648834 0.29115996 0.6318678 0.0050325566
-0.35047323 0.6883594 0.5942471 0.31445295 0.57215345 0.18178241 0.15138912 0.33418214
0.20127447 -1.0676024 0.014385063 0.4375838 0.7222764 -0.0044987453 -0.437502 0.2795612
-0.963072 0.124233 0.5692112 0.26622388 -0.25067964 0.28347477 0.16743547 0.41474223
0.58756465 -0.1681361 -0.21200162 0.47004527 0.1719291 -0.8126762 -0.048476692 -0.18887456
0.41899744 -0.16648239 0.46839765 0.0419818 0.13120137 -0.051386878 0.4127872 0.075529985
0.2785332 -0.19056092 -0.30262935 0.5249273 -0.44332296 0.5818639 -0.017214324 0.47992772
-0.17016223 -0.0041266233 -0.36364734 0.7445782 0.41244403 -0.86458343 0.08262311 -0.4532884
0.28609064 0.79870975 -0.19556265 0.76222754 -0.28339055 1.3557737 0.165977 0.92643005
0.020162895 -0.18280028 -0.50879544 -0.8887132 0.7661314 0.3567576 -0.57247734 -0.22031152
0.854884 -0.12937897 -1.7770296 0.8536323 0.17214468 -0.11836931 -0.41716927 0.29299384
-0.6423949 0.39116684 -0.2623397 1.2196981 0.18111777 0.39908853 0.72212905 0.72067606
-0.2655394 -1.3227664 0.22657283 -0.38943928 0.44928798 -0.46462145 -0.42714956 0.04099941
-0.33530208 0.027592361 0.2704778 -1.5419387 -1.0445629 -0.7582507 -0.4538453 0.36439085
-0.04777878 0.6298867 0.3321428 0.05065552 -0.50722724 -0.17913046 -0.81689394 -0.082123086
0.08264497 -0.12285964 -0.32445976 1.8435745 -2.3536308 0.25719464 -0.56149286 -1.7518365
-0.059752204 -0.0058398573 -0.086242825 -0.10690329 0.07944207 -0.06292714 -0.053185526 -0.013621717
-0.024900198 -0.104411855 0.02051253 0.03159143 -0.009361731 -0.036436256 0.07409703 -0.13764982
-0.1002285 0.06586343 -0.09273069 0.033978038 0.09507658 -0.0385587 0.0620393 -0.0933775
0.038566813 0.03043757 -0.08014677 -0.06965819 -0.12466593 -0.017738186 -0.013161435 -0.018499488
0.07866682 -0.12005247 0.08684371 -0.032241978 -0.11742052 -0.1126345 0.012300715 -0.103118695
-0.04826332 0.036654208 -0.040663328 0.08510778 -0.032953415 0.064193025 -0.12679256 -0.04229934
-0.019112153 0.038257897 -0.08337769 -0.010620867 -0.1390793 0.060118094 -0.11729247 -0.13079481
-0.0044772476 -0.074710965 0.028572787 0.10830487 -0.046405688 0.050087743 0.09868438 -0.047530323

fc2.bias f4 [64]
00000000: 6fe1 283f 2749 133f eef9 233f cfe3 e3bd
00000010: 457c fabd bce1 033c 8578 3ebd 384c d33e
00000020: 40d0 823e 01c2 15be f552 af3e e1de a03f
00000030: 875c 833f b965 86be 31a9 823d e6c1 9fbe
00000040: 9a5e 00be e0f8 cc3d 1102 29be 2040 0d3e
00000050: 5cf5 b03f fa4c 773f cb20 803f 45f3 f6be
00000060: b6ce 903f 8059 aabe eb05 4e3f ee50 023f
00000070: 1b8d 3e3f bd37 e53c c977 723f 4369 aebd
00000080: ae22 943f ffe0 f0bd 9d77 203f 9b1f 45ba
00000090: 402a 713f fa86 7c3e 31af 7d3d 3149 b2bc
000000a0: 1cea 343f 5f7a a3bc a325 103e ae4f 74be
000000b0: 4c2d b0be 8bcf b53e 2751 513f fa0c 86bd
000000c0: 9d56 32be d5e9 9c3f a159 7f3e 26e7 4dbe
000000d0: 18b4 db3d 2c7b 4b3e bbb6 24be 365c a2bd
000000e0: ce96 99be b68a 883e 84d7 f53e e177 cc3e
000000f0: fb5a f5bd 0a10 ac3f 6b43 92be bb0e a43f
0.65968984 0.57533497 0.6405324 -0.111274354 -0.12230734 0.008049425 -0.046501655 0.41269088
0.25549507 -0.14624788 0.3424298 1.2568017 1.0262612 -0.26249483 0.06379927 -0.3120262
-0.12536088 0.10008407 -0.16504695 0.13793993 1.3824878 0.9660183 1.0010008 -0.48232475
1.1313083 -0.33271408 0.8047778 0.5090474 0.7443406 0.02798068 0.9471403 -0.08516171
1.1573083 -0.117616646 0.62682515 -0.0007519663 0.94205093 0.24660864 0.061934654 -0.021763416
0.7066972 -0.019955812 0.14076857 -0.2385852 -0.3440956 0.35509905 0.81764454 -0.06545444
-0.17415853 1.225886 0.24936534 -0.20107707 0.107277095 0.19871205 -0.16085331 -0.07927744
-0.29997867 0.26668328 0.48015988 0.3993521 -0.11980244 1.3442395 -0.2856706 1.2816995

fc3.weight f4 [3, 64]
00000000: ef80 813e 54e5 603e 7b6a 8e3e ce7d febd
00000010: 34b7 5ebd 7ec7 dbbf 4b9b 51c0 2e37 dbbf
00000020: 8644 773e edc9 55bd 1d66 d63e 37cd e43e
00000030: 69df 9d3e 5d77 9c3f 7046 67c0 384b 673f
00000040: d1ae 86bd 1e4f 983d e316 e3be 809a 4a3f
00000050: fde2 123f 262d a73e 5f47 f13e 442f 41bf
00000060: 5715 f23e 190e 9ebf dc84 a53e 29ac 753d
00000070: 6efb 073e e3a5 fe3c 3352 cf3e d258 d7bc
00000080: 11bb e23e ee39 43bd bb3a 183f c8eb bfbc
00000090: e547 b53e 2a76 113e 8584 a33e 1326 733d
000000a0: 5fb0 7c3e 4d5f c03d d16f 9b3e c70e a43c
000000b0: e1d4 36bf de17 7a3e cde6 f43d ea1e e63d
000000c0: e84d c73c 779d 0a3f 1ac5 2f3f db86 31be
000000d0: 3a5a 1abf 30ce f2bf 124e 34bc 62e1 ef3d
000000e0: 5fb1 143f 8334 6639 2fe8 573e 2556 1e3f
000000f0: c099 4fbb 0565 023f b94d ffbe e5db 153f
00000100: c1f3 74bd 92b0 1c3e cef1 00c0 3030 083d
00000110: ee45 e9bd 2aa9 2b3f 19cb 82bc 9532 53bf
00000120: 10b4 c9bf 4556 18bd 874f 363e 69fe 003f
00000130: 097f 0a3f a038 1a3e da9f a53e a079 803f
00000140: 4dd2 cdbb 50d1 9ebf 44ff 1c3e f4ab 8f3d
00000150: d458 0d3f 7f91 213e 89f2 283f c6a6 dfbe
00000160: 4612 0d3f cfac 253e f3c7 5e3d 6eff 0bbe
00000170: 1537 2fbd c332 3abe 1d49 9c3e 917a 86bd
00000180: 7bff 233f e2b5 b03d 1012 873e b859 be3c
00000190: b126 8f3e 3560 2c3f 9053 d6be c73a fe3c
000001a0: 569f 8e3e 57ab 503d 900f fa3e f580 ca3c
000001b0: 3b9a 2d3f 9a37 8f3c 2ba0 8a3e 549a 3bbd
000001c0: a00a d2bc 42a7 1c3f 8fe4 b93d 1eb7 4cbe
000001d0: 2b8c 0540 fdb7 963c 8145 dabc 092d a1bc
000001e0: a6a2 243f b732 c23d 3917 50c0 9891 643e
000001f0: 7814 aa3d 549d 133f c6e2 6f3f 554a e83e
00000200: 17fa b33e ff55 97bc e622 7a3e 11a6 7fbd
00000210: efc2 b03d bbb4 203e ac7d 3f3e a6f8 61bf
00000220: 489c 403e a81e dcbd e40b 07c0 4fac e83e
00000230: 0726 9c3e 973a 2ebe fb9f 603d 3705 b13f
00000240: a805 003d 214b 8f3f ebde cdbe a6ff 853e
00000250: 3369 143f 3670 013f 3e84 e43e 78cb 22bf
00000260: 6222 e83e cf7d 373e 889b f93e 46ea be3d
00000270: 4039 7e3d a5da 1a3d bbbf a93e f400 ac3b
00000280: dad5 383f 500d 2b3d bc3b 65be d4d3 d0bc
00000290: 71a2 1e3f e46f 0dbf 2e38 93bf c228 04c0
000002a0: e942 c13d 7ed0 cbbc 43e9 40c0 5a6f c03b
000002b0: 8113 82bf b837 d3be 9c26 163e 6e9e 94bd
000002c0: be4e 4f3d d78c ea3e 8095 03bd d3d5 d23e
000002d0: 0252 0b40 73cb 82be 142b 8bbb 8895 b2bc
000002e0: 5283 54c0 f7a3 9b3e bc7a f13d 09fe 043f
000002f0: 4395 bbbd c867 b83e 5721 363f d5fd 193f
0.2529368 0.21962482 0.27815613 -0.12426339 -0.054373935 -1.7170255 -3.2751033 -1.7126215
0.24147233 -0.052194525 0.4187478 0.44687817 0.3083451 1.2223927 -3.6136742 0.9034915
-0.06576312 0.074369654 -0.443534 0.79142 0.57377607 0.32651633 0.47124764 -0.75462747
0.47281906 -1.2348052 0.32327926 0.059978638 0.13279507 0.03108496 0.404924 -0.02628747
0.44283345 -0.047662668 0.59464616 -0.023427859 0.35406414 0.14205232 0.31937042 0.059362482
0.24676655 0.09393177 0.30358747 0.020026578 -0.7141858 0.24423167 0.11958084 0.11236365
0.02432914 0.5414652 0.6866013 -0.173366 -0.60293925 -1.8969173 -0.011004942 0.1171291
0.58083147 0.00021954071 0.21084665 0.61850196 -0.0031677336 0.50935394 -0.49863985 0.5853866
-0.059802774 0.15301731 -2.0147586 0.03324908 -0.11390291 0.67055 -0.015965985 -0.8249906
-1.5758076 -0.037191648 0.17803775 0.503882 0.5410009 0.15060663 0.3234852 1.0037117
-0.0062811733 -1.2407627 0.15331751 0.07015219 0.55213666 0.15778159 0.6599508 -0.43681926
0.5510601 0.16179202 0.054389905 -0.13671657 -0.04277714 -0.18183427 0.3052453 -0.065663464
0.6406171 0.086284414 0.26380968 0.02323614 0.27959207 0.673343 -0.41860628 0.031033887
0.2785594 0.050944652 0.48839998 0.024719695 0.6781346 0.017482568 0.27075323 -0.045801476
-0.025639832 0.61192715 0.09076797 -0.19991729 2.0866802 0.01839828 -0.02664447 -0.019674795
0.6431068 0.09482329 -3.2514174 0.22321165 0.08304685 0.5766194 0.93705404 0.4536921
0.3515174 -0.018473623 0.24427375 -0.062414233 0.08630931 0.15693943 0.18700284 -0.8827003
0.18809617 -0.10748035 -2.1101007 0.4544396 0.30497763 -0.17014538 0.05484007 1.3829716
0.031255394 1.1194803 -0.40209135 0.26171607 0.5797302 0.50561845 0.44632143 -0.6359172
0.45338732 0.17919086 0.48751473 0.09322028 0.062066317 0.037806172 0.3315409 0.005249137
0.7220131 0.041760743 -0.22386068 -0.025491633 0.61966616 -0.55248857 -1.150152 -2.0649877
0.0943659 -0.02487969 -3.0142372 0.005872649 -1.0162202 -0.41253448 0.14663166 -0.072567806
0.050612204 0.45810577 -0.032124996 0.4117876 2.1768804 -0.25545844 -0.0042470787 -0.021799818
-3.3205152 0.30398533 0.11790988 0.51950127 -0.09159329 0.3601668 0.7114462 0.6015294

fc3.bias f4 [3]
00000000: cd7b 943f 6c2d 653f 4284 4e3f
1.1600281 0.89522433 0.8067056
