SnakeV3/snake_model_episode_800.pth (torch, 23336 bytes, 6 tensors)

fc1.weight f4 [64, 11]
0.8329559 0.5978133 0.47083962 0.8162515 0.10142416 0.32774946 -0.113175735 -0.14922133
-0.8933285 -1.069065 -0.3828865 0.99251837 0.84596515 0.31053647 -1.5116916 -1.3445091
-0.6785637 -1.326702 0.12308477 0.11135358 0.48149383 0.051117077 -0.5601549 0.27508792
-0.5260262 -0.92717546 0.26444873 0.8718534 0.2996547 -1.0750017 0.6361813 0.4340237
-1.7376516 -0.73558223 0.7149926 0.82289994 0.5438857 -0.56923336 -0.36864048 -0.028728995
-0.6316019 0.60369605 -0.4749378 -1.2700876 -0.3007456 0.23837076 0.67104703 0.64417404
-1.2449186 0.7372658 -1.1525114 0.4989223 -0.5322073 -1.440479 -1.6197798 -0.19179974
-0.89503044 2.172437 -0.026847428 -0.8058321 0.10494117 -0.57917595 0.16530247 0.16638197
0.5078282 -0.1452232 0.99611855 0.47420824 0.4498001 -1.756895 -0.015100918 -0.30603853
-0.8952404 -0.78111106 0.27817518 -0.5138344 0.4240318 -0.3883461 -1.1946276 -0.008989748
-0.3245401 0.51479065 -1.0132365 0.67479473 0.51702726 -0.046964586 -0.61775756 0.34791052
-0.44652668 -1.3879316 0.7932947 0.19503556 -0.29605964 1.1879506 0.30265397 0.43891925
0.21793899 -0.77211064 -0.22557525 -0.56456566 0.4061232 -0.055302233 -0.46671376 -1.0424356
-1.3195484 0.74986494 -1.9744552 -0.8372216 -1.3072524 1.0229421 0.743023 0.12407315
0.6273072 0.009282508 0.24699585 -0.6930659 -1.2158608 0.028748546 -0.47899947 -0.15070827
0.09698416 0.618439 0.91432947 0.29844564 -1.3733763 -0.05397532 -0.8242682 -0.14589037
-0.31643465 -1.373272 -0.18740341 -1.67288 -0.5029008 0.7869383 0.64602876 -0.16016161
-1.409436 0.30478913 -0.10563117 -0.6438218 -0.5630251 -0.52995896 0.36782947 -0.13726828
0.7381363 -1.430029 0.20559661 0.6295597 0.621004 0.30667478 -0.20870845 -0.57231176
-0.6649323 -0.14304875 0.9414256 0.2827382 -0.14872454 -0.11627771 0.063276105 -0.96499443
-0.7392766 0.100251675 -0.30624455 0.7168233 0.3115898 0.78134286 1.2970611 0.44257084
-1.2885492 -1.3121376 -0.33209196 -1.9550859 -1.4261665 -0.5263689 -1.419084 0.27189553
0.04682903 -0.37776548 0.46669888 -0.76323533 0.27859452 -0.15619448 -0.518266 -0.26866934
-0.3676151 -0.6024789 0.19905736 1.193193 -0.18328807 0.48918113 -0.42352512 -0.25282395
0.55761975 0.56614184 0.8954564 -0.009698687 -0.27009872 -0.8387763 -1.2218624 1.0097002
-2.0955968 0.34662837 0.2576241 0.37966016 0.18525544 0.0554164 0.43679193 0.246708
0.20476784 0.42731237 0.24374574 0.7136806 -0.73728925 0.32865918 -0.161826 0.63714164
-0.3141786 0.30541176 -0.7818138 -1.0398569 1.0768222 0.4545569 -1.4050518 -1.7544258
0.2618204 -0.6287155 -0.23404735 -0.17670009 0.21813336 0.53956264 -0.045053247 -0.18332656
-0.54811794 -0.8095612 0.53353596 0.6335527 0.42869836 0.23592855 0.25929514 0.08774321
0.4583435 0.18799907 -0.5494681 -0.4163636 -0.3806592 -0.76810443 0.86501 -0.25005874
0.85998994 -0.0026159426 -0.14999963 0.015593175 -0.5449738 0.9929648 -0.21389423 0.60183567
00000000: 993c 553f 4b0a 193f e411 f13e dcf5 503f
00000010: 78b7 cf3d c7ce a73e aec8 e7bd 7acd 18be
00000020: 2db1 64bf 1fd7 88bf b309 c4be af15 7e3f
00000030: 2c91 583f a3fe 9e3e 1c7f c1bf e018 acbf
00000040: 5ab6 2dbf 5fd1 a9bf de13 fc3d 590d e43d
00000050: 5c86 f63e 2460 513d 5066 0fbf 53d8 8c3e
00000060: a7a9 06bf 5f5b 6dbf d365 873e c931 5f3f
00000070: 576c 993e a899 89bf c7dc 223f 5b38 de3e
00000080: 5e6b debf 1e4f 3cbf c109 373f 92a9 523f
00000090: 183c 0b3f 47b9 11bf 72be bcbe 1259 ebbc
000000a0: aab0 21bf d38b 1a3f 0c2b f3be 3b92 a2bf
000000b0: 54fb 99be 7717 743e bdc9 2b3f 97e8 243f
000000c0: 7e59 9fbf 74bd 3c3f 7e85 93bf be72 ff3e
000000d0: bd3e 08bf 9e61 b8bf f254 cfbf 2767 44be
000000e0: b720 65bf 3509 0b40 23ef dbbc 034b 4ebf
000000f0: 65eb d63d e044 14bf 0d45 293e 0960 2a3e
00000100: 0701 023f 64b5 14be a001 7f3f 6ccb f23e
00000110: 334c e63e efe1 e0bf d769 77bc 15b1 9cbe
00000120: 7a2e 65bf e5f6 47bf fa6c 8e3e a78a 03bf
00000130: b21a d93e 4dd5 c6be 8fe9 98bf bc49 13bc
00000140: 1f2a a6be 52c9 033f bcb1 81bf 59bf 2c3f
00000150: e65b 043f f05d 40bd 5c25 1ebf 5421 b23e
00000160: 259f e4be bea7 b1bf 5d15 4b3f 67b7 473e
00000170: 2195 97be c40e 983f 76f5 9a3e 06ba e03e
00000180: 662b 5f3e 0ba9 45bf 33fd 66be 6087 10bf
00000190: 61ef cf3e 9884 62bd 1bf5 eebe 886e 85bf
000001a0: f6e6 a8bf 26f7 3f3f f3ba fcbf 2854 56bf
000001b0: 0c54 a7bf c4ef 823f c136 3e3f 101a fe3d
000001c0: 3497 203f a915 183c 7bec 7c3e c46c 31bf
000001d0: 54a1 9bbf 1282 eb3c 6b3f f5be 4553 1abe
000001e0: a29f c63d 0552 1e3f 7f11 6a3f decd 983e
000001f0: cbca afbf 3a15 5dbd 3e03 53bf 4964 15be
00000200: b903 a2be 60c7 afbf aee6 3fbe ef20 d6bf
00000210: 1bbe 00bf ca74 493f 2462 253f 6801 24be
00000220: 6668 b4bf 520d 9c3e 2855 d8bd 81d1 24bf
00000230: 6a22 10bf 64ab 07bf 2554 bc3e 0e90 0cbe
00000240: 80f6 3c3f 310b b7bf eb87 523e d32a 213f
00000250: 1efa 1e3f 7a04 9d3e abb7 55be 0683 12bf
00000260: 0139 2abf 5f7b 12be 4501 713f 10c3 903e
00000270: 3f4b 18be 0223 eebd e796 813d e009 77bf
00000280: 3b41 3dbf c050 cd3d 16cc 9cbe bb81 373f
00000290: b388 9f3e 1606 483f 1906 a63f a598 e23e
000002a0: 2eef a4bf 20f4 a7bf f507 aabe 4140 fabf
000002b0: a08c b6bf 1dc0 06bf 8ba4 b5bf e435 8b3e
000002c0: cccf 3f3d 7a6a c1be 28f3 ee3e 6463 43bf
000002d0: f1a3 8e3e 72f1 1fbe 15ad 04bf 078f 89be
000002e0: 0c38 bcbe 0f3c 1abf b1d5 4b3e 8cba 983f
000002f0: deaf 3bbe f375 fa3e 49d8 d8be 2472 81be
00000300: 2bc0 0e3f acee 103f a13c 653f 3ee7 1ebc
00000310: 614a 8abe 0bba 56bf fd65 9cbf db3d 813f
00000320: 421e 06c0 4679 b13e 4ee7 833e d162 c23e
00000330: 9ab3 3d3e 4ffc 623d 31a3 df3e 06a1 7c3e
00000340: a9ae 513e b0c8 da3e 7c98 793e c6b3 363f
00000350: fdbe 3cbf 0446 a83e b7b5 25be b71b 233f
00000360: 04dc a0be ee5e 9c3e f324 48bf 081a 85bf
00000370: 4fd5 893f afbb e83e bdd8 b3bf 0691 e0bf
00000380: 530d 863e 80f3 20bf 1caa 6fbe def0 34be
00000390: 5a5e 5f3e c720 0a3f c189 38bd f5b9 3bbe
000003a0: 7551 0cbf 673f 4fbf d095 083f 8230 223f
000003b0: 5a7e db3e 4197 713e 55c2 843e b6b2 b33d
000003c0: 00ac ea3e d482 403e f1a9 0cbf 9c2d d5be
000003d0: c3e5 c2be 7ea2 44bf 4c71 5d3f b307 80be
000003e0: 4d28 5c3f 3c70 2bbb 8199 19be 847a 7f3c
000003f0: 6783 0bbf f132 7e3f 1707 5bbe e711 1a3f

fc1.bias f4 [64]
-0.52880013 -0.55548 0.30130237 -0.016001418 -0.12741502 -0.024177123 -0.8903296 -0.020338085
-0.0061336337 -0.03406155 -0.67502284 -0.25987974 -0.27775574 0.5923663 -1.0131342 -0.7461596
-0.27430305 -0.4561338 0.42590463 -0.19201466 -0.847334 0.9259419 0.49226117 -0.49144647
-0.5866272 0.75527817 -0.6967816 -0.5315496 0.45357886 -0.4713657 0.89396584 -1.2186594
0.65768373 -0.44525445 -0.48352277 -0.48814327 0.51687616 -0.021665407 -0.3740122 0.078669086
-0.29892948 -1.3231417 0.29062945 -0.6408761 -0.5576585 0.20247546 -0.10136886 -0.83484566
0.97374517 0.36958662 0.64640266 -0.08978084 -0.6661075 -0.45687926 0.03863303 -0.2350515
0.24533811 -0.1524832 -0.6794398 -0.027477594 -0.15976131 -0.7604829 0.029811941 0.1824449
00000000: 725f 07bf f033 0ebf 4e44 9a3e 6815 83bc
00000010: 1579 02be 1a0f c6bc a4ec 63bf 0e9c a6bc
00000020: a6fc c8bb 2084 0bbd 4cce 2cbf f50e 85be
00000030: 0036 8ebe 51a5 173f 62ae 81bf 5104 3fbf
00000040: 7371 8cbe 5f8a e9be 2c10 da3e 7e9f 44be
00000050: e2ea 58bf 870a 6d3f a809 fc3e df9e fbbe
00000060: 332d 16bf e959 413f 4760 32bf a213 08bf
00000070: 7d3b e83e d856 f1be f2da 643f 08fd 9bbf
00000080: f65d 283f 64f8 e3be 4c90 f7be eaed f9be
00000090: ff51 043f a77b b1bc 877e bfbe 421d a13d
000000a0: 490d 99be b55c a9bf 62cd 943e 7510 24bf
000000b0: b5c2 0ebf ba55 4f3e 7a9a cfbd 72b8 55bf
000000c0: 5d47 793f 753a bd3e a57a 253f 04df b7bd
000000d0: 0586 2abf 14ec e9be ab3d 1e3d 57b1 70be
000000e0: ea39 7b3e 8e24 1cbe c4ef 2dbf b118 e1bc
000000f0: 7898 23be 02af 42bf 2c38 f43c d6d2 3a3e

fc2.weight f4 [64, 64]
-0.1915761 0.022491755 0.12654074 0.37487045 0.8651895 0.99705184 1.6905087 0.4773046
-0.54468435 0.99786294 0.5167842 -0.20184977 0.035932302 -0.0772377 0.35700062 -0.33783478
-0.24875556 -0.98440194 -0.095598415 -0.06741073 1.6069854 3.5126228e-05 -0.62670636 0.86700994
-0.8754397 0.31909797 0.6543039 0.2236026 -0.1225144 0.21079105 0.60560405 1.0947715
0.31647962 -0.9533419 -0.092674464 -0.4091779 0.5272114 -0.58830833 0.447477 -0.2979569
0.5172458 -0.14783539 0.28327075 0.03673894 -0.09251063 -0.69403523 0.01953294 0.5808206
0.30860204 0.29543802 -0.6227019 0.49678198 0.3161827 0.86525303 -0.2445543 1.1384559
-0.02257671 0.0016952157 -0.30867228 0.30188298 -0.31645754 -1.3680446 0.08249744 -1.2121701
0.448711 0.7295816 0.24438201 -0.1433419 0.5378879 0.05011605 1.0544541 -0.237544
-0.7630037 0.6640216 1.0026243 0.5485871 0.27767834 -0.07161115 0.62085617 0.637805
0.50052077 -0.80536735 -0.39778298 0.68726784 1.2035127 -0.12135161 -0.7213741 0.20586646
-1.0107692 0.10906941 0.7511145 0.17456077 -0.2816595 0.21630426 0.13779959 0.08244738
0.335685 0.061185822 -0.31682655 0.5521687 -0.02401781 -1.2748132 0.03374603 -0.14967357
-0.05139226 -0.008496338 0.5876177 0.016720604 -0.18356617 -0.5251584 -0.042689048 0.1057466
0.031767897 -0.4593208 -0.49796396 0.7927339 0.073052734 0.9518441 -0.22512989 0.31618658
0.1025113 -0.0041266233 0.027005687 0.98982203 0.5911137 -0.32763398 0.39795992 -0.94096273
0.21630935 0.48996025 -0.2837704 0.7174361 -0.27109396 1.1795057 0.31855404 0.6838879
0.11394217 0.2230783 -0.5048504 -1.6729444 0.59115803 0.15388165 -0.26046178 -0.65367067
0.5791097 -0.37007692 -2.2928185 0.54273695 0.61186624 -0.10342561 -0.3729166 0.16589567
-0.7241983 0.48531303 -0.22609177 1.1770066 0.23233709 -0.11082343 0.8462782 0.6038549
-0.058070295 -1.7415183 -0.06691834 -1.2832701 0.59661627 -0.39039096 -0.7414234 0.35859507
-0.44840366 -0.9489944 0.35769442 -1.41459 -1.1416262 -0.7116699 -0.26177832 0.63881475
-0.11945319 0.4029558 0.383315 0.1136392 -0.18215644 -0.51496315 -0.46029973 -0.04839672
0.20493506 -0.12285964 -0.5558541 1.9344388 -3.1899652 0.11972593 -0.9469141 -2.1454163
-0.09148586 -0.037547715 -0.086242825 -0.10690329 0.07944207 -0.09467097 -0.08491171 -0.013621717
-0.024900198 -0.104411855 -0.011233693 -0.00016050422 -0.009361731 -0.066875346 0.042348452 -0.13764982
-0.1002285 0.03411123 -0.09273069 0.033978038 0.09507658 -0.070283875 0.031021755 -0.0933775
0.006839071 -0.0012302647 -0.08014677 -0.101358704 -0.15637177 -0.04948774 -0.013161435 -0.018499488
0.046928577 -0.12005247 0.08684371 -0.032241978 -0.11742052 -0.1126345 -0.019305808 -0.103118695
-0.04826332 0.036654208 -0.040663328 0.08510778 -0.0646849 0.032587174 -0.12679256 -0.074034736
-0.019112153 0.038257897 -0.08337769 -0.010620867 -0.1390793 0.028374676 -0.11729247 -0.13079481
-0.0044772476 -0.074710965 0.028572787 0.10830487 -0.078126915 0.050087743 0.09868438 -0.047530323
00000000: 862c 44be a140 b83c e593 013e 05ef bf3e
00000010: 0f7d 5d3f ca3e 7f3f 9762 d83f 4561 f43e
00000020: 6f70 0bbf f273 7f3f f84b 043f b5b1 4ebe
00000030: c02d 133d cd2e 9ebd c9c8 b63e aef8 acbe
00000040: c7b9 7ebe c401 7cbf 1ac9 c3bd a30e 8abd
00000050: b3b1 cd3f 8054 1338 d46f 20bf 5df4 5d3f
00000060: d11c 60bf cf60 a33e 7680 273f 14f8 643e
00000070: d4e8 fabd 9cd9 573e de08 1b3f 7921 8c3f
00000080: 9e09 a23e 370e 74bf 1ccc bdbd c47f d1be
00000090: 54f7 063f 609b 16bf b51b e53e cf8d 98be
000000a0: 396a 043f 2962 17be dd08 913e 927b 163d
000000b0: 3776 bdbd 4bac 31bf 8b03 a03c a9b0 143f
000000c0: 1601 9e3e a743 973e 6469 1fbf 355a fe3e
000000d0: b3e2 a13e 3981 5d3f 716c 7abe ecb8 913f
000000e0: cbf2 b8bc 0032 de3a 4b0a 9ebe 6890 9a3e
000000f0: b906 a2be 161c afbf 6bf4 a83d 6428 9bbf
00000100: 73bd e53e dcc5 3a3f 473f 7a3e 38c8 12be
00000110: 05b3 093f 7d46 4d3d 5af8 863f bc3e 73be
00000120: 3654 43bf 52fd 293f fe55 803f 3470 0c3f
00000130: db2b 8e3e dea8 92bd 6ef0 1e3f 3047 233f
00000140: 2122 003f 8e2c 4ebf 36aa cbbe c9f0 2f3f
00000150: b40c 9a3f 3187 f8bd f9ab 38bf a8ce 523e
00000160: e360 81bf c85f df3d 0a49 403f 0fc0 323e
00000170: ad35 90be dd7e 5d3e 561b 0d3e 2cda a83d
00000180: e8de ab3e fc9d 7a3d 1737 a2be ee5a 0d3f
00000190: 00c1 c4bc 142d a3bf 4739 0a3d 0744 19be
000001a0: b180 52bd 3934 0bbc 1d6e 163f a6f9 883c
000001b0: c5f8 3bbe c870 06bf b6da 2ebd ac91 d83d
000001c0: 0e1f 023d 192c ebbe 22f5 febe 9cf0 4a3f
000001d0: ac9c 953d 0eac 733f 7388 66be 35e3 a13e
000001e0: 72f1 d13d a038 87bb 083b dd3c fa64 7d3f
000001f0: 3a53 173f a4bf a7be 67c1 cb3e efe2 70bf
00000200: 3380 5d3e 12dc fa3e 5b4a 91be e4a9 373f
00000210: d4cc 8abe 0bfa 963f 8419 a33e 4713 2f3f
00000220: 835a e93d a36e 643e e03d 01bf 0b23 d6bf
00000230: 2256 173f 2793 1d3e 3f5b 85be f656 27bf
00000240: 8940 143f b97a bdbe 8abd 12c0 cff0 0a3f
00000250: 44a3 1c3f ced0 d3bd edee bebe 8ee0 293e
00000260: 0f65 39bf f37a f83e 9a84 67be 27a8 963f
00000270: c6e9 6d3e 65f7 e2bd b0a5 583f 3c96 1a3f
00000280: 1edb 6dbd 12ea debf 7c0c 89bd 3242 a4bf
00000290: d8bb 183f 53e1 c7be edcd 3dbf c699 b73e
000002a0: 2a95 e5be 4cf1 72bf b923 b73e 4911 b5bf
000002b0: cf20 92bf 0030 36bf cf07 86be 5d89 233f
000002c0: e0a3 f4bd 3950 ce3e dd41 c43e abbb e83d
000002d0: 3887 3abe a0d4 03bf 68ac ebbe a43b 46bd
000002e0: 7fda 513e d69d fbbd 744c 0ebf b19b f73f
000002f0: 6428 4cc0 de32 f53d f668 72bf 804e 09c0
00000300: f05c bbbd a2cb 19bd 14a0 b0bd 1df0 dabd
00000310: 86b2 a23d dbe2 c1bd 31e6 adbd 9f2d 5fbc
00000320: 80fb cbbc e2d5 d5bd 860d 38bc 064d 28b9
00000330: f261 19bc f1f5 88bd 9275 2d3d 13f4 0cbe
00000340: 9a44 cdbd 38b8 0b3d 97e9 bdbd 8e2c 0b3d
00000350: 83b7 c23d fef0 8fbd 5621 fe3c b43c bfbd
00000360: 491a e03b d540 a1ba fd23 a4bd 2795 cfbd
00000370: ec1f 20be a8b3 4abd 0fa3 57bc 3d8c 97bc
00000380: 2e38 403d 12de f5bd 1ddb b13d 2a10 04bd
00000390: 2b7a f0bd ebac e6bd 3727 9ebc e52f d3bd
000003a0: c2af 45bd b922 163d 978e 26bd fd4c ae3d
000003b0: 8479 84bd 217a 053d e9d5 01be 869f 97bd
000003c0: 1791 9cbc 50b4 1c3d ecc1 aabd 2503 2ebc
000003d0: ce6a 0ebe 0272 e83c 0937 f0bd 13ef 05be
000003e0: e0b5 92bb 1002 99bd 7a11 ea3c f2ce dd3d
000003f0: 0101 a0bd ce28 4d3d 091b ca3d 28af 42bd

fc2.bias f4 [64]
0.7184074 0.3947604 0.6473959 -0.14301622 -0.12230734 -0.02341966 -0.093580976 0.32031342
0.30723447 -0.14624788 0.3274385 1.3468381 0.9345415 -0.46847075 0.07927914 -0.5744753
-0.12536088 0.10267553 0.20812221 -0.2354496 1.5069379 1.0073242 1.0755296 -0.48232475
1.2218473 -0.5508706 0.7776021 0.10313408 0.3427715 -0.0037834647 1.0185906 -0.08516171
1.2807158 -0.117616646 0.5826153 -0.0007519663 1.0220408 0.16438876 0.20904212 0.046644095
0.7826584 -0.019955812 0.24012363 -0.2385852 -0.53995305 0.13325396 0.63814336 -0.06545444
-0.17415853 1.3340251 0.09217223 -0.33895206 -0.036378764 0.055483334 -0.16085331 -0.07927744
-0.58778566 0.0140736075 0.6247647 0.5044141 -0.14364633 1.4331584 -0.39265808 1.407517
00000000: 8ce9 373f 091e ca3e bdbb 253f d872 12be
00000010: 457c fabd 96da bfbc 62a7 bfbd 1f00 a43e
00000020: d64d 9d3e 01c2 15be 05a6 a73e 3165 ac3f
00000030: 1d3e 6f3f 66db efbe 1a5d a23d d010 13bf
00000040: 9a5e 00be 8c47 d23d fd1d 553e b319 71be
00000050: 57e3 c03f 00f0 803f f4aa 893f 45f3 f6be
00000060: 7e65 9c3f db05 0dbf ee10 473f f637 d33d
00000070: bf7f af3e 01f4 77bb 2d61 823f 4369 aebd
00000080: 7fee a33f ffe0 f0bd 4726 153f 9b1f 45ba
00000090: 3cd2 823f 8755 283e 230f 563e e10d 3f3d
000000a0: 4d5c 483f 5f7a a3bc f8e2 753e ae4f 74be
000000b0: 5d3a 0abf ba73 083e 5d5d 233f fa0c 86bd
000000c0: 9d56 32be 56c1 aa3f cbc4 bc3d 208b adbe
000000d0: e601 15bd 7e42 633d bbb6 24be 365c a2bd
000000e0: 1f79 16bf fd94 663c 94f0 1f3f 4821 013f
000000f0: 0618 13be bc71 b73f 7b0a c9be 8429 b43f

fc3.weight f4 [3, 64]
0.1736916 0.0336287 0.41761264 -0.12426339 -0.054373935 -1.2907352 -2.9984381 -1.8527402
-0.04706056 -0.052194525 0.3726596 0.42058697 0.13124049 1.400014 -3.6138372 1.5773747
-0.06576312 -0.5366591 -0.98022383 0.78368366 0.5940067 0.31396922 0.45151743 -0.75462747
0.45145532 -1.6607367 0.23955338 -0.047448594 0.46552867 0.03108496 0.38348156 -0.02628747
0.44882628 -0.047662668 0.5703689 -0.023427859 0.31251958 0.2797263 0.5631789 -0.07475056
0.11344266 0.09393177 0.2643475 0.020026578 -1.0583373 0.21994874 0.18922499 0.11236365
0.02432914 0.55629784 0.80226046 -0.28938177 -1.0796216 -1.880675 -0.011004942 0.1171291
1.1009148 -0.39884672 0.11875196 0.49648154 -0.028597375 0.5035566 -0.403536 0.6029902
-0.22559942 0.09789045 -1.830861 0.0015551227 -0.11390291 0.84515 0.073742576 -0.99351335
-2.507582 -0.037191648 0.1105626 0.47061968 0.4595544 -0.28002676 0.15462957 0.9925195
-0.0062811733 -2.815827 -0.3622906 -0.5120688 0.5297185 0.17630704 0.6353615 -0.43681926
0.5088059 0.21705422 0.022051724 0.052336413 -0.76625556 -0.18183427 0.32802978 -0.065663464
0.58951575 0.086284414 0.3329052 0.02323614 0.2420051 0.6085386 -0.5167229 0.31111735
0.12121925 0.050944652 0.43315694 0.024719695 0.44424644 0.147404 0.11021351 -0.045801476
-0.025639832 0.58616537 0.32104385 -0.32634726 1.8934776 -0.13638817 -0.02664447 -0.019674795
1.0215646 0.23617423 -3.3343568 0.13992701 0.11862941 0.54597336 1.0333577 0.42203036
0.4501703 0.61346537 0.18506831 -0.062414233 0.08630931 -0.10087778 0.11489135 -0.9545765
0.016243476 -0.10748035 -1.9780518 0.44823724 0.22900628 -0.4192801 0.04946501 1.3690666
0.031255394 1.0318485 -0.31631097 -0.16807312 0.56528217 0.42226136 0.44376096 -0.6359172
0.46537256 0.098920055 0.37814912 0.5459505 0.13413224 0.006050927 0.14488463 0.005249137
0.6966468 0.041760743 -0.23865092 -0.025491633 0.53555524 -0.5197402 -0.8723695 -2.1637669
0.06291849 -0.02487969 -3.1594963 0.005872649 -0.863759 -0.17392793 0.45475093 -0.072567806
0.050612204 0.4363073 -0.21943885 0.18917298 2.0217328 -0.023690134 -0.0042470787 -0.021799818
-2.6024678 0.8943302 0.046726465 0.49278522 -0.068450555 0.3492372 0.7985238 0.59268206
00000000: 36dc 313e 3fbe 093d 53d1 d53e ce7d febd
00000010: 34b7 5ebd d036 a5bf 69e6 3fc0 9726 edbf
00000020: 93c2 40bd edc9 55bd 3dcd be3e 2d57 d73e
00000030: e863 063e a933 b33f 1c49 67c0 6ae7 c93f
00000040: d1ae 86bd 7e62 09bf f3ef 7abf 7e9f 483f
00000050: d310 183f 93c0 a03e 4b2d e73e 442f 41bf
00000060: 2725 e73e 0593 d4bf 7b4d 753e 7559 42bd
00000070: c659 ee3e e3a5 fe3c b257 c43e d258 d7bc
00000080: 8fcc e53e ee39 43bd b203 123f c8eb bfbc
00000090: 9102 a03e 4938 8f3e 7e2c 103f d216 99bd
000000a0: a054 e83d 4d5f c03d 8e58 873e c70e a43c
000000b0: 9977 87bf 3e3a 613e 32c4 413e ea1e e63d
000000c0: e84d c73c 8969 0e3f f160 4d3f d929 94be
000000d0: 0a31 8abf f5b9 f0bf 124e 34bc 62e1 ef3d
000000e0: c7ea 8c3f a335 ccbe 3a34 f33d d432 fe3e
000000f0: 0b45 eabc 16e9 003f 459c cebe 915d 1a3f
00000100: 8903 67be ca7a c83d a759 eabf 42d5 cb3a
00000110: ee45 e9bd c05b 583f 5906 973d e456 7ebf
00000120: 397c 20c0 4556 18bd a56e e23d 10f5 f03e
00000130: b74a eb3e ab5f 8fbe 3757 1e3e c215 7e3f
00000140: 4dd2 cdbb 8236 34c0 277e b9be f116 03bf
00000150: a29b 073f d589 343e 0da7 223f c6a6 dfbe
00000160: 1a41 023f 7643 5e3e d1a5 b43c b55e 563d
00000170: 5329 44bf c332 3abe 85f3 a73e 917a 86bd
00000180: 81ea 163f e2b5 b03d 8d72 aa3e b859 be3c
00000190: 2fd0 773e 30c9 1b3f f447 04bf c64a 9f3e
000001a0: cc41 f83d 57ab 503d bfc6 dd3e f580 ca3c
000001b0: 4574 e33e 13f1 163e 9fb7 e13d 549a 3bbd
000001c0: a00a d2bc ef0e 163f dc5f a43e fd16 a7be
000001d0: 795d f23f 57a9 0bbe 8145 dabc 092d a1bc
000001e0: a1c2 823f a8d7 713e 1a66 55c0 0749 0f3e
000001f0: faf3 f23d e9c4 0b3f 1145 843f 5d14 d83e
00000200: b97c e63e 110c 1d3f 8c82 3d3e 11a6 7fbd
00000210: efc2 b03d 0299 cebd 284c eb3d 205f 74bf
00000220: 0a11 853c a81e dcbd cd30 fdbf 5a7f e53e
00000230: 9f80 6a3e e2ab d6be d39b 4a3d 933d af3f
00000240: a805 003d 9d13 843f 83f3 a1be 5c1b 2cbe
00000250: 55b6 103f a432 d83e a334 e33e 78cb 22bf
00000260: 5045 ee3e 9996 ca3d c39c c13e 69c3 0b3f
00000270: f659 093e db46 c63b a35c 143e f400 ac3b
00000280: 7257 323f 500d 2b3d e860 74be d4d3 d0bc
00000290: 261a 093f b20d 05bf 9c53 5fbf 287b 0ac0
000002a0: 69db 803d 7ed0 cbbc 3035 4ac0 5a6f c03b
000002b0: 4f1f 5dbf 2a1a 32be 1dd5 e83e 6e9e 94bd
000002c0: be4e 4f3d ac63 df3e 94b4 60be 90b6 413e
000002d0: 1264 0140 d011 c2bc 142b 8bbb 8895 b2bc
000002e0: d58e 26c0 d3f2 643f 4064 3f3d 584e fc3e
000002f0: ce2f 8cbd 38cf b23e 0e6c 4c3f 03ba 173f

fc3.bias f4 [3]
1.3211089 0.9875008 1.0256472
00000000: 191a a93f dacc 7c3f 6848 833f
