SnakeV3/snake_model_episode_200.pth (torch, 23336 bytes, 6 tensors)

fc1.weight f4 [64, 11]
0.6973751 0.32529035 0.22516309 0.2033408 -0.362421 0.20626475 0.020418325 -0.27929872
-0.29745623 -0.5660325 -0.003168997 0.5011504 0.731266 0.49366614 -0.54839927 -0.7888657
-0.24804835 -1.0472134 0.31441864 -0.0147577105 0.28943542 0.009024925 -0.6909162 0.4315338
-0.25362152 -0.63427925 0.23215182 0.47254142 0.2829097 -0.5955198 0.45028314 0.4963706
-0.36185133 -0.69176275 0.66474324 0.56656134 0.12329661 0.16862568 0.024152094 0.08931517
0.05493527 0.34860078 -0.49553278 -0.26371562 -0.13310541 0.119776875 0.33764476 0.47571966
-0.36384976 0.27061716 -1.1209791 0.58504975 -0.7838679 -0.9655714 -1.4611608 -0.24611813
-0.8828921 1.5845155 0.10206822 -0.36773306 0.05141044 -0.86820877 0.12013449 0.32920435
0.45441902 -0.23146915 0.8825254 0.57123625 0.32489336 -0.38883767 0.008875179 -0.5642889
-0.13089694 0.18053135 -0.09907581 0.48673844 0.36553535 -0.73392826 -0.31919745 0.09722172
-0.1433282 0.32966423 -0.41354543 0.5091713 0.16351151 0.23706986 -0.64465487 0.1630297
-0.26688993 -0.8568471 0.29209656 0.066780925 -0.21605694 0.22405858 0.41949496 0.4553114
-0.08285204 -0.2463766 -0.23659699 -0.20197694 -0.16841237 -0.6502444 -0.6077553 -0.64897376
-0.3506638 0.4721978 -1.1710583 -0.44267705 -0.42516628 0.70260805 0.8347806 0.33719882
0.2614547 0.040298168 0.006685846 -0.64803344 -0.07140101 -0.12623756 -0.7012776 -0.009544674
-0.20880869 0.37597772 1.1999378 0.13382833 -0.4050193 0.17237656 -0.6136286 -0.19100222
-0.36774543 -0.39916787 -0.15185133 -0.5429497 -0.6634299 1.1648808 0.72260517 -0.06684975
-1.0831321 0.22519812 -0.3965959 -0.57643974 -0.10762403 -0.24742006 0.27916095 -0.111694574
0.57733786 -0.923429 0.24376966 0.42459112 0.2931298 0.5409322 -0.074647725 -0.23067932
-0.23951897 0.107153125 1.2430141 0.32459235 -0.12590237 0.0060599362 -0.07526075 -0.7650831
-0.45337507 0.11275523 -0.18944067 0.0028435066 0.5026166 0.13777836 0.5190032 0.08195598
-0.2827232 -0.8433627 0.1939014 -1.0070374 -0.4655352 -0.49934155 -0.036217406 0.7225645
-0.2930862 -0.36018473 0.60881263 -0.35523123 0.20677814 -0.11224022 -0.29338616 0.043762427
-0.26202485 0.028020974 -0.013609102 1.0867128 -0.22390899 -0.016075881 -0.38876206 -0.17208338
0.382298 0.67710257 0.42872456 0.036218427 -0.16172808 -1.1378897 -0.68624806 0.45467278
-1.4132162 0.23569314 -0.0022050492 -0.021901397 0.1615072 0.06251819 0.2877469 0.052746605
0.065208994 -0.040707428 0.1015657 0.8053507 -0.5344007 -0.14559843 0.14913826 0.58036536
-0.1774511 0.25451982 -0.3144244 -0.46714526 0.8422565 0.27164513 0.2058725 -0.8462897
0.2163469 -0.47290608 -0.09014531 -0.65522647 0.12219993 0.36806256 0.02267386 0.15203536
-0.5826192 -0.88509834 0.19937277 0.23384783 0.43055475 0.2582239 0.18591459 0.16074312
0.45023498 0.2434109 -0.52434886 -0.22117929 -0.59182084 -0.6444697 0.49452603 -0.0740507
0.42571884 -0.1370455 -0.047075637 0.41078216 -0.40262997 0.87918836 -0.9346959 0.9341595
00000000: 2d87 323f 758c a63e 2791 663e 9238 503e
00000010: 3f8f b9be 1137 533e 5544 a73c 3e00 8fbe
00000020: 2f4c 98be 82e7 10bf f2ae 4fbb 654b 003f
00000030: 4034 3b3f cfc1 fc3e e563 0cbf 1af3 49bf
00000040: 6300 7ebe 170b 86bf 7bfb a03e 53ca 71bc
00000050: e130 943e 47dd 133c e2df 30bf 00f2 dc3e
00000060: aeda 81be 2060 22bf 35b9 6d3e f3f0 f13e
00000070: 8ad9 903e fc73 18bf 838b e63e 4a24 fe3e
00000080: 9444 b9be 5d17 31bf 9d2c 2a3f 2a0a 113f
00000090: ef82 fc3d 36ac 2c3e 9dda c53c dfea b63d
000000a0: ce03 613d cd7b b23e 79b6 fdbe bc05 87be
000000b0: c94c 08be 944d f53d c6df ac3e 8791 f33e
000000c0: 844a babe 558e 8a3e 3e7c 8fbf d2c5 153f
000000d0: 91ab 48bf b02f 77bf 5107 bbbf 6406 7cbe
000000e0: 3705 62bf 67d1 ca3f 2509 d13d 8247 bcbe
000000f0: c193 523d ee42 5ebf 1209 f63d 798d a83e
00000100: 9ca9 e83e 4006 6dbe 2fed 613f 8a3c 123f
00000110: 6c58 a63e bb15 c7be 3369 113c 3d75 10bf
00000120: d909 06be 36dd 383e 42e8 cabd c835 f93e
00000130: 7327 bb3e b9e2 3bbf d96d a3be 2e1c c73d
00000140: a1c4 12be c0c9 a83e 3abc d3be 0d59 023f
00000150: 906f 273e 71c2 723e 1a08 25bf 42f1 263e
00000160: cca5 88be 555a 5bbf ae8d 953e 70c4 883d
00000170: 083e 5dbe 9d6f 653e 0bc8 d63e 931e e93e
00000180: 55ae a9bd 264a 7cbe 7b46 72be 0bd3 4ebe
00000190: 4b74 2cbe 6b76 26bf da95 1bbf 2523 26bf
000001a0: 358a b3be e9c3 f13e 3de5 95bf 91a6 e2be
000001b0: 65af d9be 1fde 333f 2eb4 553f 53a5 ac3e
000001c0: 64dd 853e b10f 253d f114 db3b 85e5 25bf
000001d0: b13a 92bd 6b44 01be ee86 33bf 4461 1cbc
000001e0: f2d1 55be 2780 c03e 9097 993f 4b0a 093e
000001f0: b15e cfbe 7b83 303e c416 1dbf 1696 43be
00000200: 2149 bcbe bb5f ccbe ea7e 1bbe c0fe 0abf
00000210: 8bd6 29bf d01a 953f a7fc 383f 86e8 88bd
00000220: 13a4 8abf 569a 663e 9e0e cbbe 8e91 13bf
00000230: fd69 dcbd af5b 7dbe 2fee 8e3e 20c0 e4bd
00000240: 6acc 133f d865 6cbf c19e 793e 0264 d93e
00000250: 1c15 963e 887a 0a3f e8e0 98bd 3337 6cbe
00000260: 7644 75be 1973 db3d 161b 9f3f f830 a63e
00000270: 8dec 00be 6e92 c63b 4f22 9abd 7cdc 43bf
00000280: c720 e8be 37ec e63d bcfc 41be 205a 3a3b
00000290: 7bab 003f c515 0d3e 65dd 043f 89d8 a73d
000002a0: 18c1 90be 9ee6 57bf 178e 463e 9ae6 80bf
000002b0: a15a eebe b2a9 ffbe b458 14bd fdf9 383f
000002c0: 650f 96be 226a b8be 25db 1b3f dee0 b5be
000002d0: a6bd 533e 33de e5bd b636 96be 3b40 333d
000002e0: 1f28 86be 3e8c e53c b6f8 5ebc 6819 8b3f
000002f0: 6648 65be 91b1 83bc d20b c7be a036 30be
00000300: 90bc c33e 9856 2d3f c981 db3e c659 143d
00000310: 0c9c 25be 5fa6 91bf f4ad 2fbf dfca e83e
00000320: 45e4 b4bf 8b59 713e 9682 10bb 8f6a b3bc
00000330: 2562 253e 8909 803d 9053 933e d30c 583d
00000340: 4b8c 853d d5bc 26bd ad01 d03d 772b 4e3f
00000350: 7cce 08bf c117 15be b3b7 183e d392 143f
00000360: beb5 35be 6c50 823e 3cfc a0be aa2d efbe
00000370: 1f9e 573f 1215 8b3e 3ed0 523e 71a6 58bf
00000380: 0b8a 5d3e bf20 f2be 1b9e b8bd ecbc 27bf
00000390: f543 fa3d b272 bc3e 88be b93c 28af 1b3e
000003a0: 8826 15bf ce95 62bf 6028 4c3e ce75 6f3e
000003b0: ac71 dc3e ec35 843e 6560 3e3e d899 243e
000003c0: 3385 e63e b540 793e ba3b 06bf d37c 62be
000003d0: 9281 17bf f7fb 24bf 8432 fd3e e5a7 97bd
000003e0: d2f7 d93e a855 0cbe 62d2 40bd 0a52 d23e
000003f0: 8425 cebe 7d12 613f 3b48 6fbf 1425 6f3f

fc1.bias f4 [64]
0.05592877 -0.28047085 0.27140975 0.11145118 0.112748794 -0.031666216 -0.28670627 0.21141118
0.026398562 -0.2050268 -0.020630524 -0.0326916 0.1412803 0.55996263 -0.43094468 -0.18549052
0.34307212 -0.047599234 0.3520123 0.29066542 -0.39672065 0.63838845 0.16299777 -0.17343833
-0.24181116 0.58472323 0.0143350875 -0.0015046593 0.39215478 -0.20714733 0.6734822 -0.31902382
0.580192 0.22429442 -0.04624371 -0.14423548 0.21536656 0.30428115 0.15256278 0.35188544
-0.16455784 -0.5985291 0.11152128 -0.2358862 -0.29039875 0.1271235 -0.08291144 -0.12765302
0.6549021 0.18425524 0.54517597 0.22543664 -0.08475177 -0.11153763 0.017875211 0.06747421
0.36138847 -0.1524832 0.14490122 -0.04517144 -0.01673006 -0.3137688 0.3297047 -0.042878535
00000000: 9115 653d e099 8fbe 38f6 8a3e 8440 e43d
00000010: d7e8 e63d 6fb4 01bd 2acb 92be 2c7c 583e
00000020: cc41 d83c 8cf2 51be 5801 a9bc a1e7 05bd
00000030: c8ab 103e b659 0f3f c8a4 dcbe 3af1 3dbe
00000040: 26a7 af3e 6af7 42bd f53a b43e 19d2 943e
00000050: f81e cbbe 6d6d 233f e3e8 263e d199 31be
00000060: 589d 77be 6cb0 153f b7dd 6a3c fd37 c5ba
00000070: 83c8 c83e 6e1e 54be 5469 2c3f 1757 a3be
00000080: 7787 143f 70ad 653e 0b6a 3dbd 77b2 13be
00000090: 0d89 5c3e bdca 9b3e 6b39 1c3e 542a b43e
000000a0: da81 28be 3439 19bf 4565 e43d 278c 71be
000000b0: 25af 94be aa2c 023e 79cd a9bd 79b7 02be
000000c0: aaa7 273f 68ad 3c3e a790 0b3f ddd8 663e
000000d0: 5692 adbd d76d e4bd 096f 923c eb2f 8a3d
000000e0: e907 b93e 8e24 1cbe fc60 143e b005 39bd
000000f0: 7b0d 89bc 4ea6 a0be 0ecf a83e 67a1 2fbd

fc2.weight f4 [64, 64]
-0.08489448 -0.009610779 0.21203189 0.2741144 0.688447 0.5369463 0.16670553 0.32243925
-0.2803428 0.6694883 0.13881943 0.39001942 0.38325182 0.06528995 -0.60553735 -0.0074962075
0.119551994 -0.97883767 0.24734992 0.22466393 0.52751184 0.15566024 0.054730773 0.30582413
-0.50958097 0.27545014 0.23276396 0.30453777 -0.008965043 0.41689625 0.44751143 0.22812116
0.52995837 -0.050939053 0.3432005 0.1337938 0.5202818 -0.20274603 0.12211003 0.033157595
-0.055905476 -0.4891466 0.28290984 -0.37456647 -0.010190917 0.084096745 0.0472542 0.34107196
0.3773699 0.40783626 0.07674862 0.34567145 -0.3881135 0.28473005 0.1705542 0.52454287
0.26884636 0.0016952157 -0.1336679 0.68570155 0.11901566 -0.80667526 0.05216989 -0.7952929
0.03913992 0.1836649 0.44210327 0.31772855 0.6095735 0.22318755 0.31222713 0.30188495
-0.29243243 0.47842667 0.28396678 0.50598204 0.3698731 0.32121947 -0.4106173 0.26285797
0.01882566 -0.76768166 0.347978 0.26333877 0.69137955 0.1912753 0.05274911 -0.043448307
-0.40156502 0.18850951 0.15330851 0.2288057 -0.06303856 0.3894271 0.13672455 0.11553028
0.55038154 0.15421376 0.23515032 0.48805335 0.31357166 -0.1958173 0.34147012 0.068120085
-0.09852436 -0.7052505 0.53634036 0.043064646 0.14764705 0.18950114 0.3027994 0.091820896
0.4462633 0.02922251 0.06504767 0.4436285 -0.22894025 0.19096136 0.21891361 0.36823064
0.16766979 -0.0041266233 -0.1881337 0.6742158 0.2956029 -0.45851856 0.16741815 -0.32768288
-0.08195173 0.3832116 -0.32896256 0.39555347 -1.6056575 1.1611671 0.55161846 0.62396806
-0.035587855 -0.58479756 0.48514512 -0.37659022 0.07822534 -0.23134217 0.22867702 -0.655698
0.46726647 -0.10147129 -0.6618331 0.6749603 0.019279005 -0.20160943 -0.0049477564 0.63503104
-0.061442625 0.3115965 0.31437743 0.9076927 0.08955836 0.4109787 0.4516364 0.1783537
-0.7074221 -0.6960422 0.4942796 -0.31160107 0.23977114 -0.5864068 -0.49042976 -0.15414716
-0.19104998 0.29600823 0.2325304 -0.62048197 -0.6954701 -0.49705434 -0.29221937 0.08339255
-0.20882197 0.48726943 -0.15178807 0.10749952 -0.035465788 0.11435646 -0.45947236 0.10918901
0.30389827 -0.12285964 0.13433944 1.2986486 -0.92593324 -0.08895949 -0.13910632 -0.7371947
-0.059752204 -0.0058398573 -0.086242825 -0.10690329 0.07944207 -0.06292714 -0.053185526 -0.013621717
-0.024900198 -0.104411855 0.02051253 0.03159143 -0.009361731 -0.036436256 0.07409703 -0.13764982
-0.1002285 0.06586343 -0.09273069 0.033978038 0.09507658 -0.0385587 0.0620393 -0.0933775
0.038566813 0.03043757 -0.08014677 -0.06965819 -0.12466593 -0.017738186 -0.013161435 -0.018499488
0.07866682 -0.12005247 0.08684371 -0.032241978 -0.11742052 -0.1126345 0.012300715 -0.103118695
-0.04826332 0.036654208 -0.040663328 0.08510778 -0.032953415 0.064193025 -0.12679256 -0.04229934
-0.019112153 0.038257897 -0.08337769 -0.010620867 -0.1390793 0.060118094 -0.11729247 -0.13079481
-0.0044772476 -0.074710965 0.028572787 0.10830487 -0.046405688 0.050087743 0.09868438 -0.047530323
00000000: 28dd adbd 8776 1dbc e31e 593e b958 8c3e
00000010: 103e 303f 5075 093f dbb4 2a3e c216 a53e
00000020: 1789 8fbe 9663 2b3f ae26 0e3e a0b0 c73e
00000030: 9539 c43e bdb6 853d 7f04 1bbf bfa2 f5bb
00000040: add7 f43d 1b95 7abf 4c49 7d3e 4d0e 663e
00000050: 040b 073f 6665 1f3e 602d 603d fb94 9c3e
00000060: e673 02bf cd07 8d3e ad59 6e3e 60ec 9b3e
00000070: 1ee2 12bc 6d73 d53e 3820 e53e 9898 693e
00000080: 5aab 073f 78a5 50bd fab7 af3e 3e01 093e
00000090: 3031 053f a89c 4fbe d314 fa3d 42d0 073d
000000a0: 24fd 64bd 6c71 fabe 8fd9 903e 2dc7 bfbe
000000b0: cef7 26bc ea3a ac3d 9f8d 413d fca0 ae3e
000000c0: a136 c13e eacf d03e 612e 9d3d d9fb b03e
000000d0: d0b6 c6be 23c8 913e c3a5 2e3e 7148 063f
000000e0: 3ba6 893e 0032 de3a 3de0 08be 238a 2f3f
000000f0: 7bbe f33d 4582 4ebf 18b0 553d 5198 4bbf
00000100: 2e51 203d a712 3c3e 5c5b e23e 51ad a23e
00000110: 020d 1c3f 478b 643e 3cdc 9f3e aa90 9a3e
00000120: b4b9 95be 57f4 f43e 1864 913e 0a88 013f
00000130: 0260 bd3e e176 a43e 6e3c d2be 5295 863e
00000140: 4538 9a3c c986 44bf 2c2a b23e 57d4 863e
00000150: 40fe 303f acdd 433e 730f 583d daf6 31bd
00000160: ee99 cdbe a308 413e e8fc 1c3e 0b4c 6a3e
00000170: 5c1a 81bd fd62 c73e 8501 0c3e 249b ec3d
00000180: cee5 0c3f 36ea 1d3e 3fcb 703e 21e2 f93e
00000190: 778c a03e 5584 48be 2cd5 ae3e 8b82 8b3d
000001a0: 24c7 c9bd 4c8b 34bf 9a4d 093f 8e64 303d
000001b0: ca30 173e 960c 423e 8608 9b3e 980c bc3d
000001c0: a07c e43e 0c64 ef3c b637 853d 4623 e33e
000001d0: 506f 6abe 608b 433e e42a 603e ba88 bc3e
000001e0: a1b1 2b3e a038 87bb 1fa6 40be 6899 2c3f
000001f0: 4359 973e f2c2 eabe aa6f 2b3e 0dc6 a7be
00000200: 4fd6 a7bd 5034 c43e c86d a8be fc85 ca3e
00000210: 2f86 cdbf 20a1 943f de36 0d3f 5fbc 1f3f
00000220: 92c4 11bd 4bb5 15bf f164 f83e 6fd0 c0be
00000230: 9b34 a03d f6e4 6cbe 4f2a 6a3e d3db 27bf
00000240: 8d3d ef3e 2ed0 cfbd e56d 29bf 33ca 2c3f
00000250: 01ef 9d3c b472 4ebe ca20 a2bb 6591 223f
00000260: 43ab 7bbd 9489 9f3e 14f6 a03e 8c5e 683f
00000270: 606a b73d cd6b d23e e33c e73e 5aa2 363e
00000280: 9d19 35bf d22f 32bf 3712 fd3e 2d8a 9fbe
00000290: 9186 753e c21e 16bf 9c19 fbbe c1d8 1dbe
000002a0: 9ba2 43be 648e 973e 731c 6e3e e8d7 1ebf
000002b0: 540a 32bf e87d febe c79d 95be b7c9 aa3d
000002c0: 6dd5 55be 617b f93e 556e 1bbe b528 dc3d
000002d0: 9344 11bd b833 ea3d f63f ebbe 7d9e df3d
000002e0: 8e98 9b3e d69d fbbd 4790 093e 1e3a a63f
000002f0: f609 6dbf 6530 b6bd e371 0ebe cbb8 3cbf
00000300: babe 74bd 465c bfbb 14a0 b0bd 1df0 dabd
00000310: 86b2 a23d f2df 80bd 11d9 59bd 9f2d 5fbc
00000320: 80fb cbbc e2d5 d5bd e509 a83c 0466 013d
00000330: f261 19bc 2f3e 15bd 2fc0 973d 13f4 0cbe
00000340: 9a44 cdbd 68e3 863d 97e9 bdbd 8e2c 0b3d
00000350: 83b7 c23d baef 1dbd ec1c 7e3d b43c bfbd
00000360: 3cf8 1d3d 3658 f93c fd23 a4bd f4a8 8ebd
00000370: da50 ffbd ac4f 91bc 0fa3 57bc 3d8c 97bc
00000380: 121c a13d 12de f5bd 1ddb b13d 2a10 04bd
00000390: 2b7a f0bd ebac e6bd f088 493c e52f d3bd
000003a0: c2af 45bd b922 163d 978e 26bd fd4c ae3d
000003b0: 29fa 06bd a277 833d e9d5 01be 1342 2dbd
000003c0: 1791 9cbc 50b4 1c3d ecc1 aabd 2503 2ebc
000003d0: ce6a 0ebe 643e 763d 0937 f0bd 13ef 05be
000003e0: e0b5 92bb 1002 99bd 7a11 ea3c f2ce dd3d
000003f0: e413 3ebd ce28 4d3d 091b ca3d 28af 42bd

fc2.bias f4 [64]
0.45323908 0.39007428 0.20185634 -0.111274354 -0.12230734 0.2988921 -0.08090552 0.041806046
0.2870902 -0.11448279 0.092488796 0.7659236 0.6734161 0.119623505 0.0340917 0.013083305
-0.093597844 -0.038318884 0.071660586 0.36947754 0.83367795 0.6006693 0.64081913 -0.24276644
0.6718235 -0.17002736 0.46495637 0.49031112 0.5876909 0.05492844 0.5805556 -0.05348985
0.6512007 -0.085850954 0.4082435 -0.0007519663 0.5262081 0.27397352 0.04838926 0.17854062
0.43628433 0.01682795 0.13533686 -0.09200534 -0.045904633 0.29654044 0.5770826 -0.06545444
-0.14977567 0.68853545 0.3911392 -0.07579598 0.27093118 0.1937912 -0.16085331 -0.07927744
-0.21633337 0.36570603 0.21189861 0.33291686 -0.11980244 0.83797115 0.12698154 0.73748106
00000000: f40e e83e d1b7 c73e 6eb3 4e3e cfe3 e3bd
00000010: 457c fabd 6308 993e cbb1 a5bd d13c 2b3d
00000020: 7dfd 923e f475 eabd c46a bd3d 9213 443f
00000030: ff64 2c3f 2bfd f43d bda3 0b3d 5c5b 563c
00000040: 3ab0 bfbd 43f4 1cbd c9c2 923d 292c bd3e
00000050: eb6b 553f 77c5 193f b90c 243f c497 78be
00000060: a0fc 2b3f a71b 2ebe c30e ee3e 0f0a fb3e
00000070: e972 163f a5fc 603d 4b9f 143f 2c18 5bbd
00000080: 17b5 263f a0d2 afbd 4b05 d13e 9b1f 45ba
00000090: 93b5 063f 4246 8c3e d133 463d 5ad3 363e
000000a0: a960 df3e c5da 893c bf95 0a3e 4c6d bcbd
000000b0: 7f06 3cbd 26d4 973e afbb 133f fa0c 86bd
000000c0: cb5e 19be dc43 303f 6643 c83e ec3a 9bbd
000000d0: 7eb7 8a3e 3371 463e bbb6 24be 365c a2bd
000000e0: 7f86 5dbe d23d bb3e f3fb 583e 1474 aa3e
000000f0: fb5a f5bd 4785 563f 7307 023e 8fcb 3c3f

fc3.weight f4 [3, 64]
0.4090303 0.40424266 0.2208022 -0.12426339 -0.054373935 -0.005722036 -1.8842043 -1.0044489
0.2263135 -0.08395572 0.33033556 0.3576206 0.3244084 0.25053263 -1.6485405 0.14477463
-0.06576312 -0.40032214 -0.648499 0.32873 0.43101183 0.37086225 0.3630311 -0.53082615
0.3891785 -0.5448981 0.36329517 0.3372252 0.34089127 0.03108496 0.44985628 0.0054085534
0.36678803 -0.079426154 0.5638719 -0.023427859 0.34918913 0.3004352 0.090111576 0.14330447
0.39805782 0.06870702 0.2861508 -0.11528717 0.023687188 0.34245908 0.28150657 0.11236365
0.05598822 0.42435616 0.10946797 -0.012567553 -0.5936296 -1.419511 -0.011004942 0.1171291
0.073489524 0.33899647 0.16119581 0.16153324 -0.0031677336 0.3843357 0.020924227 0.45704028
-0.06885737 0.092543066 -1.3540996 0.03324908 -0.11390291 0.42119974 0.22478119 -0.1658897
-1.1282704 -0.037191648 0.54364055 0.49917862 0.6409726 0.2061524 0.44743168 0.012748793
0.025471207 -0.3184057 -0.033540227 0.08359605 0.49765655 0.18901995 0.6488846 -0.2851433
0.53571415 -0.10737887 0.1568538 0.05214285 0.075337246 -0.20287576 0.1382124 -0.065663464
0.5934832 0.086284414 0.46924192 0.02323614 0.25172088 0.06700167 -0.6328875 0.2603591
0.05312502 0.041285016 0.49381492 0.06883563 0.3249502 0.19980621 0.4918376 -0.045801476
-0.014219695 0.5820682 0.56963366 0.015958434 1.1474725 0.1596496 -0.02664447 -0.019674795
0.3929365 0.03160324 -2.374855 -0.093810506 0.08304685 0.57643497 0.107922904 0.38815728
0.04232364 -0.09752049 0.40901572 -0.062414233 0.08630931 0.17847648 0.30328903 0.064649716
0.29935813 -0.10748035 -0.6989557 0.4416682 0.2623362 -0.29608098 0.036220238 -0.102137074
0.031255394 0.31904104 -0.2065317 -0.0032899824 0.5816455 0.5769789 0.3470471 -0.34012955
0.44099078 0.37789947 0.5777446 0.41374052 0.2734175 0.037806172 0.42317197 0.005249137
0.7144814 0.041760743 -0.07152878 -0.025491633 0.66808957 -0.2547007 -0.52511877 -1.0176893
-0.089054994 -0.08641659 -1.9777313 0.12419337 -0.090269014 -0.33827692 0.26389402 -0.072567806
0.050612204 0.44103664 0.11503417 -0.012075608 1.7634817 0.11997696 -0.0042470787 -0.021799818
-1.1391287 0.34140775 0.19185433 0.6868503 -0.09159329 0.3467209 0.39069456 0.5994085
00000000: 6b6c d13e e5f8 ce3e f919 623e ce7d febd
00000010: 34b7 5ebd eb7f bbbb 9b2d f1bf c891 80bf
00000020: babe 673e faf0 abbd be21 a93e 0c1a b73e
00000030: dc18 a63e d045 803e 6003 d3bf cd3f 143e
00000040: d1ae 86bd 06f7 ccbe 0804 26bf 4c4f a83e
00000050: 95ad dc3e a8e1 bd3e 36df b93e 39e4 07bf
00000060: 6842 c73e 717e 0bbf d301 ba3e c8a8 ac3e
00000070: 4d89 ae3e e3a5 fe3c 9053 e63e 3c3a b13b
00000080: a4cb bb3e 2eaa a2bd e959 103f c8eb bfbc
00000090: ebc8 b23e a4d2 993e 6b8c b83d 68be 123e
000000a0: 3cce cb3e 44b6 8c3d 5c82 923e ae1b ecbd
000000b0: a20b c23c cc56 af3e a121 903e ea1e e63d
000000c0: e753 653d 3645 d93e be30 e03d 23e8 4dbc
000000d0: 1cf8 17bf 89b2 b5bf 124e 34bc 62e1 ef3d
000000e0: ad81 963d f290 ad3e 8410 253e f868 253e
000000f0: c099 4fbb a6c7 c43e 4969 ab3c 2f01 ea3e
00000100: 1805 8dbd 3887 bd3d 2353 adbf 3030 083d
00000110: ee45 e9bd 7ea7 d73e 0a2d 663e fdde 29be
00000120: 2a6b 90bf 4556 18bd 072c 0b3f 5794 ff3e
00000130: c816 243f 9d19 533e c415 e53e 50e0 503c
00000140: fea8 d03c 1206 a3be 7a61 09bd 6834 ab3d
00000150: d7cc fe3e 728e 413e 4d1d 263f 4dfe 91be
00000160: 9024 093f 74e9 dbbd 489e 203e be93 553d
00000170: 6a4a 9a3d aabe 4fbe 8d87 0d3e 917a 86bd
00000180: 84ee 173f e2b5 b03d 7a40 f03e b859 be3c
00000190: 8fe1 803e 2c38 893d ea04 22bf ca4d 853e
000001a0: 9f99 593d 7a1a 293d 4fd5 fc3e b2f9 8c3d
000001b0: df5f a63e 009a 4c3e 23d2 fb3e 549a 3bbd
000001c0: b9f9 68bc 6c02 153f 83d3 113f 43bb 823c
000001d0: 61e0 923f 2f7b 233e 8145 dabc 092d a1bc
000001e0: f92e c93e 6672 013d a0fd 17c0 b91f c0bd
000001f0: 7814 aa3d 3e91 133f af06 dd3d 8dbc c63e
00000200: 8e5b 2d3d d3b8 c7bd 826a d13e 11a6 7fbd
00000210: efc2 b03d 8ac2 363e b348 9b3e 1267 843d
00000220: 7845 993e a81e dcbd c3ee 32bf 5622 e23e
00000230: ee50 863e ed97 97be ac5b 143d 3e2d d1bd
00000240: a805 003d 5959 a33e 0c7d 53be bf9c 57bb
00000250: b8e6 143f e4b4 133f 28b0 b13e 7625 aebe
00000260: 8bc9 e13e 0a7c c13e 12e7 133f ccd5 d33e
00000270: 61fd 8b3e a5da 1a3d ffa9 d83e f400 ac3b
00000280: 41e8 363f 500d 2b3d ae7d 92bd d4d3 d0bc
00000290: eb07 2b3f 2168 82be 2f6e 06bf a543 82bf
000002a0: 7762 b6bd 2efb b0bd 4d26 fdbf 1859 fe3d
000002b0: f6de b8bd a232 adbe 1e1d 873e 6e9e 94bd
000002c0: be4e 4f3d 8ecf e13e 0997 eb3d c5d8 45bc
000002d0: c5b9 e13f 7bb6 f53d 142b 8bbb 8895 b2bc
000002e0: f8ce 91bf ffcc ae3e 7675 443e 6cd5 2f3f
000002f0: 4395 bbbd 6785 b13e 1e09 c83e d672 193f

fc3.bias f4 [3]
0.50041646 0.47862783 0.3943091
00000000: 4b1b 003f b50e f53e e2e2 c93e
