SnakeV3/snake_model_episode_300.pth (torch, 23336 bytes, 6 tensors)

fc1.weight f4 [64, 11]
00000000: 28ea 483f 1b26 573e 2053 b33e fce1 9d3e
00000010: b6ff 96be a430 0f3e 1459 513e cbbc c0be
00000020: cb11 8dbe 36b2 22bf 1e7b 9abd c4fb 103f
00000030: 3a5c 583f d00f f53e 8d8f 11bf 5edc 8abf
00000040: c6b4 04be 4cdf adbf 52ef c53e 0719 d9bd
00000050: 3eb2 b13e be7b 05be 8f26 23bf ab67 ec3e
00000060: 75a5 bdbe 157a 4abf fe31 7c3e 468f 1e3f
00000070: 4f32 993e 7ca8 46bf a564 0b3f d47d fe3e
00000080: 8e31 10bf d011 09bf bd44 0d3f 7bbc 1c3f
00000090: c359 813e 34e2 b9bd 7427 0abe 5e18 813e
000000a0: ab30 e0bd 6227 e83e 3fbf 0fbf 1ccc d4be
000000b0: 4093 99be 28d2 333e db21 9a3e 99b1 163f
000000c0: 0bff 75bf 27ac 013e 128d 93bf d1ce 053f
000000d0: 9499 fabe 80c8 89bf b6f7 c0bf edd4 2abe
000000e0: 5151 83bf 5d82 d23f cca9 de3d aa82 19bf
000000f0: 5a89 e23d df88 33bf f2d4 963d 948f 573e
00000100: 0201 e03e 1c3b b0be 1835 4e3f cbca 0c3f
00000110: 9157 a03e 11bc fbbe a3a5 03bd 6c27 f0be
00000120: 3a9b e6be 7825 b63c 0550 e6bc cad3 013f
00000130: de38 4a3e ad46 2abf 45ed bebe 91f3 1d3e
00000140: 951d 56be 70ff 843e 555b adbe e816 343f
00000150: a80e 8e3e 5f9a 4b3e f0c9 0cbf f0ce 1a3d
00000160: 9845 79be 54bc 74bf 4e51 773e a549 fb3d
00000170: 42c0 8cbd eb6f b73e 2ca7 e33e 9125 cf3e
00000180: 0043 1c3d 68a4 86be f416 85be e07c bebe
00000190: 518c 9ebc 2631 46bf 28c1 27bf b24a f6be
000001a0: 3657 1cbf b8c0 113f b656 bbbf 1685 41bf
000001b0: d8b8 27bf 8f3d 563f 3d7b 543f 3e09 b63e
000001c0: 01fa a33e b183 06bd b728 1d3e ec12 51bf
000001d0: bf44 b1bc 8f46 7bbe 1608 1ebf 01ab fdbd
000001e0: 61de 6cbe aa7b 883e 14ab 893f 5e06 793e
000001f0: 0b8a dabe 3507 6a3e 4838 56bf 500f 3a3d
00000200: acb5 97be 0dd5 4fbf 0092 0cbe 9f04 01bf
00000210: 5efd fabe 197e 803f d826 523f a35a 483b
00000220: 284a a0bf 4727 9a3c bc81 e5be d848 23bf
00000230: f1e6 4ebd 0756 f4be 13a7 d93e 023a bebd
00000240: 9250 1c3f e5c6 63bf 3d38 893e b2f3 ed3e
00000250: dd7d 8e3e 5069 163f dbcc acbc aa57 b4be
00000260: 5580 adbe 0369 ea3d b64f 9f3f 0932 163e
00000270: 2f4d 03bd d0b5 5dbe 78cf 80bd 194f 44bf
00000280: 43fe c2be e2d0 febd df41 bcbd 1dcb 443e
00000290: 2bb9 ab3e 90ca 0d3e 3c4c 0d3f a8fd ae3e
000002a0: aa5c b2be 90b7 13bf d0eb 003d eaaa 9abf
000002b0: e386 2dbf a018 27bf 98ee e7be bf01 2d3f
000002c0: 91b2 86bd df84 bfbe 6dd8 333f d0da 92be
000002d0: b55c ca3d e58f dd3d 2837 f9be 9a71 1f3d
000002e0: 2ebb 92be 1d94 86bd 29b1 0c3e bb57 913f
000002f0: e803 2fbe 94c1 473e 3e0b b7be 3270 27be
00000300: 3aae df3e cc2e 3a3f 7d10 bb3e 3971 9f3d
00000310: 0161 a5be 5675 84bf 26ba 3ebf 9402 003f
00000320: ab7c c1bf 1a03 6c3e 308d 893d 69a6 0f3d
00000330: 39cb 373e 24b7 093e 0221 a03e bf93 d73d
00000340: d189 883d 5f30 063e 558f 5bbd e623 573f
00000350: 0fd4 e0be 10aa ebbc c8c4 72bd 68e8 213f
00000360: 25e5 fdbd 0b44 823e c7a4 1dbf a23e 0bbf
00000370: eb94 703f a24e 6d3e 8954 a8be 64be 91bf
00000380: 53e9 1a3d e955 1abf d020 3cbe 64e4 5fbf
00000390: bb61 9d3d 509c 993e 14d4 6b3e e745 ed3d
000003a0: 61e9 0fbf 88a8 59bf 8b44 a83e 98b0 6c3e
000003b0: 48d9 c63e c848 9b3e 0661 8f3e c02c 613d
000003c0: 872d 073f 7318 223e 3e83 00bf d881 9cbe
000003d0: 2832 ffbe f7fb 24bf 181f 083f 6eab 7f3c
000003e0: f64f 053f ac8b cbbd e5ac fabc eca5 913e
000003f0: d00d ecbe ec59 6f3f e2c3 32bf 0403 6b3f
0.78482294 0.2101063 0.35024357 0.30836475 -0.29491967 0.13983399 0.20444137 -0.37644038
-0.27552637 -0.6355318 -0.07543014 0.56634164 0.84515727 0.47863626 -0.56859666 -1.0848501
-0.12959585 -1.358377 0.3865915 -0.10600477 0.347063 -0.13035485 -0.6373071 0.46172842
-0.37040296 -0.7909253 0.24628446 0.6193737 0.29921195 -0.77600837 0.54450446 0.49705374
-0.56325614 -0.53542805 0.5518301 0.612251 0.25263795 -0.09076348 -0.13491613 0.25213903
-0.10946783 0.45342547 -0.56151193 -0.41561973 -0.29995155 0.17560637 0.30103955 0.5886474
-0.9609229 0.12663327 -1.1527426 0.522687 -0.48945296 -1.0764313 -1.5075595 -0.16682787
-1.0259191 1.6446034 0.1087223 -0.59965 0.11061354 -0.70130724 0.07364835 0.21050864
0.4375077 -0.34420097 0.80549765 0.5499694 0.31316808 -0.4916692 -0.032140385 -0.46905077
-0.45040303 0.022234663 -0.028114328 0.5071379 0.19748256 -0.6651409 -0.37290397 0.15424944
-0.20909722 0.25976133 -0.33858743 0.7034745 0.27745557 0.19883107 -0.5499563 0.037795007
-0.24342954 -0.95599866 0.24152109 0.12269906 -0.06872608 0.35827574 0.4446348 0.40458348
0.038149834 -0.26297307 -0.25994074 -0.37204647 -0.019354017 -0.77418745 -0.6552911 -0.48103863
-0.61070573 0.5693469 -1.4635837 -0.755937 -0.65516424 0.8368768 0.83000547 0.35553926
0.32026675 -0.032840434 0.15347563 -0.816695 -0.021639226 -0.24538635 -0.6173109 -0.12386132
-0.23131706 0.26656848 1.0755334 0.24318835 -0.42683443 0.22854312 -0.8367963 0.04542476
-0.29630792 -0.81184465 -0.1372757 -0.50397676 -0.4902143 1.0038482 0.8209052 0.0030571602
-1.2522631 0.018817557 -0.44825542 -0.63783026 -0.05051321 -0.47721884 0.4251028 -0.09288408
0.6106044 -0.88975364 0.2680072 0.46474987 0.278304 0.58754444 -0.021093776 -0.35223132
-0.33886972 0.11445811 1.2446201 0.14667524 -0.03205603 -0.21651387 -0.062895715 -0.76683193
-0.3808461 -0.12442185 -0.091922514 0.19218107 0.3353971 0.13846803 0.5519445 0.341779
-0.34836322 -0.5770197 0.03147489 -1.2083409 -0.67783946 -0.6527195 -0.4529922 0.6758079
-0.065770276 -0.3740606 0.70252115 -0.28682566 0.09880964 0.10818461 -0.48674893 0.0389267
-0.28658432 -0.06571219 0.13739456 1.1354898 -0.17091334 0.19507438 -0.35750765 -0.16351393
0.43687612 0.72727656 0.36536017 0.077852674 -0.3230057 -1.0348308 -0.7450279 0.50003934
-1.5116171 0.23048058 0.067163825 0.03507081 0.17948617 0.13448769 0.31275183 0.10526227
0.066669114 0.1310439 -0.05360349 0.8403915 -0.43911788 -0.028767616 -0.059269696 0.6324525
-0.123972215 0.25442538 -0.61579555 -0.54392445 0.9397723 0.23174527 -0.32876995 -1.1386228
0.03782017 -0.6028734 -0.18371892 -0.8745787 0.07684656 0.3000207 0.2303012 0.115855984
-0.5621548 -0.85022783 0.32864794 0.2311424 0.38837647 0.30328965 0.2800371 0.054974318
0.52803844 0.15829639 -0.5020026 -0.30567813 -0.49842954 -0.6444697 0.53172445 0.015604837
0.52075136 -0.0993875 -0.03060002 0.284469 -0.46104288 0.93496585 -0.69830143 0.91801476

fc1.bias f4 [64]
00000000: 8a6f 8fbb 9585 90be f7dc a03e 029c 963d
00000010: 6f3b 43bd ced6 8bbd a913 ccbe 9ba8 313e
00000020: 1028 48bd 5a9e 9bbd 045a 43be 68d9 2cbd
00000030: 6fbb 633d bbca 163f ae59 f7be ca4a a0be
00000040: e048 8c3e 030c 03bd 28e3 c53e d8bf 873e
00000050: 4645 06bf 044e 313f 75f1 843e a23a 83be
00000060: 75cd 8fbe 575e 193f 1697 c8bd e1fd cdbd
00000070: 1aaf da3e df46 57be ef2f 303f 09ea 00bf
00000080: 377a 133f a1c0 513e b0c1 efbd b06f 48be
00000090: dae5 953e 6bc0 863e faae 243e ec21 a13e
000000a0: 71d8 d0bd d79a 33bf 9714 4e3e 5324 6fbe
000000b0: 4183 b6be 6bee 853d 2c6a 82bd e154 6fbe
000000c0: cd10 383f 478c 863e 5927 0e3f 0f77 1f3e
000000d0: a73d 23be be91 5cbe e8d9 a53c a9e9 183d
000000e0: e8ff d03e 8e24 1cbe d0a7 85bd e5f2 1ebd
000000f0: 7a93 edbc 4774 9dbe d913 ac3e 4f67 8bbc
-0.00437731 -0.28226915 0.31418583 0.07353975 -0.047664102 -0.0682808 -0.3985875 0.17349474
-0.04886633 -0.075985625 -0.19077307 -0.042199522 0.055598672 0.5890309 -0.48310608 -0.3130706
0.2739935 -0.031993877 0.3864987 0.26513553 -0.5244945 0.6925967 0.25965467 -0.2563067
-0.2808644 0.59909576 -0.09794442 -0.10058189 0.42711717 -0.21023129 0.6882314 -0.5035711
0.5760836 0.20483638 -0.11706865 -0.19573855 0.29276925 0.26318678 0.16082373 0.31471193
-0.10197533 -0.7015814 0.20125042 -0.233537 -0.35647014 0.06539615 -0.06367907 -0.23372222
0.71900636 0.26278898 0.5552879 0.15572761 -0.15941487 -0.21539971 0.020245507 0.03733221
0.4082024 -0.1524832 -0.06526148 -0.03880586 -0.029000986 -0.30752775 0.33608893 -0.017017035

fc2.weight f4 [64, 64]
00000000: 8d3f b4be 0966 1b3d 527c 9d3e 886b 933e
00000010: 583b 373f ebad 133f 33a6 983e 5327 923e
00000020: a321 90be c2a9 303f d82f 8e3d 2608 b53e
00000030: 962b b93e 6069 ba3b 5703 06bf 6744 9bbd
00000040: 4f18 d13c a7ae 8abf 6643 043e e7d3 553e
00000050: 63d4 653f 053a bc3d c79e 9fbd a5d8 8b3d
00000060: 8177 7cbf 6a80 543e 5ee6 bbbc 77c8 9c3e
00000070: d19f b0bd 94bd e23e 30d6 df3e fd8a de3e
00000080: 3d6f fb3e b8c8 29bc 115d 8f3e da61 563e
00000090: e3b4 f13e 2f69 f3be 723a 94ba 4952 f3bd
000000a0: 2e31 893d db17 5abf 3221 aa3e aa92 08bf
000000b0: 9a43 f2bc 9621 34bc f2df 333d e6f0 513e
000000c0: 9c51 c23e 2196 973e c114 31bd 369a bb3e
000000d0: 9298 11bf 7e77 9d3e ec04 0a3e cb1b 1e3f
000000e0: 1243 373e 0032 de3a ed3d 9bbe 8642 403f
000000f0: 6fe5 0d3e ff71 b5bf 0aff 29bd d6be 34bf
00000100: fd08 c8bc fa45 873e 7eaa ff3e d245 b53e
00000110: c39f 2b3f b80e 8a3e 14b4 d53e fb0d 853e
00000120: fb03 64be 9413 f93e 824e 4a3e 47f2 f13e
00000130: 18d4 ca3e 1afd 973e a48a b2be 882d 843e
00000140: c7b8 f9bc ba77 39bf 215b 783e 59d7 953e
00000150: 3f54 2c3f 37a5 2e3e 9349 71bd 1224 18be
00000160: db42 31bf 4c8d 323e 1d50 a43d cd91 933e
00000170: 17d6 a5bd 5de8 df3e 5c90 393e 9232 a63e
00000180: 88bb 063f 95eb 243e 777b 963e 81d4 0a3f
00000190: 2afa 9f3e 69cd cfbe df77 863e ee6f 66bd
000001a0: f52a f73d 10bf 42bf 93a2 0c3f aa95 6b3c
000001b0: 3fab 043e 5827 bc3d 15ff a53e 2166 593e
000001c0: 8a8e e83e b102 10bd 6a13 5fbd ee00 f73e
000001d0: b5cb 6ebe d6b9 4b3e 5450 0e3e 2e4b df3e
000001e0: 70e2 df3d a038 87bb 6df4 3fbe b9f4 453f
000001f0: f7dc 893e ca48 27bf 7da4 323e 8346 47be
00000200: 2207 79be 6fb9 fb3e 5186 6bbe 6ea5 023f
00000210: c202 99bf 9802 983f ee23 493f 27d1 333f
00000220: 6de6 01be 4913 6ebf cac8 8b3e 93f9 0fbf
00000230: f691 3d3e a433 fabd 3453 8e3e 1fdb 12bf
00000240: 7eef 0b3f 0f40 94bd 1747 72bf 6878 3c3f
00000250: 43eb 733e db3d 2cbe 6a8e 6c3d 2357 133f
00000260: 2b7d f1be d9bc ad3e 4641 9d3d f3bf 763f
00000270: 50b8 043e 2450 f93e 53d1 023f cc36 a13e
00000280: 7cd8 8abf 2b39 10bf 820b e43e 7941 f4bd
00000290: 898a b73e d642 46bf 81a3 b5be 4e41 a3bd
000002a0: 2d45 afbe 6588 003e 065b b13e bd7c 89bf
000002b0: 557e 50bf deb0 dabe 455b 97be 1d2b 98bd
000002c0: 0301 00be e704 013f c0c5 26be 5c90 1b3e
000002d0: 5771 04be 7c42 613e 0d64 03bf 1e9c 14bd
000002e0: efde b83e d69d fbbd 9e42 4cbd 3f6d 8b3f
000002f0: b958 81bf 5ddd 1fbd 9dc6 48be 66e7 5bbf
00000300: babe 74bd 465c bfbb 14a0 b0bd 1df0 dabd
00000310: 86b2 a23d f2df 80bd 11d9 59bd 9f2d 5fbc
00000320: 80fb cbbc e2d5 d5bd e509 a83c 0466 013d
00000330: f261 19bc 2f3e 15bd 2fc0 973d 13f4 0cbe
00000340: 9a44 cdbd 68e3 863d 97e9 bdbd 8e2c 0b3d
00000350: 83b7 c23d baef 1dbd ec1c 7e3d b43c bfbd
00000360: 3cf8 1d3d 3658 f93c fd23 a4bd f4a8 8ebd
00000370: da50 ffbd ac4f 91bc 0fa3 57bc 3d8c 97bc
00000380: 121c a13d 12de f5bd 1ddb b13d 2a10 04bd
00000390: 2b7a f0bd ebac e6bd f088 493c e52f d3bd
000003a0: c2af 45bd b922 163d 978e 26bd fd4c ae3d
000003b0: 29fa 06bd a277 833d e9d5 01be 1342 2dbd
000003c0: 1791 9cbc 50b4 1c3d ecc1 aabd 2503 2ebc
000003d0: ce6a 0ebe 643e 763d 0937 f0bd 13ef 05be
000003e0: e0b5 92bb 1002 99bd 7a11 ea3c f2ce dd3d
000003f0: e413 3ebd ce28 4d3d 091b ca3d 28af 42bd
-0.35204735 0.037939105 0.3075891 0.28792977 0.71574926 0.5768725 0.298143 0.28545627
-0.28150663 0.6900903 0.06942719 0.3535778 0.36166066 0.005688831 -0.52348846 -0.07581406
0.025524287 -1.083455 0.12916335 0.20881616 0.897772 0.09190754 -0.07793956 0.06828431
-0.9861985 0.20752111 -0.022936996 0.30621693 -0.086242326 0.44285262 0.437181 0.43465415
0.49108306 -0.0103627965 0.28000692 0.20935765 0.47208318 -0.47541186 -0.0011308922 -0.11880929
0.066988334 -0.8519265 0.3322845 -0.5334879 -0.02957325 -0.010994336 0.043914743 0.20502052
0.37952888 0.29606727 -0.043232683 0.3664109 -0.5687343 0.30755228 0.1347844 0.6176116
0.17896679 0.0016952157 -0.30320683 0.75101507 0.13857053 -1.4175414 -0.04150299 -0.7060369
-0.024418348 0.26420575 0.49934763 0.3540483 0.6704065 0.26964355 0.4173895 0.2598723
-0.22267143 0.4864775 0.19756511 0.47255155 0.3961494 0.2968529 -0.348714 0.25815988
-0.030483617 -0.72448313 0.24253513 0.2926586 0.6731605 0.17055212 -0.058908056 -0.1485751
-0.6924264 0.17436713 0.08023093 0.28822175 -0.08097475 0.43731967 0.18121475 0.32460457
0.526299 0.16105492 0.2939107 0.54230505 0.31245548 -0.40586403 0.2626333 -0.05625909
0.1206874 -0.7607279 0.5493557 0.014378944 0.1295595 0.09187192 0.32421175 0.21230365
0.4542125 -0.035158817 -0.054461874 0.48242897 -0.23319896 0.1989511 0.1389783 0.43612045
0.109318614 -0.0041266233 -0.18745585 0.7732654 0.26926395 -0.6534544 0.1744556 -0.19460492
-0.24319127 0.49164912 -0.23000456 0.51033676 -1.1953967 1.1875792 0.7857045 0.70241016
-0.12685557 -0.92998177 0.27301627 -0.56240195 0.18512711 -0.12216881 0.27797854 -0.573656
0.5466231 -0.07238781 -0.94639724 0.73621225 0.23820214 -0.16820471 0.057753004 0.57554835
-0.47165808 0.33933142 0.076784655 0.9638664 0.12960935 0.48693955 0.51100653 0.3148712
-1.0847316 -0.5633723 0.4454003 -0.119265504 0.3584788 -0.77445734 -0.35476306 -0.0797144
-0.34232464 0.1255203 0.34639758 -1.0741192 -0.8144277 -0.42713064 -0.2956182 -0.07430098
-0.12500386 0.50398105 -0.16286373 0.15191787 -0.1293386 0.21998018 -0.5132454 -0.036281697
0.36107585 -0.12285964 -0.04986822 1.0892714 -1.0105201 -0.039029468 -0.19607015 -0.8589996
-0.059752204 -0.0058398573 -0.086242825 -0.10690329 0.07944207 -0.06292714 -0.053185526 -0.013621717
-0.024900198 -0.104411855 0.02051253 0.03159143 -0.009361731 -0.036436256 0.07409703 -0.13764982
-0.1002285 0.06586343 -0.09273069 0.033978038 0.09507658 -0.0385587 0.0620393 -0.0933775
0.038566813 0.03043757 -0.08014677 -0.06965819 -0.12466593 -0.017738186 -0.013161435 -0.018499488
0.07866682 -0.12005247 0.08684371 -0.032241978 -0.11742052 -0.1126345 0.012300715 -0.103118695
-0.04826332 0.036654208 -0.040663328 0.08510778 -0.032953415 0.064193025 -0.12679256 -0.04229934
-0.019112153 0.038257897 -0.08337769 -0.010620867 -0.1390793 0.060118094 -0.11729247 -0.13079481
-0.0044772476 -0.074710965 0.028572787 0.10830487 -0.046405688 0.050087743 0.09868438 -0.047530323

fc2.bias f4 [64]
00000000: d766 063f 8647 003f 3dad a93e cfe3 e3bd
00000010: 457c fabd f211 813e af86 84bd 4e85 943d
00000020: efaa 973e f475 eabd 60df 293e 9cd6 6e3f
00000030: 15b3 483f 3d63 ed3d b5ef b73d 5c5b 563c
00000040: 3ab0 bfbd 5c4d 64bc ac5e 603d 6e6b ee3e
00000050: 0d8d 813f 2138 323f 8397 423f 7018 49be
00000060: 3143 513f add4 08be 1ba5 113f 26db 1a3f
00000070: 9388 363f a5fc 603d 4325 303f 4369 aebd
00000080: dbfc 553f a0d2 afbd c7e7 033f 9b1f 45ba
00000090: 7788 263f 55fd aa3e c5c3 823d d10c 623e
000000a0: 6a8b 0a3f c5da 893c b7bc 133e 4c6d bcbd
000000b0: 94cc cbbd 1681 c23e d247 2d3f fa0c 86bd
000000c0: cb5e 19be 1c64 5e3f f74f de3e 8277 00be
000000d0: d2c4 713e a54b 963e bbb6 24be 365c a2bd
000000e0: 5b90 64be 5c06 eb3e 1497 a33e f0cd c43e
000000f0: fb5a f5bd 839d 813f 72b2 e03c e905 6a3f
0.5250067 0.50109136 0.33139983 -0.111274354 -0.12230734 0.25209004 -0.06471001 0.07251988
0.296226 -0.11448279 0.16589117 0.9329622 0.7839826 0.11591194 0.08981267 0.013083305
-0.093597844 -0.01393446 0.054777786 0.46566337 1.012117 0.69616896 0.7601244 -0.19638228
0.8174315 -0.1336238 0.56892556 0.60490644 0.71302146 0.05492844 0.68806857 -0.08516171
0.8358895 -0.085850954 0.5152554 -0.0007519663 0.6505198 0.33396402 0.06384996 0.22075202
0.5411898 0.01682795 0.14427458 -0.09200534 -0.099511296 0.3798911 0.67687714 -0.06545444
-0.14977567 0.86871505 0.43420383 -0.12545589 0.23610237 0.29354587 -0.16085331 -0.07927744
-0.22320692 0.4590329 0.319512 0.38438368 -0.11980244 1.0126194 0.02742884 0.9141527

fc3.weight f4 [3, 64]
00000000: 3c7a c43e 41bf c63e 2b94 853e ce7d febd
00000010: 34b7 5ebd 7a12 d2bd 1519 1ec0 ef0e 96bf
00000020: a791 8e3e faf0 abbd bbef bd3e 651b c33e
00000030: b857 aa3e 2600 283e ce20 1cc0 cd3f 143e
00000040: d1ae 86bd d9a7 0abf 494e 5dbf b2dc 933e
00000050: 1c74 ee3e 628f b73e bbe8 c83e 71f7 45bf
00000060: ad99 d43e bb52 62bf 530f c43e d827 963e
00000070: 3f35 a43e e3a5 fe3c 18ee de3e d258 d7bc
00000080: 1014 c53e 2eaa a2bd cffe 113f c8eb bfbc
00000090: 2f95 b03e 5edf 633e 1cac 2b3e c8cf 2b3e
000000a0: c6c1 c03e 44b6 8c3d 26a4 ad3e ae1b ecbd
000000b0: bc4a f9be 4570 9a3e 2204 963e ea1e e63d
000000c0: e753 653d cc18 e63e 3a95 153e 0c0a a4bd
000000d0: 3ad1 2ebf e2d8 ebbf 124e 34bc 62e1 ef3d
000000e0: 0124 8b3e d27d 923e 68bd 6b3e 0d4d 1b3e
000000f0: c099 4fbb 6611 d53e 81c9 4f3d a15d fa3e
00000100: b7ad 14bd cf16 c33d 09c1 c6bf 3030 083d
00000110: ee45 e9bd fed8 9c3e 370a 183e 56da 65be
00000120: 5a86 b4bf 4556 18bd 39dc f13e 8738 ff3e
00000130: f447 1e3f f3a8 033e 4d88 d93e 50e0 503c
00000140: fea8 d03c cfb5 08bf 0f68 713b 5781 a33d
00000150: 6987 043f 8991 483e 081e 213f 0a1c 81be
00000160: 8372 053f 3965 2dbe cf13 0d3e d6c8 923d
00000170: 1af4 0d3e aabe 4fbe 793f 303e 917a 86bd
00000180: 3ef2 163f e2b5 b03d f0ff d43e b859 be3c
00000190: cef7 8b3e 4665 563d 3278 29bf 8ec4 373e
000001a0: 8dd5 b53d 7a1a 293d abb8 023f b2f9 8c3d
000001b0: 5984 d23e 959d 393e 877b eb3e 549a 3bbd
000001c0: b9f9 68bc 7cb1 163f bab1 053f c2a6 8d3c
000001d0: 19e7 8a3f 22c0 e83d 8145 dabc 092d a1bc
000001e0: 9769 163f 982f 123d 4740 2fc0 d2d6 953c
000001f0: 7814 aa3d 2991 133f 8770 853c 81a3 d33e
00000200: 8fd4 2f3e a598 21bc c702 a43e 11a6 7fbd
00000210: efc2 b03d 6d43 003e 92f5 983e 16d1 15bd
00000220: a636 1c3e a81e dcbd 7ef8 79bf 2570 e23e
00000230: cbe3 823e b340 01bf 5c80 ad3c 3e2d d1bd
00000240: a805 003d 0f90 9b3e 8015 16bf e0c9 c13b
00000250: 7179 133f 35f5 0c3f f4e2 bb3e bcee 52bf
00000260: 5909 f33e ded7 b43e 8b63 083f a1e0 ac3e
00000270: ba21 5f3e a5da 1a3d c456 d93e f400 ac3b
00000280: ab2e 403f 500d 2b3d ec1e babd d4d3 d0bc
00000290: d34f 243f 4936 a4bd 20e0 0fbf d36d cdbf
000002a0: 8327 2b3d 2efb b0bd e845 1cc0 1859 fe3d
000002b0: 032c 4abe 0a6c 38be a8d1 6e3e 6e9e 94bd
000002c0: be4e 4f3d 80b1 e33e 1828 9d3d c0cb ac3d
000002d0: b1b8 0440 91ed 533d 142b 8bbb 8895 b2bc
000002e0: 40f2 d3bf 0bb9 703e de2f 133e 6ceb 163f
000002f0: 4395 bbbd 7f0a b33e 6a50 a13e 6e56 163f
0.38374507 0.3881779 0.26089606 -0.12426339 -0.054373935 -0.102574304 -2.470281 -1.1723307
0.278455 -0.08395572 0.37096962 0.38106838 0.3327005 0.16406307 -2.4395022 0.14477463
-0.06576312 -0.54162365 -0.8644758 0.28879315 0.4657296 0.3585158 0.3924006 -0.7733069
0.41523495 -0.88407487 0.3829294 0.29327273 0.32071874 0.03108496 0.43541026 -0.02628747
0.3849187 -0.079426154 0.5702943 -0.023427859 0.34488818 0.22253177 0.16764873 0.16778481
0.37647837 0.06870702 0.33914298 -0.11528717 -0.4868983 0.3016378 0.29300028 0.11236365
0.05598822 0.44940794 0.14607707 -0.08009729 -0.68288004 -1.8425562 -0.011004942 0.1171291
0.27175906 0.28611618 0.23021472 0.15166111 -0.0031677336 0.41614836 0.05072928 0.48899558
-0.03629848 0.09525835 -1.552766 0.03324908 -0.11390291 0.30634302 0.14847647 -0.2244657
-1.4103501 -0.037191648 0.4723833 0.49847814 0.6182854 0.12857418 0.42486802 0.012748793
0.025471207 -0.5340242 0.0036835705 0.07983654 0.5176912 0.19586767 0.6293645 -0.25216705
0.52127856 -0.16933145 0.13777088 0.07167213 0.13862649 -0.20287576 0.17211713 -0.065663464
0.5896338 0.086284414 0.41601515 0.02323614 0.27337497 0.052342676 -0.6619903 0.17946073
0.08878622 0.041285016 0.5106303 0.06883563 0.41116598 0.18126519 0.4599268 -0.045801476
-0.014219695 0.5886457 0.52224314 0.01729143 1.0851775 0.113647714 -0.02664447 -0.019674795
0.5875487 0.03568992 -2.7382982 0.01829091 0.08304685 0.5764337 0.016289009 0.4133568
0.17170928 -0.009863053 0.3203337 -0.062414233 0.08630931 0.12525721 0.29874855 -0.036576353
0.15255222 -0.10748035 -0.97644794 0.44226184 0.25564417 -0.5048935 0.02117937 -0.102137074
0.031255394 0.30383345 -0.58626556 0.005913958 0.5760718 0.55061656 0.3669659 -0.8239553
0.4746807 0.35320944 0.5327689 0.33765128 0.2179021 0.037806172 0.4244901 0.005249137
0.7507121 0.041760743 -0.09087929 -0.025491633 0.641843 -0.080181666 -0.5620136 -1.6049141
0.04178573 -0.08641659 -2.4417667 0.12419337 -0.19743352 -0.18009964 0.23322165 -0.072567806
0.050612204 0.4447136 0.07673663 0.084373 2.0737727 0.051740233 -0.0042470787 -0.021799818
-1.6558304 0.23508088 0.14373729 0.58952975 -0.09159329 0.34968945 0.31506664 0.5872563

fc3.bias f4 [3]
00000000: e63b 383f 364a 1d3f b204 fc3e
0.719664 0.6144136 0.49222332
